cnn.pt (torch_old, 304898 bytes, 12 tensors)

conv1.weight f4 [3, 1, 5, 5]
00000000: 804e 98bd 21ca 5b3e 991f f43e f80d 613c
00000010: 6fa5 53be ea1c b73e a89a 343e f953 ef3e
00000020: 93fd b93d 5d39 993c 3801 223e e56d 77bd
00000030: 52d2 233e cc2f 613b c2d4 aebe 7e3d a13b
00000040: 8d91 c83d 9e33 273c 7a04 68bd 35f4 7fbd
00000050: 6b4d 493e 832e 5b3c 67bd 5e3e fb1a 1d3d
00000060: 210e 65be 3ef7 003f 5745 af3d 939a 843d
00000070: 8404 843e 0e74 fb3e ba92 7f3d ca19 03bd
00000080: 960c 5abd 78c1 d0bd 9ba7 173e 83cc 2b3e
00000090: 3810 913d a8fd 673c f768 00bd 6dd0 0d3d
000000a0: 58e6 423e 9252 ae3c ee4f 75be d18f 3a3d
000000b0: 9798 1a3c 4ecb f93d e3db 8a3d b537 61bd
000000c0: 805e da3d 2994 3bbe 9636 afbd 3479 2abe
000000d0: e9cf dcbe fc21 e5be 1c6a c4bd 48f9 49bd
000000e0: 2128 66bd 7f52 b3be 0885 99be 31ce 3a3d
000000f0: be4d 32bc 8a5b 1cbe 7a72 83be d3b4 1ebe
00000100: 019a ae3d 5882 ab3c 2bb6 bfbd 5f93 8fbe
00000110: ceba b0bd 7d65 97bc fb6a 70bd 34aa 98bd
00000120: 67f9 95be 31e5 bbbe 6b4e 5f3e
-0.07436848 0.21463825 0.47680357 0.013736241 -0.20668577 0.35764247 0.17637122 0.46743754
0.090815686 0.01870411 0.15820777 -0.060407538 0.159982 0.0034360765 -0.34146696 0.0049206605
0.097933866 0.010205178 -0.056644894 -0.062488753 0.19658439 0.0133777885 0.21751939 0.03835581
-0.22368671 0.5037726 0.085581474 0.06474795 0.25784695 0.4911198 0.06239579 -0.032007016
-0.05323466 -0.10193151 0.1481003 0.16777234 0.070831716 0.014159597 -0.031350102 0.0346226
0.19033182 0.021279607 -0.23956272 0.04554731 0.009435794 0.121969804 0.06780221 -0.054984767
0.10662556 -0.18318237 -0.08555333 -0.16647798 -0.43127373 -0.4475249 -0.09590551 -0.04931
-0.056190614 -0.35023877 -0.29984307 0.045606796 -0.010882793 -0.15269294 -0.25673276 -0.15498666
0.08525468 0.020936176 -0.09360918 -0.28042123 -0.0862938 -0.01848101 -0.058695775 -0.07454339
-0.2929184 -0.36698297 0.21807258

conv1.bias f4 [3]
00000000: c5f7 5fbd 9428 5c3d b04e 663d
-0.05467965 0.053749636 0.056227386

conv2.weight f4 [3, 3, 3, 3]
00000000: 3f9d b63d 124f fd3e 5618 3b39 5528 6ebd
00000010: fdaf 2d3c 39ab ee3c a708 f0bd c71a 0f3e
00000020: 654a 663d 2e2a 03bd 9f82 4bbe 01e2 cb3e
00000030: 8d9c 10be 330e 183e b3da 6d3e 3701 a73c
00000040: f6c9 a6bd bd51 603e 575d 3fbe 0196 7a3e
00000050: 7391 e43d dffd 0ebe 4bd1 513e a631 9abb
00000060: 64fb 87be cbdd 97bc 9e76 593e 81d6 7bbe
00000070: 121e 223e 012c bd3d d7e8 e5bc 100b 673e
00000080: ffec a83e 5466 213d c5ea 9a3e f25a 6dbd
00000090: ea04 2c3d cbec abbe 7de3 d43d 16ee 4f3d
000000a0: 5a7d 05be 70eb 60bd 17ea 1f3d b517 07be
000000b0: 2e0c 263e dde6 683e d0a2 113f 9cd8 ab3e
000000c0: f7b9 523e e648 813e 4a28 063d 5aad 053e
000000d0: 4f00 253e 6bca 1b3e 283f 393e 55e9 6d3e
000000e0: e98c fc3e 3c1c 043e 89e2 a03e 57f7 3c3e
000000f0: c211 19bd eb78 01bc f235 9c3e 9efe 123e
00000100: 3c14 b53e c092 5f3e 26b9 a43d a394 243e
00000110: 68b8 1f3d 811e 25be 795b b2bc 5f72 333e
00000120: 5224 8bbe c1ab 93be 693b 74bd 0691 a23b
00000130: 8a0c a1bd bed5 3ebd 7e3b ac3c d964 4ebe
00000140: c0ae 3bbe
0.08916711 0.49474388 0.00017842776 -0.058143932 0.010601041 0.02913438 -0.117204 0.13975058
0.056223292 -0.032022648 -0.19874047 0.39820865 -0.1412222 0.14849167 0.23227958 0.020386321
-0.0814399 0.2190618 -0.1868795 0.24471284 0.11160555 -0.13964032 0.20489995 -0.0047056256
-0.26558983 -0.018538376 0.21236655 -0.24593545 0.15831783 0.09236909 -0.028065128 0.22562814
0.32993314 0.03940423 0.3025724 -0.05794806 0.041996874 -0.33579096 0.103949524 0.050764166
-0.13036099 -0.05491203 0.039041605 -0.13192637 0.16215584 0.22744317 0.5688906 0.33563697
0.20578752 0.2525093 0.032753266 0.1305441 0.16113399 0.15213935 0.18090498 0.2323354
0.49326256 0.12901396 0.31422833 0.18453728 -0.03737045 -0.007902364 0.30509907 0.14354941
0.35367 0.21833324 0.08043127 0.16072325 0.038994223 -0.16124918 -0.021772133 0.17524098
-0.27176148 -0.28841975 -0.05962697 0.004961136 -0.0786372 -0.04659056 0.021024462 -0.20155658
-0.1832838

conv2.bias f4 [3]
00000000: 52d2 b4bd a61f 42be 5830 fd3d
-0.08829178 -0.18957385 0.123627365

conv3.weight f4 [3, 3, 3, 3]
00000000: ca01 a43e 48ba 7abe f45a 9f3c 6045 6a3e
00000010: 86d9 60be 2bd6 83bd c1a7 433e eeae 0dbe
00000020: 1c84 babc aa96 71bd 1d29 c73c 1c34 fcbe
00000030: da1f e63d acfb 463d ef90 3cbe b965 09bc
00000040: 4b4e 16bd 1157 a3bd 1135 c73e b3f6 a53e
00000050: 1574 373e 4058 5b3d 1ede 503e 2084 c6bb
00000060: d743 403e 5c20 5c3e e9ff aebb 207d b93d
00000070: a075 993e ee00 3ebe 48a7 eebd 6138 253e
00000080: 2042 963d 0e9d 143e ff49 f63d 4f81 a1bd
00000090: 46bb 0bbe 7e09 b23e d549 813d b0e6 f9bd
000000a0: 8950 6d3e f86e 91bc b13b e1bd 76ec b43d
000000b0: 6640 253d e861 ad3e 5d33 4c3d b0cc 4cbe
000000c0: 4af7 fc3d 63c3 81bd 3f30 f1bd 85d6 bfbc
000000d0: edd4 9cbd ed45 aabb dc9e 23be 20ba 193c
000000e0: d83e 0cbe c855 d7bc 6fb5 00be 707c ebbd
000000f0: 7fb3 3e3e 00a8 debb e071 58bd fc77 3b3d
00000100: 6c0e 1fbe 3a4e 08be 842b 1c3d 6b6f 073e
00000110: de0b 803d 4ff5 30be e8f3 47bd 6716 20be
00000120: 96a3 26be 4191 29be cfc0 44be e0ec 4fbc
00000130: 6aed febd de09 bb3d 8682 bebd ea90 9b3d
00000140: 0728 9bbd
0.32032615 -0.24485123 0.01945255 0.22878027 -0.21957979 -0.06437334 0.19106962 -0.13836262
-0.022768073 -0.058981575 0.024311597 -0.49258506 0.11236544 0.048579857 -0.18414663 -0.008386069
-0.03669576 -0.07975591 0.38907674 0.3241478 0.17915376 0.05355096 0.20397231 -0.006058231
0.18775879 0.21496719 -0.0053405655 0.09057069 0.29972553 -0.18555042 -0.11653 0.16134788
0.07336831 0.14513037 0.120258324 -0.07885992 -0.13645658 0.34772867 0.063129105 -0.12202203
0.23175253 -0.01775311 -0.10997713 0.08834164 0.04034462 0.3386376 0.04985367 -0.19999957
0.12351854 -0.06336095 -0.1177678 -0.02341772 -0.076578 -0.005196324 -0.15978569 0.009382755
-0.13695848 -0.02628602 -0.12569211 -0.11498344 0.1862316 -0.0067949295 -0.052842975 0.045768723
-0.15532845 -0.13311091 0.038127437 0.13226096 0.062522635 -0.17281078 -0.04881659 -0.15633546
-0.1627334 -0.16559316 -0.19214176 -0.012690753 -0.12447627 0.091327414 -0.09302239 0.075959995
-0.07575994

conv3.bias f4 [3]
00000000: c0c0 19be 988b f7be c052 d53b
-0.15014935 -0.4834869 0.0065101087

fc1.weight f4 [135, 525]
00000000: bba3 833a cb55 473c 8af8 1b3c 2dce 41bd
00000010: 0004 333c fb61 493b 78cd 83bd c6f6 b2bc
00000020: d3b3 3bbc cd9f d9bc 6f69 6dbd 444c 76bd
00000030: 64bb 95bd d7ce 5bbd 1b25 fcbb 0c7e 71bd
00000040: 1d2b 573b 2e3a 6fbd 20f2 35bd d27c c8bc
00000050: 4b56 85bc 6a98 cc3b eefd b9bc 6e6c 80bd
00000060: d161 1ebd ee61 67bd eeee 4cbd a203 66bd
00000070: cc4c fdbc 1437 b6bc 529f 7dbd bd54 92bd
00000080: 2744 a0bc c6a0 b83c 2e78 f0bb c6b2 98bd
00000090: de2d 0f3c e748 cfbc 409a d83b 3dae 81bc
000000a0: 1cc9 bfbc f041 db3b acbe 86bc b2cd 72bd
000000b0: 59aa 04bd c4e0 07bd fb3b faba 841b a1bc
000000c0: 6808 76bc b577 5bbb 5c0d 99bd a978 08bd
000000d0: fd66 95bb ff27 4fbc b56f 83bd c4ac 8cbb
000000e0: a359 98bd 1aaf 9abd 0128 44bb 47c1 18bd
000000f0: 9ed3 183d 216e 8bbd 1f92 99bc 5f64 97b9
00000100: 0448 2e3a a80d 26bd 0348 dcbc 29e1 2abd
00000110: 5c60 aabc 6413 8cba 01a0 22bd 4879 73bd
00000120: 5f8b 00bd 8fce 01bd 5664 7ebc 27ac 14bd
00000130: 2f2c 0fbd e4a0 7ebd a1d1 84bc b534 42ba
00000140: 1625 0fbd d271 c7bb 497d cdbc e952 91bb
00000150: 2a49 85bd 0d93 58bc 3916 06bd 3a18 4fbd
00000160: b9da b43c b966 8abd ed67 3f3c f6b4 6fbc
00000170: 31d2 83bd 2b40 80bc 5965 46bd b1f3 483c
00000180: cc2f 10bc 0ee9 86bd 8088 533c f6f2 8abd
00000190: dbb2 07bd bec9 91bb c19f 9bbd 2085 a2bc
000001a0: 2f73 97bd 8872 d4bc 30e9 cfbc 3692 42bd
000001b0: 52ae 10bc 1145 ccbc 7f1a 8cbd 0fde 0fbd
000001c0: 6b67 17bd 1f00 5dbd 021c 42bd 3ee5 29bd
000001d0: 1a7e d03c 77fd 18bd 70cb 55bc 1619 fdbc
000001e0: ef79 2bbd 57a1 87bd 9814 6fbd 153e 05bd
000001f0: 6671 39bc 819e 0bbc ed48 443c e5d2 41bd
00000200: 7d43 99bd 9e4e 1abd fa00 553b 4a9f 3c3c
00000210: 8c35 b5bc 2e57 95bc f130 8a3c c935 56bd
00000220: fe4f 74bd cf2f 5dbb 973b 90bd 3e24 843b
00000230: 12c7 7bbb 5ced 93bd d656 4cbb a1f2 45bc
00000240: e3e0 f53c 5ce0 3bbd 6f76 653b 943d 40bd
00000250: cefb 463c a643 86bd f31b 84bd 96e7 4ebd
00000260: 3859 b8bc 6230 84bc 1c30 813c a561 633c
00000270: 3127 cbbc 2ed1 8abd 20d5 873a 2c25 25bd
00000280: c6c6 b03b 865d 3dbc 8a5d 09bd d63e 54bc
00000290: 0bc1 9bbd 58cd cabb 8d02 0dbd b910 95bd
000002a0: f5f5 2abd b98a 883c aaf3 993c ca43 86bd
000002b0: d09b 98bc d555 413c 12b9 1bbd 3b59 8dbd
000002c0: d0a7 5abd 1b7d e8bc f361 03bd aeb1 283b
000002d0: c575 88bc 1f2e b23c 182f e03c 0eac 60bd
000002e0: eaeb 97bd e2b9 5c36 adf2 fdbc e498 d0bc
000002f0: 9d0c a6bc 32ad 74bc 30ac 0bbb f37b 64bc
00000300: 65b6 3ebd 149b c6bc 6f66 45bd e2cc 7fbc
00000310: 7ea4 143c 3aab 8d3c f61d cbbc 4cb4 71bc
00000320: 41ce 853c c09b 51bd 62ea 0a3c a709 0ebb
00000330: 3455 11bd 738d a0bc 5afb 8abd 021b 2e3c
00000340: 49d3 93bd 2f79 35bd f2f0 87bd 79ef 5bbd
00000350: b0ce 80bd a3d1 57bd f3ff 95bc c871 c0bc
00000360: 830c adbb ca25 6a3c f279 84bd f083 ddbc
00000370: db26 a13a fcef 54bd f721 aebc 0fc4 56bd
00000380: 4abd 24bd 4372 8cbd 400d 8ebd 1de0 1cbc
00000390: f458 ca3b c207 d13b c3cf 313b 3912 6dbd
000003a0: 2402 0ebc b453 d6bc b763 93bd c805 7b3b
000003b0: 30e3 8fbc 047f 96bd 38d0 29bd d008 d3bc
000003c0: 12e2 2abd da45 22bd 096c 28bd 038d dbbc
000003d0: 3615 d7bc b721 203b 887f 7abd d84f b53c
000003e0: 34f8 523c 9e36 33bc a3f7 52bd 0aa0 98bd
000003f0: 3e66 93bd 0c07 b4bc 708f 8dbd ff2e b3bc
0.0010043302 0.012166451 0.009519706 -0.047315765 0.010926247 0.0030728567 -0.064356744 -0.021846186
-0.011456448 -0.026565457 -0.057961877 -0.060131326 -0.073111326 -0.053664055 -0.007694853 -0.0589581
0.0032832094 -0.058405094 -0.04442036 -0.024473581 -0.0162765 0.006243755 -0.02270409 -0.06270681
-0.038667504 -0.056489877 -0.05003255 -0.05615581 -0.030920409 -0.02224306 -0.061919518 -0.07145069
-0.019563748 0.0225376 -0.0073385453 -0.07455973 0.008738963 -0.025303317 0.006610185 -0.015830154
-0.023411326 0.00669121 -0.016448341 -0.059278198 -0.03238902 -0.033173338 -0.0019091362 -0.01966644
-0.015016653 -0.00334881 -0.07473251 -0.033318195 -0.0045593963 -0.012643813 -0.06417791 -0.004293056
-0.07438972 -0.07552929 -0.002993107 -0.0372937 0.03731119 -0.06808115 -0.018746434 -0.00028875747
0.00066483044 -0.040540367 -0.026889807 -0.041718636 -0.0207979 -0.0010686931 -0.039703373 -0.059441835
-0.031382915 -0.03169113 -0.015526852 -0.03629699 -0.034954246 -0.062165156 -0.01621324 -0.00074083667
-0.034947477 -0.0060865665 -0.025084155 -0.0044349325 -0.065080956 -0.013218653 -0.032736037 -0.050560214
0.022076951 -0.06757874 0.011682493 -0.014630547 -0.06436575 -0.015655598 -0.048436496 0.012265132
-0.008800458 -0.065874204 0.012910962 -0.06784622 -0.033129554 -0.0044490984 -0.0759883 -0.01983887
-0.073950164 -0.025933519 -0.025379747 -0.04750272 -0.008830624 -0.024935277 -0.06840991 -0.03512388
-0.03696386 -0.053955194 -0.04738999 -0.041478388 0.025450755 -0.037351098 -0.013048992 -0.030895751
-0.04186433 -0.0662257 -0.05836925 -0.03252991 -0.01131854 -0.008521677 0.0119802775 -0.047320265
-0.074835755 -0.03767263 0.0032501803 0.011512587 -0.02212026 -0.018230047 0.01686904 -0.052297387
-0.0596466 -0.003375042 -0.07042616 0.0040326407 -0.0038418216 -0.07223007 -0.0031179688 -0.012081773
0.03001446 -0.045868263 0.003501322 -0.046933725 0.012144996 -0.06555872 -0.064506434 -0.050513826
-0.02250348 -0.016136352 0.01577001 0.013878261 -0.024798961 -0.06778179 0.0010363199 -0.040318653
0.0053947894 -0.011557942 -0.03353647 -0.012954434 -0.076051794 -0.0061890297 -0.03442626 -0.0727858
-0.04173847 0.01666771 0.018792946 -0.065558985 -0.018628985 0.011800249 -0.038018294 -0.06901785
-0.053382695 -0.028379967 -0.032075834 0.002574067 -0.01665772 0.021750508 0.027366206 -0.054851584
-0.07418044 3.2890753e-06 -0.030999506 -0.025463529 -0.020269686 -0.014933871 -0.0021312349 -0.013945567
-0.046560664 -0.024243869 -0.04819339 -0.015612813 0.009072421 0.017293561 -0.02479456 -0.014752459
0.016333701 -0.051173925 0.008478733 -0.0021673234 -0.035481647 -0.019598698 -0.06786223 0.010626556
-0.07218034 -0.044305023 -0.066377535 -0.053695176 -0.062894225 -0.05269016 -0.018310523 -0.023491755
-0.0052810325 0.014291236 -0.06468572 -0.027040452 0.0012294905 -0.05198668 -0.02125643 -0.05243307
-0.040219583 -0.06857731 -0.06936121 -0.009574917 0.006175155 0.0063790986 0.0027131892 -0.057878707
-0.008667503 -0.02616296 -0.071967535 0.0038303006 -0.017564386 -0.07348445 -0.04145834 -0.025761038
-0.041719504 -0.039617397 -0.041118655 -0.026800638 -0.026255231 0.0024434158 -0.06115678 0.022132799
0.012876559 -0.010938315 -0.051505696 -0.074524 -0.071972355 -0.021976016 -0.06912124 -0.021872995

fc1.bias f4 [135]
00000000: 8214 7cbd a444 a4bc 0bdd 193c 15ec 9dbc
00000010: 1a30 03bd 6f96 4bbd 266c 5bbc 44e4 edbc
00000020: e737 69bd 59b8 303d a128 1ebc eef7 85bd
00000030: e477 533c a161 d0bc 5004 1cbd b22d 5e3d
00000040: a847 933d 03be 9d3c 2b09 53bd 5255 50bd
00000050: c67e 933d ba1f acbc 0319 bb3b 448e 813d
00000060: 9279 533d dea8 1bbd 0566 59bd 5fd1 63bc
00000070: 3a7b b83c 2d7a 193d 1c89 74bc 02ee 38bd
00000080: 9eaf 15bd 8e7e 77bd 8de1 20bd dc1d f2bc
00000090: fcc3 edbc 372a 93bc dc36 0fbc 7b5e 273d
000000a0: 377c 6ebc a2b5 1abd 8277 ba3c 9217 7fbd
000000b0: 5d0b e1bc 7920 1bbd 215f e6bb 1c9a d33c
000000c0: a3d5 883b f186 c53b af44 17bd 024c 1a3d
000000d0: d964 053d 9b9a 0abd da56 16bd 3955 d23c
000000e0: f22c 96bd d138 2dbd 1bb3 90bd 94da d93c
000000f0: 192a ceb9 0893 6d3d ec56 943d 09ee a13d
00000100: 2515 26bd 9ef2 25bd c325 733b b9c4 753d
00000110: ae64 1ebd 153a ac3c b388 843d bdef 24bc
00000120: b8e0 fdbc 27cc 753a da01 3e3c 3e08 e5bc
00000130: f387 153d 6bc9 fcbb 59f2 44bc e655 893c
00000140: 5f5c 4c3d 1807 803c 72ac 11bd 7c0b ec3c
00000150: e567 143d fc53 30bd e704 b43b a121 24bd
00000160: 6b74 25bd 1d31 83bd 870d 593d 1310 843d
00000170: e58f f23c b01b efbb 5a9b 8dbc 6fc7 44bd
00000180: 9cd9 e7bc 8287 a3bc 44bc 1f3b 0e3a a73d
00000190: 542b 723d e262 4abc bb97 d5bc 048c e3bc
000001a0: 0154 42bd 49ef 20bd 24cf 35bd 1500 873c
000001b0: 2af7 b338 7b77 60bd 810b a23d 95a4 67bc
000001c0: 5c3a 283c f97b 103d c370 933c 56e7 69bd
000001d0: 6a95 83bc 4e87 363d c8a0 63bb d67d 5a3d
000001e0: f053 59bc c3df ff3b c7a9 4e3d d4ca 663d
000001f0: 96a1 d2bc bdbc d7bc 75f9 71bd a848 3abd
00000200: 37ef 8ebc b43b a0bc 32ea 4fbd 466b 14bd
00000210: a518 0a3d d74c e4bc dd94 743d
-0.061542995 -0.020052262 0.00939108 -0.019277612 -0.032028295 -0.04970401 -0.013392484 -0.02903951
-0.05693808 0.043144558 -0.009653241 -0.065414295 0.012907002 -0.025437178 -0.03809005 0.054242797
0.07191402 0.019255644 -0.051522415 -0.050862618 0.072019145 -0.021011222 0.0057097687 0.06325963
0.05162961 -0.03800284 -0.05307581 -0.013904898 0.022519697 0.03747003 -0.014925268 -0.045148857
-0.036544435 -0.060423426 -0.039277602 -0.029555254 -0.029024117 -0.017964466 -0.008741107 0.040861588
-0.014555982 -0.037770875 0.022762064 -0.062278338 -0.027471239 -0.037872765 -0.007030383 0.025830321
0.004175858 0.006028049 -0.036930736 0.037670143 0.03256688 -0.03383885 -0.03670392 0.025675403
-0.073327914 -0.042290512 -0.07065412 0.026593484 -0.00039322747 0.058001548 0.072431415 0.0790673
-0.04054751 -0.04051458 0.0037101365 0.060002062 -0.038670234 0.02102379 0.06471386 -0.010066924
-0.030990943 0.00093764294 0.011597121 -0.027958032 0.036506604 -0.0077144406 -0.012020671 0.016764592
0.04989278 0.015628383 -0.035564847 0.02881407 0.036231894 -0.043048844 0.0054937485 -0.040071134
-0.040394228 -0.06405852 0.052991416 0.064483784 0.02960963 -0.007297002 -0.017285991 -0.048041757
-0.028302006 -0.019962076 0.002437369 0.0816537 0.059123352 -0.012352677 -0.026073327 -0.027776726
-0.047443394 -0.0392907 -0.044386998 0.016479531 8.581423e-05 -0.054801445 0.079123504 -0.0141383605
0.01026782 0.03527448 0.017998105 -0.057105385 -0.016062457 0.04456263 -0.0034733284 0.053342663
-0.013264641 0.007808657 0.05045488 0.056345776 -0.025711816 -0.026335115 -0.05907579 -0.045479447
-0.01744805 -0.019559719 -0.050760455 -0.036235116 0.03371491 -0.027868671 0.05971228

fc2.weight f4 [32, 135]
00000000: c1e5 e0bc 45c5 123d 4bba 283e c8e7 eabc
00000010: 714a 663e bebe f13c f753 4c3c 4076 57ba
00000020: 2944 22bd 1748 443d fb4a 13bd 2e2f 933d
00000030: f199 59bc 5d6b 183e e05e b2bd c9e9 803d
00000040: 11de 8b3d 9e68 eb3c 838f 11bd 37ee 8ebd
00000050: e62d 1f3e e6ff 03be 4417 d93d 6cbe 813d
00000060: a453 d03d 8d9a 66bd 8a19 fa3e ad1a 12be
00000070: 7eb0 babd 4d44 d83c 38dd 5bbd ebc0 523d
00000080: 4e60 81bd 503a bd3e 84d4 083d 7907 dc3b
00000090: 58e7 02bc 9681 3e3c 2e9b d73d c4cd 5ebd
000000a0: a66b 253e f62b 003e c4a1 a3bd 59f5 cd3c
000000b0: a3cf ffbc 6585 c0bd f960 ea3e b090 c6bc
000000c0: c952 a73d 34c3 563e c0f7 7f3d a389 e6bd
000000d0: e004 bcbb beaf d9bc b863 7a3c c579 29bd
000000e0: 2ef8 ce3d 35b5 9fbd e61c c7bc 29ed 773c
000000f0: bce9 093e bae4 b03b cd2f ad3e 4b62 47bd
00000100: e66c 123d d27f 753d 2fbb 833e fa58 ec3d
00000110: 369b 823c 28b1 babd 4230 453e 2326 80bd
00000120: 0e80 71bd 90cf 4b3e 3fbc 553d 4239 793d
00000130: 17d8 353e 2653 d53c aa34 44bd b448 cfbd
00000140: 37c4 f8bd 23b7 2e3e 8fb1 ad3d 5002 633d
00000150: c1e9 2ebe 53fc 3fbc b2a0 1c3e ba8c b1bb
00000160: 6981 753d 28b7 f53d d6ff 2c3c 5dff c9bd
00000170: 4c39 94bd c222 913d e595 043d 912d 193c
00000180: 2c70 fdba 162d b7bb ac23 c23b 2457 053d
00000190: 3e1c b83d 5ea6 673d 6d03 94bd 3155 b43d
000001a0: ab2a 343d faa9 bc3e 1cc3 74bd 1fc9 72be
000001b0: f0d1 ad3d 23d2 2cbd 43a3 52bd 0d3f 423d
000001c0: 8183 6d3e 58ce b1bd 841b e0bd f72b ef3c
000001d0: 7cc1 b5bd 9c16 cd3d 36b8 393d 9437 ac3d
000001e0: b8be 91bd db9e dcbd 86cc b13c 8b0b 533d
000001f0: 5db9 8cbc f724 80bd 0ccc 6f3c df24 36bd
00000200: 7aaf 4d3e 2778 1a3e 7d1a a43c d873 563c
00000210: 3a99 28be c8c5 94bd 77ff 093e 7592 703c
00000220: dbcb b9ba 308e 303d f0f9 3a3d d8d0 3abe
00000230: 10af 23bc 1916 fdbb 5f6b 353d e36d b83c
00000240: 6cb0 583d b86e 1cbd e7a8 7a3d ed5f 183e
00000250: 139e 58bd c4dc 98bd 377c 033d 151e 073c
00000260: fddf 78bd 08fd 6d3c 788b 073c 9212 8c3d
00000270: 62fb 763b 2dae 8abd 4dd0 83bd b365 963d
00000280: 80fa 593d db60 38be f2ff 9fbd c6fa b9bc
00000290: 250d 053e 4749 8a3d 290f 813d 058d c03d
000002a0: db74 103d 23fb 9cbd d6c9 4abd 3450 9bbc
000002b0: 085f f43c a38a 80bd 893b 5bbc baab 83bd
000002c0: 3fb4 ab3c 915f 253d 2a4d 20bd b1dc 02bd
000002d0: 37c0 b83d b8aa 43be b391 723e 72c3 573e
000002e0: bf31 b5bd 4d17 17bb db32 c63d cb04 de3d
000002f0: df2d 1cbd d80e a93d bf50 f83d 9d26 1bbd
00000300: cc02 4cbb 6d90 d0bc aeec cabb e1d0 49bd
00000310: 1d54 b2ba 0370 22bc 8b8a 23ba 6032 31bc
00000320: 7bf9 f5bc cd7a 4dbe e6d5 5d3d 58e4 173d
00000330: f62e ef3d f31e 00be b02d 9b3d 0195 873d
00000340: 2b63 b9bd 9ac7 383d 5b75 83bd 4acd e2bd
00000350: bd68 9c3d 0013 243d 838e 0f3e ab14 903d
00000360: d18f b8bd 6dbe 893d c2eb aa3c f0b9 e23d
00000370: 0337 af3d ddc8 af3c c290 d33b 1688 f139
00000380: dea8 ccbd c897 b33d f3db a4bc 3a32 b73c
00000390: 891d 723c 5312 3ebd cd61 b4bc 9f4f d1bc
000003a0: b64f 553d 88a3 923d 9db1 d4bc c438 1dbd
000003b0: f15d ccbd b14a 11bd 24c4 08bc f5b6 f23d
000003c0: 5ab3 d5bd 0463 d93c f62b 493d dcc9 b7bc
000003d0: a0cc 8a3a f7b5 1b3d f985 71bd daa7 85bd
000003e0: 05c6 99bc 004d 1d3d cca3 c13d 42b5 0abc
000003f0: bfa3 dabd d7dc 773c b24b de3d 02d9 7c3d
-0.027453305 0.035832662 0.16477315 -0.028674975 0.22489335 0.029509898 0.012471191 -0.000821922
-0.039615784 0.047920313 -0.03596018 0.07186733 -0.013281331 0.14884706 -0.08709502 0.06294591
0.06829465 0.028736409 -0.035537254 -0.069790296 0.15544853 -0.12890586 0.10600141 0.06335148
0.10172203 -0.056299735 0.4884761 -0.14267989 -0.091156945 0.026399756 -0.053677768 0.051453512
-0.06317197 0.3695855 0.033405796 0.006714758 -0.007989727 0.011627575 0.10527645 -0.054395452
0.16154346 0.1251677 -0.07989839 0.025141405 -0.031226939 -0.09400443 0.4577711 -0.024238914
0.08170087 0.20972902 0.062492132 -0.11256721 -0.005737886 -0.026573058 0.015282564 -0.041375894
0.1010593 -0.077982344 -0.024305772 0.015132227 0.13468069 0.00539836 0.33825532 -0.048677724
0.035748385 0.059936352 0.25728747 0.115404084 0.015943151 -0.09115821 0.1925669 -0.06257274
-0.058960013 0.19903398 0.05218148 0.06084562 0.17758213 0.026040625 -0.047901787 -0.10121289
-0.121468 0.17062049 0.08481132 0.055422127 -0.17081358 -0.011717874 0.15295675 -0.0054183872
0.05993787 0.11997825 0.010559043 -0.0986316 -0.07237491 0.07086708 0.032369513 0.009349243
-0.0019335798 -0.0055900915 0.0059246626 0.032553807 0.08989762 0.056555144 -0.07227216 0.088053115
0.043986004 0.36848432 -0.059756383 -0.23709534 0.08487308 -0.04219259 -0.05142523 0.04742341
0.23194696 -0.08681935 -0.10942748 0.029195769 -0.08874795 0.10014078 0.045341693 0.08409038
-0.07116455 -0.10772487 0.02170397 0.05152468 -0.017178232 -0.062570505 0.014636051 -0.044468757
0.2008647 0.15084897 0.020032162 0.013089143 -0.16464701 -0.07264286 0.13476358 0.014683356
-0.0014175134 0.04310435 0.045648515 -0.1824373 -0.009990469 -0.0077235815 0.04429185 0.022513336
0.052902624 -0.038191527 0.061196234 0.14880343 -0.052885126 -0.07463983 0.032100882 0.008246918
-0.060760487 0.014525659 0.008272998 0.068394795 0.0037686457 -0.06771503 -0.064362146 0.07343616
0.05321741 -0.18005697 -0.078124896 -0.022702586 0.12993295 0.06752258 0.0630172 0.09401897
0.035267692 -0.07665088 -0.049508892 -0.018959142 0.02983047 -0.06276443 -0.0133808935 -0.064292386
0.020959971 0.040374342 -0.03913609 -0.03194875 0.09021037 -0.19108093 0.23688392 0.2107065
-0.08847379 -0.002305466 0.09677669 0.10840758 -0.038129684 0.08254784 0.12124776 -0.03787862
-0.0031129597 -0.025459493 -0.006192765 -0.049271468 -0.001360539 -0.009914401 -0.0006238601 -0.010815233
-0.030026188 -0.20066376 0.054159068 0.037083 0.11678879 -0.12511806 0.075770736 0.06620217
-0.09052118 0.04511223 -0.06418868 -0.11074312 0.07637165 0.040057182 0.14019208 0.07035192
-0.09011806 0.06725774 0.020864371 0.11070621 0.085554145 0.021458084 0.0064564655 0.00046068494
-0.09993146 0.08769184 -0.020124411 0.022362817 0.01477755 -0.046404194 -0.022019291 -0.025550662
0.05207797 0.07160097 -0.025963599 -0.038384214 -0.099788554 -0.035471622 -0.008347545 0.118513025
-0.10434599 0.026536472 0.04911419 -0.022435121 0.0010589547 0.038015332 -0.058965657 -0.06526156
-0.01877118 0.03840351 0.0945507 -0.008466067 -0.10675763 0.015128336 0.108542815 0.061730392

fc2.bias f4 [32]
00000000: b15b 673d f77e bf3d 631b 7fbd db3c b83d
00000010: 9741 4abd db11 63bd 64f6 7cbd f005 2b3d
00000020: edec b7bd 491e 093e 8e05 3d3d c8b8 cabc
00000030: a4b4 55bc d3a1 893a f824 2f3d c9ac e0bd
00000040: 0330 23bd bf2f 49bd 6293 b13d 1ce0 1a3d
00000050: f9b2 853c 3d31 693d d017 803d 4094 d7bd
00000060: 0618 a7bd 7b7b 98bd f8db edbc 3f3b cb3c
00000070: 831d 863d 989a 7a3d ed0b c8bd c03e 66bd
0.056483928 0.093503885 -0.062281977 0.08995982 -0.049378958 -0.05543695 -0.061758414 0.04175371
-0.08980737 0.13390459 0.046147875 -0.024746314 -0.013043556 0.0010500498 0.042759866 -0.10970456
-0.03984071 -0.0491178 0.08670689 0.037811384 0.016320692 0.056931723 0.06254542 -0.10526323
-0.08158879 -0.07445427 -0.029035553 0.024808524 0.06548598 0.06118259 -0.097679 -0.056212187

fc3.weight f4 [4, 32]
00000000: d955 e43d aa6e 82bd 5298 1c3e 0887 343e
00000010: c9d4 07be fba6 183d 9661 8cbd 4617 89be
00000020: ac67 e7bd 987c 76be 8879 16be ff59 1e3f
00000030: 1428 1cbe 1cf8 883e b24a bf3d e62f b0bc
00000040: 8b4d 65bc 2a2f 873e 0110 84be 20e9 44be
00000050: b357 213e 88c9 21be fdca 49be 2b63 643d
00000060: dd44 1c3e daa1 1abe 2dd6 b73d f7cd dc3d
00000070: 9f8a ccbd cb83 ba3d ece0 92bc 984b f1bc
00000080: b1fc cebe b27e 713e ab1c a6be 452c 593e
00000090: 6882 213e fd15 ac3d c13b dcbd 6a73 82be
000000a0: f341 79bb 4e33 933e b6cb 2b3d 297a 2abf
000000b0: 680d 19bd d903 143e 3fa3 5d3c f36d 9dbd
000000c0: e149 01bd decc 56be 9d78 1a3d 8028 94bd
000000d0: 4bd5 39be 524c 283e 3d0f 13bd 2b41 f6bd
000000e0: b54d 853e b213 f8bd 6565 19be e85d 023d
000000f0: 39e4 443e ebfb b03e 7e01 083e d1aa e7bd
00000100: 58f8 a93d 969e 68be 5aa5 68bd 9e9d 2b3e
00000110: f3c5 fb3d d5fa 63bc 0aab ca3d c632 8c3e
00000120: 4d37 c93d 02e4 1e3e 99d7 cabd 24d0 5bbe
00000130: dbc6 06be 488f 77be fbb1 c2bd 9d91 00bd
00000140: 4b4f eeba d7ac 34be 887a 40be 37ce 863e
00000150: 71e7 ba3d 3260 363e dff7 5abd 6ab4 15be
00000160: 0c2a 4abe dd5c 25be 4561 3ebe 2173 1b3e
00000170: 28ae db3d 880b 53be fde5 103e 5670 00be
00000180: 8ba2 be3c 2de9 993d 4b64 ac3d 8fc4 8fbe
00000190: dd92 d43d 9acb adbd a513 0ebe 1cb7 213d
000001a0: 9edd ab3d ee48 973d ae71 533e da88 2d3c
000001b0: 4c6b b63c 7bc8 563c cd6f 193e 3ec4 e93a
000001c0: 71d4 f53d 8e59 593e 457f 7e3e 6061 373e
000001d0: d6d2 6bbe 9236 e9bd 1722 253e 7ce7 24be
000001e0: 683f 68be 1dce e33d cfdb 39be 012f 1c3e
000001f0: 70a3 bf3d 9e0e 7ebd 2a36 bf3d 0dd3 273d
0.11149187 -0.06368764 0.1529248 0.17629635 -0.13264765 0.03726862 -0.068545505 -0.2677557
-0.11299071 -0.24070966 -0.14694798 0.61856073 -0.15249664 0.26751792 0.09340419 -0.021507215
-0.0139955385 0.2640317 -0.2579346 -0.19229555 0.15756111 -0.15799534 -0.1970634 0.055758636
0.15260644 -0.15100804 0.08976398 0.10781472 -0.099873774 0.09107169 -0.017929517 -0.029454991
-0.40427163 0.23583487 -0.32443747 0.21208294 0.15772402 0.084026314 -0.10753585 -0.2547868
-0.0038033694 0.2875008 0.04194232 -0.6659265 -0.0373663 0.14454593 0.01352769 -0.07686987
-0.031564597 -0.20976588 0.037712682 -0.07234287 -0.18147771 0.16435364 -0.035903204 -0.120241486
0.26035848 -0.121131316 -0.14980085 0.031827837 0.19227685 0.34567198 0.13281819 -0.113118775
0.08299321 -0.22716746 -0.056798317 0.16759345 0.12293615 -0.0139147835 0.09895904 0.27382487
0.09825001 0.15516666 -0.09904403 -0.21466118 -0.13161795 -0.24175751 -0.09506603 -0.031388868
-0.001818159 -0.17644058 -0.18796742 0.26329204 0.09126175 0.17810133 -0.053459045 -0.14619604
-0.19742602 -0.16148706 -0.18591793 0.15180637 0.10726577 -0.20609868 0.14150234 -0.12542853
0.023270866 0.07515178 0.08417567 -0.2807965 0.103795744 -0.084860995 -0.13874681 0.039481267
0.083918795 0.07386957 0.20648834 0.01059171 0.02226796 0.013109322 0.14984055 0.0017834974
0.120034106 0.21225569 0.24853237 0.1790824 -0.23029646 -0.113873616 0.16126285 -0.1610393
-0.22680438 0.11123297 -0.18150257 0.15252306 0.09357345 -0.06202566 0.09336503 0.040972758

fc3.bias f4 [4]
00000000: 8613 853d 90ae e1bd 736f 37be 21ea a9bb
0.064978644 -0.11019623 -0.17913608 -0.005185381
