LSTM_Attn/lstm_attn.pt (torch_old, 960722 bytes, 10 tensors)

lstm.weight_ih_l0 f4 [512, 300]
000000 c3 e0 dc 3d a7 2e 26 bd ae 8c 51 be c7 e5 89 3e
       0.107850574 -0.040571835 -0.20463821 0.2693312
000010 c9 86 34 be ea bc 6b 3d 15 3a 8a 3d 8e 72 5b 3e
       -0.17629541 0.05755321 0.067493595 0.21430418
000020 1b 79 a2 3d 46 a0 98 3d 30 47 ef bd b8 6b 01 3e
       0.07933255 0.07452445 -0.116835 0.12638748
000030 97 a8 1d be 9e c9 81 bd 9b 46 28 3e eb 34 7d b8
       -0.15396343 -0.063372836 0.16433184 -6.0369184e-05
000040 5f 70 2f 3e 44 bf 8d 3d 25 e1 7b 3c f6 2c 60 3d
       0.1713271 0.06921247 0.015373503 0.054730378
000050 a4 2b 50 3d ad e0 5f be dc 45 95 3d 8f 8a 55 3e
       0.05082287 -0.21863051 0.07288715 0.20853637
000060 69 15 e5 3d 65 88 37 3e a0 20 6a be 38 5f 9a bd
       0.11185724 0.17923124 -0.22864008 -0.07537693
000070 46 e4 22 3d f5 d0 00 be 99 de 89 bb 03 1d 93 3d
       0.03976848 -0.12579711 -0.004207444 0.07183268
000080 55 e6 b6 39 6d 7b 7c 3c d3 66 45 3e c4 96 c4 3c
       0.00034885356 0.015410286 0.19277506 0.023997672
000090 cc 4a 85 be ba 67 c4 3d 30 d7 98 3e ff 9f 91 3e
       -0.26033628 0.09590097 0.29851675 0.2844238
0000a0 15 67 1d 3e 72 81 1a 3e 6e 4e 90 bd d2 ca 23 be
       0.15371354 0.15088442 -0.07046209 -0.15995339
0000b0 ff fd 5b be d8 3c 5f 3e e0 62 cb bd fd 01 36 bd
       -0.2148361 0.21800554 -0.09930968 -0.04443549
0000c0 9a 16 7f 3c 85 db 0c 3d 92 b5 ec 3c 90 1b 09 be
       0.0155693535 0.034389038 0.028895173 -0.1338942
0000d0 4a 9f 63 be ee 6a fb 3d ce 58 08 3e af 78 57 3e
       -0.22228733 0.122762546 0.13315126 0.21042131
0000e0 96 c2 d0 3d 74 f3 bd bd 04 2f 8d 3d bc 4e 1f be
       0.10193364 -0.092749506 0.06893733 -0.15557379
0000f0 f1 d8 0f be ce 73 bb bd 5e 7f a3 3d ea a9 9f bd
       -0.140476 -0.09152947 0.07983278 -0.077960804
000100 ff 4b e6 3c 2e 5e a0 bc 0f 5c 05 3e a2 fe 8c be
       0.02811241 -0.019576158 0.13023399 -0.2753802
000110 64 77 98 bd 7d 5f 71 3d 17 8f de bc 69 d5 c0 39
       -0.07444647 0.058928955 -0.02716784 0.00036780097
000120 23 74 29 be fe 98 ed bd 77 f7 32 bd 29 e1 22 3d
       -0.16548209 -0.116014466 -0.043693032 0.03976551
000130 00 cf 5c be ad 08 97 3d 89 f8 97 3d 89 20 10 3f
       -0.21563339 0.07374702 0.07420451 0.56299645
000140 a6 32 f5 bd cf 68 b8 be 72 ed fa 3d 69 e1 95 3e
       -0.11972551 -0.36017463 0.1225232 0.29273537
000150 2a 8d 0d 3e 06 6f b5 bd 9e d9 80 3e 24 32 cf 3d
       0.13823381 -0.08859067 0.2516603 0.101169854
000160 43 63 b7 bd 64 3a 79 bc f5 03 87 3e b8 4d c6 3e
       -0.089544795 -0.015211675 0.26370206 0.3873117
000170 da 6a ab 3e ba e2 0d be 71 de 44 3d a8 28 d4 3d
       0.3347996 -0.1385602 0.0480637 0.10359317
000180 d2 b4 8c 3e 85 88 2f 3e 01 b1 2e be b8 7d fe 3d
       0.27481705 0.17141922 -0.17059709 0.12426323
000190 c1 1e 25 3e 8a 3b c9 3d 0a f4 f3 bd 71 bb 9b 3d
       0.16125013 0.09825809 -0.11911781 0.07604111
0001a0 59 b5 7b 3e f7 c4 93 bb ad fd 18 be 17 de 3a 3e
       0.24580897 -0.004509564 -0.1494052 0.18248783
0001b0 0a df 0e bd 7b c2 2f be 66 f7 e1 bd f9 c6 cc bd
       -0.034880675 -0.17164032 -0.11033516 -0.099988885
0001c0 a9 a0 3a be 2e 56 67 bd d4 b4 96 3d fb 1d 04 be
       -0.1822535 -0.05647867 0.07358709 -0.12902062
0001d0 8b df e9 3e 71 3f 37 be 44 61 02 3e 80 18 f3 bc
       0.45678362 -0.17895295 0.12732416 -0.029674768
0001e0 93 11 c2 3c 56 0b 50 3c cb e2 1b 3b 7e 46 30 bd
       0.02369002 0.012698015 0.0023786302 -0.043035977
0001f0 d8 5c e9 bd 62 51 83 3e 97 84 27 3d f6 25 01 3d
       -0.11394662 0.25648028 0.040897932 0.031530343
000200 b3 93 0e 3e 96 53 b1 3d 4e fb fc 3d 7d 5d 17 be
       0.1392353 0.08658521 0.1235262 -0.14781757
000210 1c 2a 03 be 5e 6f 2d be 19 63 aa 3c 61 c6 58 3d
       -0.12809032 -0.16937014 0.020799207 0.052923564
000220 fa 10 dc bd 90 f3 87 bd c6 23 66 3c 42 69 23 3d
       -0.107454255 -0.06638253 0.014046615 0.039895304
000230 4a b1 78 be fb 5c 89 bd b1 e5 b1 3d 87 1c f2 bd
       -0.2428638 -0.06707188 0.08686388 -0.118218474
000240 01 5b 60 3d 43 b6 72 3d bd 87 50 3e da 68 ae 3d
       0.054774288 0.05925585 0.2036428 0.085160926
000250 24 87 90 ba b7 fc 54 be 02 54 ba bc 82 2a 30 be
       -0.0011026603 -0.20799528 -0.022745136 -0.17203715
000260 42 d2 76 be c9 25 9a 3c 94 f6 f9 bd c3 51 cf 3e
       -0.24103644 0.018816845 -0.12205234 0.40492067
000270 ee 90 15 3e 80 3e 41 3e 33 ef 5c 3e 20 c7 82 3e
       0.14606068 0.18871498 0.21575622 0.25542545
000280 c7 3d 06 be 4f f9 9d 3d ae aa 9f 3d b2 2b 37 3e
       -0.13109504 0.077135675 0.077962264 0.17887762
000290 bc 40 14 3e a1 fa b4 bd dd f9 03 be f5 a7 c2 be
       0.14477819 -0.08836866 -0.12888284 -0.38018766
0002a0 89 07 50 bb 7c 99 94 bb 74 51 78 bc fe ac 6a bd
       -0.0031742773 -0.0045348983 -0.015156139 -0.057293884
0002b0 aa 31 28 3c a6 74 29 3e 8b ac ef 3c 7b c0 48 3e
       0.010265747 0.16548404 0.02925708 0.19604675
0002c0 e2 f1 1b bd 39 af 3a be 61 3a ed bd 1b e7 bd 3c
       -0.038072474 -0.18230905 -0.115834005 0.023181489
0002d0 87 4f 4c bc 2c 5e 84 bd bb 23 44 be a7 ae 08 be
       -0.012470133 -0.06463274 -0.19154255 -0.13347875
0002e0 23 77 73 bd a1 56 f2 bd 4b 47 e5 bc 94 93 91 3d
       -0.05943979 -0.118329294 -0.027988097 0.071082264
0002f0 f3 e0 3f 3d ae 20 3f 3e b1 bf 2b 3e cb 03 a6 be
       0.046845388 0.1866481 0.16772343 -0.3242477
000300 cd 72 9b bd 8e ae 76 be 32 1a ea be e1 e9 fb bd
       -0.07590256 -0.24090025 -0.4572311 -0.12300468
000310 a2 19 36 3e 1d d6 3d 3e 8a 97 b5 bc c7 d2 c6 3d
       0.17783216 0.18538709 -0.022166986 0.09708171
000320 3b 7d 0f be 6b 59 75 3e b0 57 a2 3d b9 bc de be
       -0.14012615 0.23959891 0.07926881 -0.4350336
000330 4e 74 b4 3d d5 51 81 be c1 c2 47 3d 87 0e 0f be
       0.08811246 -0.25257745 0.048769716 -0.13970385
000340 9e 4f bf bc 34 e1 02 bd e4 3c 17 be 56 e0 e2 3d
       -0.023353394 -0.03195305 -0.14769322 0.11077945
000350 5e 3e c3 bd 9f db 5e be ce ab 11 3d 29 d4 0f 3e
       -0.0953338 -0.21763466 0.035564236 0.14045776
000360 f4 c3 42 be 04 83 56 3e 22 1a 02 3d e4 be 70 be
       -0.19020063 0.20948416 0.031763203 -0.23510319
000370 df b1 9b bc e7 fa 08 3e 76 c1 80 bb 61 58 25 be
       -0.019005714 0.13376962 -0.0039293123 -0.16146995
000380 0b dd f9 3d 2e 79 77 be 9b 1d 60 bd c9 1f f5 bd
       0.12200364 -0.2416732 -0.054715734 -0.11968953
000390 de e0 a8 3e 4c e3 02 bd e5 61 9c 3e 20 96 5e 3e
       0.3298406 -0.03195505 0.30543438 0.21736956
0003a0 4d 17 7a 3d 26 c8 90 bc 10 71 40 be 7c 62 dd bd
       0.061057378 -0.017673563 -0.1879313 -0.108098
0003b0 fe 5b 00 3e 34 ad 04 bd b0 85 2d 3e 56 c4 4b 3d
       0.12535092 -0.032391742 0.16945529 0.049747787
0003c0 f3 de cf bd b6 ad be bd 8e ab 98 bd 62 37 b5 3c
       -0.10149946 -0.093104765 -0.074545965 0.022121135
0003d0 e5 62 2f 3e 57 3f 82 bc a2 e6 f3 3d fd 43 95 bd
       0.17127569 -0.015899343 0.11909224 -0.07288358
0003e0 17 7b 4b 3e e8 a7 9a 3c 80 3d b8 3d 45 a4 3f 3d
       0.19871174 0.018878892 0.08996105 0.04678752
0003f0 15 6a b5 bd 36 d7 b6 bd bf 7a a8 3d 03 d7 2d bd
       -0.08858124 -0.08927767 0.08226537 -0.04244138

lstm.weight_hh_l0 f4 [512, 128]
000000 c2 19 61 be 9f 2f 81 3e b6 21 16 3d 68 45 89 bd
       -0.21982482 0.25231645 0.036653243 -0.06702691
000010 fc 55 a6 bc 07 0a ca bc e2 bd 98 be f1 43 15 3e
       -0.020304672 -0.024662985 -0.2983237 0.14576699
000020 5c 2d 52 bb ac f7 fe bb 21 b3 3a be aa a8 17 be
       -0.0032070493 -0.0077809896 -0.18232395 -0.14810434
000030 64 3d 7c be 29 60 01 be 8a e8 1c be 3e 0d ba bb
       -0.24632794 -0.12634338 -0.15323082 -0.005677848
000040 1e 5a 11 be e0 fc 66 3d ec fe 5b be 0d 7f 44 bc
       -0.14194533 0.056393504 -0.21483964 -0.011993182
000050 06 6d b0 3e 4e 98 fa 3e b5 78 51 3e 1e 79 ff 3d
       0.34458178 0.48944324 0.20456202 0.12474273
000060 e3 24 59 3d 90 74 cb bd a8 be ef bc 88 f1 d5 bd
       0.053013694 -0.09934342 -0.029265717 -0.10446459
000070 d1 44 86 bd bd cd 54 3d f8 e5 6b bd 59 b0 e8 3b
       -0.065560944 0.05195402 -0.057592362 0.0071011004
000080 14 36 14 3e be f4 0e 3e ea 1c f6 bd 0d 04 d4 3d
       0.14473754 0.13960549 -0.12017234 0.10352335
000090 04 da e1 3d 0a 98 6b 3d 97 0c 71 bd bc 49 80 be
       0.11027911 0.057518043 -0.058849897 -0.25056255
0000a0 67 92 d3 bd 13 6b 36 3e 6f 5f 5e 3d ee d8 36 be
       -0.103306584 0.17814283 0.05429023 -0.1785619
0000b0 ba a9 9a 3e ba 18 01 be cb 05 92 3d af 17 56 3c
       0.30207616 -0.12607089 0.07130011 0.01306717
0000c0 f6 aa 7e 3c f2 ad a7 bd 54 5c 94 bd 13 50 ab be
       0.01554369 -0.08187474 -0.07244173 -0.3345953
0000d0 90 c1 36 3e 6e 98 c6 3c c7 1d 95 3e 21 3d 1c 3e
       0.17847276 0.024242606 0.2912428 0.15257694
0000e0 f2 bc 01 3e a6 78 08 be 9a c0 23 3e 05 e4 62 3d
       0.12669733 -0.13327274 0.1599144 0.055393238
0000f0 96 9e 89 bc 6b 73 1c be e3 66 d0 3c af eb 79 bd
       -0.016799252 -0.15278403 0.025439685 -0.06101578
000100 36 66 3a bd e9 fd 5a 3e 01 dc ea bd 96 b6 0d be
       -0.045507632 0.21385922 -0.11467744 -0.13839182
000110 c1 e4 1f be 5f cb 09 be bf af 37 3e 93 bd 61 3b
       -0.15614606 -0.13456486 0.17938136 0.003444527
000120 74 df 30 3c 8f 80 88 3d d9 ad 53 be 19 eb 1c be
       0.010795463 0.066651456 -0.20671786 -0.15324058
000130 a3 e9 31 be 6d 49 3a 3e 2a 87 44 be 43 de 4e 3e
       -0.17374282 0.18192072 -0.19192186 0.20201974
000140 2a 3d cd 3d 3e ba 8c 3e ca 2b d2 3e 1a 13 e5 bd
       0.10021432 0.27485842 0.41049033 -0.11185284
000150 3a 3c 52 be f0 29 15 3e 32 67 01 be 16 c7 3a be
       -0.20530787 0.14566779 -0.12637022 -0.18240008
000160 9d a5 80 3e 3c 41 9c 3e 30 b1 a5 be be fe 2e be
       0.25126353 0.3051852 -0.32361746 -0.17089364
000170 42 5b dc bd 31 c9 96 bd 63 7e f6 bc 49 3e 92 be
       -0.107595935 -0.07362593 -0.030089563 -0.28563145
000180 06 59 80 bd d9 e7 20 3c 81 e3 45 bd f2 7a 78 be
       -0.0626698 0.009820902 -0.048312668 -0.2426565
000190 ff 67 9e be 05 10 75 bc 29 40 aa bd 8d b4 de bd
       -0.30938718 -0.014957433 -0.08313019 -0.10874281
0001a0 1c fd d4 3c 7d 4a 3f bc 86 05 71 bd 17 ef 31 be
       0.025999598 -0.011675474 -0.05884316 -0.17376362
0001b0 70 51 45 be 31 c1 9c be ca 6c 6a 3e 6c 58 cf bc
       -0.19269347 -0.30616143 0.22893062 -0.025310718
0001c0 dd 44 76 be 24 9d 24 be 96 09 b9 3d 8f cb c5 bd
       -0.24049707 -0.1607557 0.090350315 -0.09657966
0001d0 94 58 0a 3d 38 73 83 3d 14 18 8a bd 4f b8 8b 3c
       0.03377588 0.064184606 -0.06742874 0.017055659
0001e0 3a b3 66 3e c8 64 72 bd 25 ac a5 3d 2f 45 25 bd
       0.22529307 -0.059178144 0.080894746 -0.04034918
0001f0 2a 03 de bd 28 59 5f bd e3 bd c3 3d a7 d3 a6 3e
       -0.10840447 -0.054528385 0.095577024 0.32583353
000200 be 00 72 3d c4 75 8c 3d 55 16 ee bc 40 fe 3b 3d
       0.05908274 0.068583995 -0.029063383 0.04589677
000210 77 28 40 bd 47 ae 95 3d 82 5b 71 bd 02 d8 eb bc
       -0.04691359 0.073086314 -0.05892516 -0.028789524
000220 8a 2e db 3d f6 21 0e bd db 8f 09 bd 31 38 c7 3d
       0.10702236 -0.034700356 -0.033584457 0.097275145
000230 32 96 57 bd 45 1a 44 3d 08 37 52 3d 50 2b ff 3d
       -0.05263347 0.047876615 0.051322013 0.12459433
000240 ed 80 90 3c 7d 27 e4 bc 7c c5 23 be 5b a6 15 bd
       0.017639602 -0.02785086 -0.15993303 -0.036535602
000250 17 b3 58 3d 92 ec 80 3e 3a c9 81 3c fe 7b ab bd
       0.05290517 0.2518049 0.015843023 -0.08373259
000260 26 a0 c8 3c 04 f8 cd 3d 12 da 5e bd af b1 f5 3a
       0.024490427 0.10057071 -0.054407187 0.001874497
000270 33 dd 45 3d ff d0 52 bd b8 f7 8d bd 65 3a 92 bd
       0.048306655 -0.051468845 -0.06932014 -0.07140044
000280 ef b6 31 bd 3d a6 f4 bc 0e 03 56 3d d9 b5 c1 3c
       -0.04338735 -0.029864425 0.052249007 0.023646282
000290 3b cf 13 bc 4f 22 70 bc 49 66 43 3d 09 b9 94 3d
       -0.009021576 -0.014656617 0.04770497 0.07261855
0002a0 8f 3b 29 bd 8e 5e 86 3d 21 14 9c 3d 9f 5c 80 bd
       -0.041316565 0.065610036 0.07621027 -0.06267666
0002b0 a2 13 8a 3d 53 5d b4 bd f2 c2 78 bd dd 60 b9 bc
       0.06742026 -0.08806863 -0.06073279 -0.022629196
0002c0 4f 4c 08 bd 6a 34 73 ba d5 46 83 3d 3b 74 76 bd
       -0.0332759 -0.00092775247 0.064099945 -0.06016944
0002d0 e5 4f 7b 3d 5a 1d 3b 3d 05 37 8e 3d 7c c3 0c 3d
       0.06135549 0.04568229 0.06944088 0.034366116
0002e0 80 61 6b bc ff a9 ed 3d 23 52 af bc ec 4e 85 39
       -0.0143665075 0.1160469 -0.02140147 0.00025426538
0002f0 0d 9a e6 3a 55 18 be bb bb 34 86 3c 8c fb 17 bc
       0.0017593518 -0.0058012404 0.016382566 -0.009276282
000300 1b 88 51 3d 06 85 eb 3d 8d 56 90 3c 3b 92 71 3d
       0.05115519 0.114999816 0.017619396 0.058977347
000310 e8 b4 a1 bb 89 27 02 3e d2 50 a4 3d 66 74 60 3d
       -0.004934896 0.12710394 0.08023228 0.054798506
000320 e0 29 26 3c 7a de bc bd a3 fd 07 3c 2d 32 84 bd
       0.01014182 -0.092221215 0.008300218 -0.06454883
000330 cf 2c 99 ba e3 b3 b8 bd 56 10 00 3d 74 63 21 bd
       -0.0011686328 -0.09018686 0.03126558 -0.039401487
000340 49 7d dc bb c2 b6 bf bc 3e 26 a1 3d 90 34 95 bd
       -0.0067288023 -0.023402575 0.07868622 -0.07285416
000350 01 ee 4e bd 60 fa a8 3d f1 d5 4c 3d 7a 8d 23 bc
       -0.050519947 0.0825088 0.050008718 -0.009982461
000360 87 1a 80 3d 32 f3 a7 bb bd 4f a1 bd fa 2c d5 3c
       0.0625506 -0.0051254267 -0.07876537 0.026022423
000370 53 5a bd 38 e8 c2 94 bd ec a8 3e 3d 01 06 b5 3d
       9.0290465e-05 -0.07263738 0.046547815 0.08839036
000380 d2 ef d5 3d 63 fa d3 bd a5 e4 2a bd a9 9e 8b 3d
       0.10446133 -0.10350492 -0.04172196 0.068173714
000390 48 86 6a bd 0a b1 ff 3c 6c 9b 61 bd 03 7d 1b bd
       -0.057256967 0.031212348 -0.055079862 -0.037961017
0003a0 4e 48 c4 3c 05 be b9 bc 1e 8e 3e bd 3f fd 99 bd
       0.023960259 -0.022673616 -0.046522252 -0.07519006
0003b0 43 7a 26 bc 16 14 c5 bc 62 85 d1 3d 84 1b 30 bd
       -0.010160985 -0.02405743 0.10230519 -0.04299499
0003c0 5f 60 f1 bd 02 a9 8f 3d 18 d4 95 3c 06 b2 36 bc
       -0.117859595 0.070146576 0.01828961 -0.0111508425
0003d0 8e 7b 8e 3d eb 09 85 bd f8 8f a5 bd 06 27 88 3d
       0.0695716 -0.06496032 -0.080841005 0.06648068
0003e0 26 df 1e bd 5b 64 bc 3d e2 ef 37 3c 44 7a 00 bc
       -0.03878703 0.09198829 0.011226626 -0.00784165
0003f0 f0 1a dc 3d d2 40 a6 bd a0 eb 86 bc 5d 67 21 3d
       0.107473254 -0.08117832 -0.016469777 0.039405216

lstm.bias_ih_l0 f4 [512]
000000 b9 02 4c be 9d ef a2 bd 1d 59 ee bd e2 02 99 3d
       -0.19922914 -0.07955859 -0.11638091 0.07471253
000010 14 cb 25 3b 1d ca 27 bd 55 2e 04 bb c2 bb 19 bd
       0.0025298046 -0.040964235 -0.0020169218 -0.037532575
000020 21 d6 84 bd 0f 1e 0e bd dd 7c 86 3c 9a ce f7 39
       -0.06486154 -0.034696635 0.016416961 0.0004726544
000030 a0 24 87 bc e2 9e dd 3c 99 d4 1d 3d a1 3f 44 3c
       -0.016496956 0.0270533 0.038532827 0.011978061
000040 f3 50 46 bc c5 b0 a2 3d c4 48 f1 bd 68 e9 a3 bd
       -0.012104261 0.07943872 -0.11781457 -0.08003503
000050 8e 6d b4 bd 4a 83 64 be 3a 74 69 be b6 84 a6 bc
       -0.088099584 -0.22315708 -0.22798243 -0.020326953
000060 bb 16 84 3d c9 c1 96 bd 8c 1a 7a 3d d8 16 09 bd
       0.06449648 -0.0736118 0.061060473 -0.03346905
000070 40 3f 2a bd 3c 73 15 bc 43 a9 1e 3d 1f 7b f2 3c
       -0.041564226 -0.009121712 0.03873564 0.029599724
000080 1f 34 5e 3d a8 12 f4 bc 36 8a 97 bd cd b9 06 3d
       0.054248925 -0.029794052 -0.073994085 0.032892037
000090 08 ac 7d bd 80 31 29 bd 26 17 51 bd ab 84 5b 3d
       -0.06193164 -0.041306973 -0.051047467 0.05359332
0000a0 03 87 8e bd c9 16 ae bc 1b cd b9 bd a1 e3 e4 3a
       -0.06959345 -0.0212511 -0.09072324 0.0017462858
0000b0 05 93 af 3c 2c c7 dd 3b a4 e9 a5 bd 43 5b 0b bd
       0.021432409 0.006768128 -0.08101204 -0.03402258
0000c0 de 17 80 bd c1 14 15 bd ca 00 ad bc 5b 92 19 3c
       -0.06254552 -0.036396746 -0.02111854 0.009373273
0000d0 0c 8f 02 be 54 e0 f5 bc e7 9d 25 3e d5 99 76 3d
       -0.1274988 -0.030014195 0.16173516 0.0602053
0000e0 9c 57 9d 3d 93 33 97 bd bd 40 84 bd 3b aa ab bd
       0.07682726 -0.07382884 -0.0645766 -0.08382078
0000f0 ac 2d 38 3c 83 00 3f bb 55 d1 6a 3d 95 93 29 bc
       0.011241358 -0.0029144592 0.05732854 -0.010350128
000100 35 d6 73 3d 0d 06 87 3d c2 e9 43 bd 93 c1 15 bd
       0.059530456 0.06592951 -0.04783035 -0.03656156
000110 51 85 e0 bc 7b 6c 08 be 0f 06 86 3d 01 55 8b 3d
       -0.02740732 -0.13322632 0.06544124 0.068033226
000120 ec 8e a1 3d 05 dd 0d 3e ef 6b da 3c f7 70 39 bd
       0.07888588 0.13853844 0.026662795 -0.045273747
000130 55 38 9a 3d 6c c2 96 3b 0a e8 9a bd 13 e0 ba 3b
       0.07530276 0.0046008136 -0.07563789 0.0057029813
000140 46 c9 29 bd a2 ed 92 3d 49 f2 a5 3d b7 aa 95 ba
       -0.041451715 0.07174231 0.08102853 -0.0011418675
000150 5c 49 19 bd d0 26 3a 3d e9 f1 09 3d be 0f ae 3d
       -0.037423477 0.04544717 0.03367797 0.08499096
000160 ce 9a e2 bd 80 54 e0 bc 24 c6 10 3d 9d b9 c0 3c
       -0.11064683 -0.027384043 0.03534521 0.023526007
000170 0d 11 76 bc 50 c6 05 be e0 0c a9 3d 6c 3f 25 3c
       -0.015018714 -0.13063931 0.08254409 0.010085922
000180 15 f9 b1 bd 84 c3 c9 bd f6 d1 91 3c 03 c1 00 3d
       -0.08690087 -0.09851745 0.017800312 0.03143407
000190 a4 de c1 3c 7d ef 2e bb d7 5f 8a 3d a6 ab 9a 3c
       0.023665734 -0.002669304 0.06756561 0.018880676
0001a0 f2 98 25 3d e0 cf c5 3c 4b da da bd c8 a5 ae bb
       0.040429063 0.024146974 -0.10686167 -0.0053298213
0001b0 50 f6 a2 bd 64 25 e0 3d 35 db a4 bd dd b3 46 bd
       -0.07957137 0.10944632 -0.08049623 -0.048511375
0001c0 97 4c 8c bd 04 c4 c0 3d 7d c1 a6 bc b1 eb 77 3d
       -0.06850546 0.09412387 -0.020355934 0.060527507
0001d0 af 97 b6 bc e8 ec 45 bd 5a e3 b6 bd 66 20 72 3d
       -0.022289125 -0.048321635 -0.089300826 0.05911293
0001e0 96 1b 91 3d 1c b5 a6 bd 20 a5 90 bd 70 0f 06 3e
       0.0708534 -0.081400126 -0.07062745 0.13091826
0001f0 d2 f1 c8 bc fe 8e a1 3d 01 f9 a3 3c 5a 66 8c bd
       -0.024529371 0.07888602 0.020016195 -0.068554595
000200 3a 8c 44 ba 6f b7 ce 3c fa 79 c1 3d 1c 2c d8 bc
       -0.0007497702 0.025233952 0.09447093 -0.02638822
000210 2c 47 de 3d e6 db 7e bc 27 ef 72 bb ea 6e cb bc
       0.10853419 -0.015555358 -0.0037068815 -0.024833161
000220 be ba 06 bd 98 eb cc 3d a7 89 24 bc 67 e6 89 3d
       -0.032892935 0.100058734 -0.0100425845 0.06733399
000230 b1 c4 9c 3c dc fe 81 3d f3 d1 88 3b 34 43 26 3d
       0.019136759 0.06347439 0.0041754185 0.040591434
000240 ff 95 9b 3d 7d 04 88 3d 36 08 6b 3d d7 2a 37 bd
       0.07596969 0.06641481 0.057380877 -0.04471859
000250 5d 0d 08 bb ea 86 0e 3b 13 e7 8d 3c 93 36 5f 3d
       -0.0020759918 0.0021747896 0.017322099 0.054495405
000260 df c5 1e 3d 16 cc 56 3d c2 ff 60 bb 0d be 2c 39
       0.038762923 0.052440725 -0.003433213 0.00016473998
000270 52 0b 76 3c 89 d7 28 bd c8 f5 91 bb 45 47 17 3e
       0.015017347 -0.041221175 -0.0044543482 0.14773281
000280 4c bd df bc cf 24 a1 3d 99 a8 7d 3d 52 0d 52 3d
       -0.027311943 0.07868349 0.061928365 0.051282234
000290 34 06 7a bb 04 20 84 bd ee ae 66 3c a8 63 9a 3d
       -0.003815067 -0.06451419 0.014079792 0.07538539
0002a0 bf ae 35 bc ea 2a 84 3c 94 1d 58 3c a2 c0 8a bc
       -0.011089026 0.016133744 0.013190646 -0.016937558
0002b0 2c 4d 86 3d 0c 31 00 bd d7 16 16 bc 60 07 e2 3d
       0.06557688 -0.031296775 -0.009160719 0.11036563
0002c0 cc 4c 92 3d 32 d4 53 3c ad 7f 68 3d 41 fc 8e 3d
       0.07143554 0.012929009 0.056762386 0.06981707
0002d0 5b 12 3f 3d 03 2d 4f bd 0d 89 66 bd 62 e0 5f 3d
       0.046648365 -0.050580036 -0.056283046 0.054657348
0002e0 cc 45 85 b9 eb cd d4 3d 79 c9 c6 bc cd d1 36 3d
       -0.0002541974 0.10390838 -0.024265992 0.044633675
0002f0 d7 e3 77 3b 34 c5 62 bd 26 25 45 bd fc 54 3a 3d
       0.0037825012 -0.05536385 -0.04813113 0.045491204
000300 9c 02 70 bd 3d c1 b3 bc e3 22 84 3d 1f 24 d5 3c
       -0.05859624 -0.02194273 0.064519666 0.0260182
000310 51 e4 14 3a f6 bb 7a 3d cf cc b8 3c cc cb 87 3d
       0.0005679774 0.06121441 0.022558598 0.06630668
000320 67 58 d8 3d 66 33 97 3c 32 f4 a0 bc 13 aa 01 3d
       0.105637364 0.018457126 -0.019647691 0.031656336
000330 61 49 e1 3d eb 0e 98 bd e5 69 ca 3d a6 6e 08 3d
       0.11000324 -0.074247204 0.09883479 0.033308648
000340 14 80 b3 bc 54 34 68 3c 99 63 45 3e 75 54 5f bc
       -0.021911658 0.014172632 0.19276275 -0.013630976
000350 84 27 dd 3d 59 86 66 bd f6 49 97 3d 8c 49 96 3c
       0.10798553 -0.056280468 0.07387154 0.018345617
000360 5b db 85 3d b7 e9 23 3d 4a 82 7e 3d 0b fe a1 bb
       0.06535979 0.04001781 0.062135972 -0.0049436144
000370 98 43 38 bd 68 85 71 3d 7b 2b 23 3e e2 c2 7a 3c
       -0.044986337 0.058965117 0.15934555 0.015305253
000380 a7 3d b7 3d eb 41 2c bc d9 b8 9b 3d b8 dc 97 3c
       0.08947306 -0.010513763 0.07603616 0.018537864
000390 28 5e ad 3d 30 eb df 3c 74 46 1b 3d 33 11 f0 3c
       0.084652245 0.027333826 0.037908986 0.029305076
0003a0 7f 9b 94 bc dc 6b 81 3d 3a 59 92 3d 18 c6 0c bd
       -0.018140553 0.06319401 0.07145925 -0.034368604
0003b0 57 0b 01 bd 16 f9 07 ba 22 0a 81 bd 04 99 83 3d
       -0.031504955 -0.0005186958 -0.06300761 0.0642567
0003c0 71 22 21 bd 95 0a 54 bc f8 e6 76 bd c3 00 00 bd
       -0.039339487 -0.012941976 -0.060278863 -0.031250726
0003d0 41 b6 19 3e b3 02 66 bd 94 5d d1 3a 9d 35 0f 3d
       0.1501093 -0.056154918 0.0015973323 0.03496324
0003e0 47 b9 52 3b 78 72 dd 3d 56 00 cd 3d 81 fa cb bb
       0.003215389 0.10812849 0.1000983 -0.0062249308
0003f0 40 79 de 3b 36 04 a3 3d 03 d0 0f bc 2c c1 96 bc
       0.0067893565 0.079597875 -0.008777621 -0.018402658

lstm.bias_hh_l0 f4 [512]
000000 90 78 a0 bd 74 81 88 bd b9 27 c9 bd f6 f5 af bd
       -0.078354955 -0.06665316 -0.098220296 -0.08591835
000010 1a 67 07 bb 69 92 61 bd 22 e5 41 3d 09 2c 64 3d
       -0.0020660819 -0.05507127 0.04733766 0.055706058
000020 23 f2 0b bd 9c 85 13 be 7e 87 b5 bc 23 f5 20 bd
       -0.034166466 -0.14406437 -0.022159334 -0.03929628
000030 06 e1 45 bb 6c a0 e7 3c 5e 8f 40 3d 23 16 60 bd
       -0.003019394 0.028274737 0.047011726 -0.05470861
000040 07 ee 36 bb f5 20 45 bd db 68 84 bd 97 f2 25 3d
       -0.0027912871 -0.048127133 -0.06465312 0.040514555
000050 c0 ef 94 38 d4 62 d7 bd 79 74 90 bd 8d c7 49 3d
       7.101847e-05 -0.10516897 -0.070534654 0.049262572
000060 49 3e 92 3d ef f9 97 bc e3 e8 b8 bd f0 94 0c 3d
       0.07140786 -0.018551795 -0.090287946 0.034321725
000070 ce 28 5c 3d 8b 5f 90 bd 0f 6e 5b 3d f0 57 9c 3d
       0.053749852 -0.070494734 0.053571757 0.0763396
000080 a5 1e 71 bd 04 11 41 bd 4b 9d 12 3d 62 e0 f6 3c
       -0.058867116 -0.047135368 0.035794538 0.030136291
000090 bd da 9e bd 57 a6 15 3d fd 02 dc bd 78 f9 07 bb
       -0.07756565 0.036535587 -0.107427575 -0.002074806
0000a0 c1 96 31 3d 59 0a 23 bd 41 51 8e bc e4 56 af bb
       0.04335666 -0.03980479 -0.01737273 -0.0053509343
0000b0 23 91 aa 3c d8 b2 89 3d d8 cd 26 3c 52 32 99 3c
       0.02082116 0.06723565 0.010180913 0.018700752
0000c0 e7 59 0c bd 48 02 90 3c 85 58 a0 3d b1 4d 95 3b
       -0.034265425 0.017579213 0.07829384 0.0045563807
0000d0 85 ec bf bd 6b 96 19 bd 84 33 96 3c e9 75 33 3d
       -0.093712844 -0.037496965 0.018335111 0.04381362
0000e0 49 0d fd bc 9f 5e 00 3c 8e 96 fb 3b 86 22 49 bc
       -0.030890124 0.007835059 0.0076778596 -0.012276297
0000f0 98 ed 82 bd 9e 8f 92 3d ad be 06 3d 02 d0 4d bc
       -0.06392974 0.07156299 0.032896686 -0.0125618
000100 88 62 d8 3c 98 2f fe 3b 57 b9 34 bd ec 7c c2 bc
       0.02641417 0.0077571385 -0.044122066 -0.023741208
000110 ba 79 bc bc db 09 b3 bd 95 c7 a9 bd 29 fd 7f 3d
       -0.023007262 -0.08742114 -0.082900204 0.06249729
000120 85 c7 52 3b ca f7 02 bb 27 c2 8c bd aa c1 81 3c
       0.003216238 -0.001998412 -0.06872969 0.015839417
000130 27 13 84 bc 0c 64 ca bd 1b fd e7 bd 51 46 1f bd
       -0.016122414 -0.09882364 -0.11327573 -0.03888542
000140 06 6d a8 bd b2 10 b4 3a da b9 80 3d c1 4f a7 3d
       -0.082239196 0.0013737886 0.06285448 0.08169509
000150 e9 18 b9 bc 92 9d 80 bd 0d ba c1 bd 33 c5 19 bd
       -0.022594886 -0.06280054 -0.094593145 -0.03754158
000160 6a 28 27 be 6e 27 e7 bc 4e 4f 31 3c 48 d5 22 bd
       -0.1632401 -0.028217044 0.01082213 -0.039754182
000170 d8 b1 4a bd 86 f3 e0 bc 05 03 0a bd a9 c9 1c bd
       -0.04948601 -0.027459871 -0.033694286 -0.038278256
000180 4d ba a4 bd fa 8e 30 3c d9 08 09 be 81 b1 b0 3d
       -0.080433466 0.010776276 -0.13382281 0.08627606
000190 cf 81 5f 3c 36 b8 f4 3c 03 86 b8 3d 83 b8 21 3d
       0.013641789 0.029872995 0.09009936 0.039482605
0001a0 79 ad b0 bd d2 2c b2 bd b3 b3 e1 bd 7b 8c ec 3c
       -0.08626837 -0.08699955 -0.11020603 0.02887558
0001b0 dd 57 8d bd c4 0c e1 3d 85 7d cb bd 70 fa 43 bd
       -0.06901524 0.10988763 -0.0993605 -0.047846258
0001c0 38 7d b1 bd de 2b 7f 3d b9 77 b5 bd fb d4 9a bd
       -0.08666462 0.062297694 -0.08860726 -0.07560154
0001d0 79 c5 10 be 1b a7 a0 bb 6b ec bc bd 19 a0 69 bd
       -0.1413783 -0.004902733 -0.09224781 -0.057037447
0001e0 c4 e9 42 3d ba 30 a8 bc 31 3d c6 bc 10 a4 aa 3d
       0.047586218 -0.020531047 -0.0241991 0.08332074
0001f0 13 9a 96 bd af 52 d8 bc 0a 6e a5 bd 4a 46 f7 bc
       -0.07353606 -0.026406614 -0.08077629 -0.030184884
000200 16 f3 0f bd c9 60 b9 3d c4 68 5a 3d 93 bb ad 3d
       -0.035143934 0.090516634 0.05332257 0.084830426
000210 49 ae 66 bd 91 06 83 bb dd 9e 10 3d 52 d3 b9 3d
       -0.056318555 -0.0039985855 0.035307754 0.09073509
000220 eb 16 32 3c 22 95 9c 3d 53 84 86 3d 96 c0 b7 3c
       0.010869722 0.07645632 0.065682076 0.0224307
000230 5b d9 7d 3d ab fc 88 bd 34 7a eb bc 7c 8e 96 3d
       0.061974864 -0.066888176 -0.028744794 0.073513955
000240 a3 70 e1 3d 34 34 1c 3d b6 2d bb 3c d6 c6 97 3d
       0.11007812 0.038135722 0.022848945 0.07410972
000250 54 57 25 3e b9 44 ac 3c b8 99 e1 3c 8f 4d 1d ba
       0.16146594 0.021028863 0.02753912 -0.0006000632
000260 c5 b1 32 bd 82 c4 99 3d 26 72 ea 3d 3d 62 8d 3d
       -0.043626565 0.07508184 0.11447553 0.06903503
000270 6b 24 e2 bc 86 41 35 3d 79 98 cf bd 9e e9 19 3d
       -0.027605256 0.04425194 -0.10136504 0.03757631
000280 7c 84 3b bd 20 53 a0 3d b2 20 13 bd 5c 4b 1d 3e
       -0.045780644 0.07828355 -0.035919853 0.15360779
000290 e4 2e 8d bd 74 63 2e bd 4f 45 31 3d 4c 6c 67 3d
       -0.06893709 -0.042575315 0.04327899 0.056499764
0002a0 ab 51 a9 3d 2b 70 db 3d a8 34 9d bb 16 d5 23 3d
       0.0826753 0.10714754 -0.004797537 0.039998136
0002b0 98 64 7a 3d b9 d7 0f 3c b0 cb 42 3d 8e 2d b7 3d
       0.06113109 0.00877946 0.047557533 0.08944236
0002c0 fc 88 60 3d 7e a6 96 ba e9 e5 70 bd 35 f9 6b 3c
       0.05481814 -0.001149371 -0.05881301 0.014402677
0002d0 fe 04 20 3e 5e fd b0 3d d2 4c 15 bd 47 0c 09 bd
       0.15626904 0.08642076 -0.036450215 -0.033458974
0002e0 1e 5a 55 bd fe b7 12 3e bf a6 10 3c ab ef 77 bc
       -0.052087896 0.14328 0.008828818 -0.015132825
0002f0 35 c7 0e 3d 0b 58 bf 3d 8e fc 87 3d 04 06 30 bc
       0.034857947 0.09342965 0.06639968 -0.010743622
000300 1b 8d 9b bb a1 d9 10 bd 5e 39 85 3d cf 6a 7e 3d
       -0.0047470457 -0.035363797 0.065050825 0.06211358
000310 8d d9 81 3d 89 f9 84 3d ba 1c d7 3c 51 f3 8b bb
       0.06340323 0.064929076 0.026258815 -0.004270949
000320 56 ef 1e bd 44 a9 f8 bc b2 a3 3a 3d d4 e7 5f bd
       -0.038802467 -0.03035415 0.04556627 -0.054664448
000330 4f f6 d6 3d b9 52 64 3d 2b a1 62 3d 0b f6 3e bd
       0.104961984 0.055742953 0.055329483 -0.046621364
000340 04 52 5f bd 75 d1 6c 39 bb ce 56 3d 61 10 94 bc
       -0.054521576 0.00022584743 0.052443247 -0.018074216
000350 c8 e8 b8 3d c0 50 87 3d 3d a7 73 3c fe 08 68 bd
       0.090287745 0.06607199 0.014871416 -0.0566492
000360 c1 bb 57 3d af 69 03 bd 23 7c be 3d 56 a3 7a bc
       0.05266929 -0.03208321 0.09301021 -0.015297731
000370 e9 08 11 3d da a2 39 3d 4b c2 e7 3d 56 1c d8 bc
       0.035408888 0.045321323 0.11316355 -0.0263807
000380 22 65 a2 3d 20 72 e2 3d 40 c2 5d 3d db e5 47 3d
       0.07929446 0.11056924 0.05414033 0.04880319
000390 b6 09 5c bc f7 4a 26 bd 17 bc ac bc 99 2d ed 3c
       -0.01343005 -0.040598836 -0.021085782 0.028952407
0003a0 c9 71 69 bd 9f 3d 47 3d 96 e4 88 bd 35 ec 13 bd
       -0.05699328 0.04864275 -0.06684224 -0.036113936
0003b0 7a af 00 3d 0f 18 61 bc 16 03 38 bc 82 ae 7f bc
       0.031417347 -0.013738646 -0.0112312045 -0.015605571
0003c0 d0 67 bc 3c be f5 55 3d 3d 51 fe bc a5 7e 4c 3d
       0.02299872 0.05223631 -0.031044597 0.049925465
0003d0 e3 4d fa 3d bf 07 a4 bb f2 92 a5 3d d5 fa b4 3d
       0.12221887 -0.005005806 0.08084668 0.08836905
0003e0 25 55 f3 3d 13 24 7b 3d 38 9b a9 3c 8c 07 12 3c
       0.118814744 0.0613137 0.020703897 0.008912932
0003f0 2c 97 b0 bd 83 da 5a 3c 85 e9 49 3d 3c 30 f2 bc
       -0.08622584 0.013357761 0.049294967 -0.029564016

fc1.weight f4 [60, 256]
000000 7a 2d 8d bd 7e 49 71 3d f2 61 40 bd 1f e6 5a be
       -0.068934396 0.05890798 -0.046968408 -0.21376847
000010 71 d0 80 bd 54 32 9f 3d 07 bb 9b bc af 93 35 be
       -0.06289757 0.07773271 -0.01901008 -0.17732118
000020 f5 06 ee b9 fa c5 10 3e a2 ec 49 bd f4 97 b3 3d
       -0.0004540008 0.14138022 -0.049297936 0.08769217
000030 d9 6a b9 3d 29 cd ea bb 33 43 be bd 7a c8 62 bd
       0.09053583 -0.0071655703 -0.09290161 -0.05536697
000040 15 4a 2c 3e 7b e9 69 bd f5 22 b9 3d b2 70 0b 3c
       0.16825135 -0.05710743 0.09039871 0.008510755
000050 20 6f e5 bd b3 1d 53 be 80 0f a6 bd 66 87 33 be
       -0.11202836 -0.20616798 -0.08108425 -0.17532119
000060 8b 52 36 be fc a6 c4 3b 42 8c ac bb 71 17 22 bd
       -0.17804925 0.0060013514 -0.0052657435 -0.039573137
000070 f1 24 2a 3a 5c 77 31 3c f8 7d 27 bd 1e f4 6a be
       0.000649049 0.01083168 -0.040891618 -0.22944686
000080 5c e2 37 bd 2b e5 fd bd 67 61 ea 3c 8b 1c c6 bd
       -0.044893607 -0.12397226 0.028610898 -0.09673413
000090 08 e0 df bd c9 1d de 3b c3 9e b8 bc 45 ef 8a bd
       -0.109314024 0.006778453 -0.022536641 -0.06783918
0000a0 f0 d8 b9 3d 29 92 8a bd d7 22 51 3d 48 61 9d 3d
       0.09074581 -0.06766159 0.051058616 0.076845706
0000b0 83 0a 98 3d bc ce 8e bd 3d d5 81 3d 0e b3 d7 3c
       0.0742388 -0.06973025 0.063395 0.026330497
0000c0 35 d7 68 3d e9 40 74 3c 1b 24 89 3c 90 3d e1 3d
       0.056845862 0.014908054 0.01674085 0.1099807
0000d0 9a a5 65 bd eb 7d 9a 3c 72 59 48 be 4f ab 01 bd
       -0.056066133 0.01885887 -0.1956537 -0.031657513
0000e0 2c 7d bb 3d 49 48 d3 3d fb 91 e6 bc c1 d9 8b 3d
       0.09154734 0.10316522 -0.02814578 0.06828643
0000f0 7d 74 95 bb f1 63 9f bd 8c e6 c7 3d f1 7f cf b9
       -0.0045610056 -0.07782734 0.0976077 -0.0003957744
000100 a0 f6 c8 3d 63 60 c4 bd 75 da d5 3d 87 2c 1c 3e
       0.09812665 -0.09588697 0.10442058 0.15251361
000110 49 29 62 3d 42 52 19 38 65 b1 5d 3d 98 41 96 bc
       0.055215154 3.655465e-05 0.054124255 -0.018341824
000120 cd 7a f5 bd 03 8f 6c be 81 62 59 3d 9f 2d 5d 3b
       -0.11986313 -0.2310143 0.053072456 0.0033749116
000130 40 9d b4 3d 0d 90 ae be 39 4b a0 3c 2b 65 0d be
       0.088190556 -0.34094277 0.019567119 -0.13808124
000140 c5 95 53 bd 1f ae d3 bd 0d 8c 13 be 4e 61 19 3d
       -0.051656503 -0.10335945 -0.14408894 0.037446313
000150 1b ab 2c 3d 46 07 95 bd 08 30 b2 3d bb 27 20 bd
       0.042155366 -0.07276778 0.087005675 -0.03910039
000160 56 4e a3 bd 20 db 3f be 52 8c 10 3e bf b4 48 bd
       -0.07973926 -0.18735933 0.14116028 -0.049000498
000170 57 80 93 bd 3c 97 ac bd cb ea 0e 3b 13 da 61 3c
       -0.07202213 -0.08427283 0.0021807428 0.013784903
000180 6c f5 f7 bd 82 81 0f bd 7d 51 9e bc de 8f 92 bd
       -0.121073574 -0.035035618 -0.019325966 -0.07156347
000190 16 a4 a1 3d 3d 0c ea bd 61 cb e3 3d 9b aa 03 bd
       0.07892625 -0.114281155 0.11122776 -0.032145124
0001a0 30 3e 00 bd e4 3b c9 3d aa 6e 29 bd 61 7a 9d bd
       -0.031309307 0.09825876 -0.041365303 -0.076893575
0001b0 94 57 7e bc 61 b5 e5 3c 99 b5 89 3d 13 05 2f bd
       -0.01552381 0.02804059 0.0672409 -0.04272945
0001c0 f1 fc b6 3d e6 a6 d2 bd 59 9f 85 bc e7 f6 5a 3e
       0.089349635 -0.102857396 -0.016311334 0.21383248
0001d0 c3 17 b8 bd 1a 89 2c bd 08 dd 84 3c 9c ff ca 3c
       -0.08988907 -0.042122938 0.016218677 0.024780087
0001e0 be 66 0e be ef be 43 3a 6b cb 88 bd 96 35 a8 3e
       -0.1390638 0.0007467111 -0.06679424 0.32853383
0001f0 80 66 c2 b9 6a 2c 2a 3d a9 b7 4c bc 5b 3f 6e bd
       -0.00037078932 0.041546263 -0.01249496 -0.05816589
000200 eb 21 d9 bc a4 1b b1 3d f1 de 57 39 dc 65 17 be
       -0.026505431 0.0864785 0.0002058705 -0.1478495
000210 8f 65 c6 bd a3 81 8a 3d a5 1d 02 be 42 66 33 be
       -0.096873395 0.067630075 -0.12706621 -0.17519477
000220 ca dc b2 3d b9 80 2d 3d 94 57 96 bd c7 f8 17 3e
       0.087335184 0.042359088 -0.07340923 0.14840995
000230 aa 98 1a 3d 78 8e b7 3c 13 28 b4 bd 4d 55 25 3c
       0.037743248 0.022406802 -0.08796706 0.010091138
000240 6f ba 38 3e 03 fd ae bd 9c bc 00 3e ce c0 49 bd
       0.18039869 -0.08544352 0.12571949 -0.04925614
000250 fb a5 01 be c6 e2 2e be a1 cd da 3b 32 9a 87 be
       -0.12660973 -0.17078695 0.006677345 -0.2648483
000260 51 57 62 be ad eb 1a 3c 63 69 84 3c ca 57 d1 bc
       -0.22103621 0.009455604 0.016163534 -0.025554556
000270 58 ec 4c 3d 80 27 a1 3d 21 06 77 bd bc c5 64 be
       0.050030082 0.07868862 -0.06030858 -0.22341055
000280 b2 2f 7a bd ba 00 c3 bd 89 aa 07 3d 28 be cc bd
       -0.061080642 -0.09521623 0.03312162 -0.09997207
000290 0e 05 c5 bd be 2a 9d bc 2c 9a c0 3d df 4d b8 bd
       -0.09620105 -0.01918542 0.09404406 -0.08999228
0002a0 d0 9f 68 3d 9d c5 d6 bc 03 b7 2e 3d 64 29 aa bb
       0.056793034 -0.026217276 0.042655002 -0.0051929224
0002b0 2c f8 30 bb 6c 41 02 bc c9 f4 c5 3d 8d 20 f6 3c
       -0.002700339 -0.007950168 0.0966583 0.030044818
0002c0 c4 b3 75 3d 96 c7 a4 bc 5e 72 09 3d dd ab c8 3d
       0.05998589 -0.020114701 0.033556335 0.09798405
0002d0 a8 aa 26 bd 4a 08 c1 bc a9 40 e3 bd e1 75 09 be
       -0.040690094 -0.023563523 -0.11096317 -0.13423873
0002e0 83 74 88 bb ec 74 39 3d e9 6d 02 bd fa 97 d8 3d
       -0.00416428 0.04527752 -0.0318431 0.10575862
0002f0 51 38 0e bd 20 3d d7 bd 5c 3d 8a 3d bd bc b5 bc
       -0.034721676 -0.105097055 0.067499846 -0.022184724
000300 10 e5 00 3e c3 19 2d be 49 71 66 3d 9a 9f e7 3d
       0.1258738 -0.16904359 0.05626038 0.113097385
000310 4d fc 7a 3d 0d 71 42 3d 71 0b 9b 3d 60 3c a3 3c
       0.06127577 0.047471095 0.07570542 0.01992625
000320 6e 1d 3d be 11 c0 21 be 1c 5a 9e 3c 3a 0d cb 3c
       -0.18468258 -0.15795924 0.019330077 0.02478658
000330 7f a9 ef 3b 83 ad 13 be f6 55 4d 3b 94 cf 2c be
       0.0073139067 -0.14421658 0.0031331754 -0.1687606
000340 bb c5 21 bc 05 54 cb bd e4 e7 12 be 7f 7e 71 3d
       -0.009873803 -0.09928135 -0.14346272 0.058958527
000350 9b af 6a 38 72 42 9a bc be 10 16 3d 5b b3 11 bd
       5.5953493e-05 -0.018830512 0.03663706 -0.035571437
000360 fd 50 13 be 27 bd fe bd 4b 4b e2 3d 19 76 80 3d
       -0.14386363 -0.12438422 0.11049517 0.06272525
000370 56 a8 b4 bd 9c e9 12 be b5 67 86 3c 47 01 a0 3c
       -0.0882117 -0.14346927 0.016406873 0.01953186
000380 30 60 33 be de e2 dd bc 6c 63 36 ba fe 50 1e 3d
       -0.17517161 -0.027085718 -0.0006957564 0.03865146
000390 70 63 b8 3d ef 89 ec bd 51 7f a1 3d 21 90 b4 3b
       0.09003341 -0.11549746 0.07885612 0.0055103456
0003a0 b2 2d 85 bc 2c 9b 90 3d 48 4e a4 bd 25 d9 a3 3c
       -0.01625714 0.07060847 -0.080227435 0.020001004
0003b0 8b 79 a6 bc 7e 83 75 bd 65 c5 01 bc 56 b9 59 3c
       -0.020321628 -0.059939854 -0.007920598 0.013288816
0003c0 d1 ce 0e 3e 30 5f 22 be f7 d1 33 bd 79 c8 97 3d
       0.13946082 -0.15856624 -0.04390141 0.07411284
0003d0 9b 82 a9 bc c6 79 9e bd a6 7e 82 3c 6f 32 54 bd
       -0.02069216 -0.0773807 0.015929531 -0.05180591
0003e0 c8 5d 10 be 6c ce b7 bd bd 9b 49 bd 31 46 72 3e
       -0.14098275 -0.08974919 -0.04922079 0.23659588
0003f0 33 08 d6 3d 16 5b 71 bd b4 6f 8e 3c 54 c5 97 bd
       0.104507826 -0.058924757 0.017387249 -0.07410684

fc1.bias f4 [60]
000000 b7 30 40 3e 02 a3 0a 3d ac 7b c4 3d 80 6e b6 3c
       0.18768583 0.033846863 0.09593901 0.022269487
000010 de 3f 29 3d 8d ee 7c 3d 4a 00 36 bd fc e9 93 bd
       0.041320674 0.061750937 -0.04443387 -0.07222363
000020 2d 11 0f be 4f 17 5d bd 7d 71 b4 bd 6d bf ae 3c
       -0.13971396 -0.053977307 -0.08810709 0.021331513
000030 05 71 7f bd bb df d8 bd 3d 33 03 be 01 08 c6 bc
       -0.062363643 -0.10589548 -0.12812515 -0.024173738
000040 10 84 f1 bd c6 90 f2 bb 87 34 01 be 83 32 1d be
       -0.11792767 -0.0074025122 -0.12617694 -0.153513
000050 f8 0b 23 be 7b 99 0d be 5a 1c 61 bd bd 6c 04 be
       -0.15922534 -0.1382808 -0.05495868 -0.12932105
000060 86 6a a8 bc 64 14 37 be c9 23 d1 bd 04 c2 89 bd
       -0.020558607 -0.17878872 -0.102119036 -0.06726459
000070 56 26 be bd 58 03 3b be 6e 8f 10 be 54 9c a8 bc
       -0.09284656 -0.18262994 -0.14117214 -0.020582356
000080 a1 ab 12 3a 7e 2a 57 bd c4 00 26 bd a4 35 a9 3c
       0.00055950327 -0.052530758 -0.040528074 0.02065546
000090 a5 fb f5 bc b9 e0 58 bd 24 9e ea bd 28 fe ca 3b
       -0.03002722 -0.052948687 -0.11455944 0.0061948486
0000a0 03 0f 7a bd d4 73 42 bc f1 bb 5f 3c a8 8a ab 3b
       -0.061049473 -0.011868436 0.013655649 0.005235035
0000b0 68 ff 37 bd ff 90 60 bd 83 a2 cd 3c 88 bb 10 bd
       -0.04492131 -0.05482578 0.025101906 -0.035335094
0000c0 d8 cd 60 3c b2 48 23 3d 3f f8 81 3d 54 62 8e bd
       0.013720952 0.03986425 0.06346177 -0.06952348
0000d0 9e f9 83 3c f5 82 52 bc 51 a6 73 3d 4b 11 88 3d
       0.016110238 -0.012848605 0.059484784 0.06643923
0000e0 83 03 e1 3d 81 73 04 3e fd 60 f3 3d 01 2d bf 3e
       0.10986998 0.12934686 0.118837334 0.37339023

fc2.weight f4 [32, 128]
000000 6a 5b 35 3e 99 ff 27 be 9a c4 a6 3c e1 45 87 bc
       0.17710653 -0.16406097 0.020357419 -0.016512813
000010 49 c5 e4 bd 83 b2 79 3d cc 5f 8f 3c 34 f3 40 3d
       -0.11170442 0.060961258 0.017501734 0.047106937
000020 19 72 9d bd 88 5a d4 bd fa b1 8c 3d 66 c6 0a 3e
       -0.07687778 -0.1036883 0.06869884 0.13552245
000030 d8 d9 c0 3c 44 af fd bb c2 77 7a 3b 22 52 a6 bb
       0.023541376 -0.0077418406 0.0038218354 -0.005075709
000040 cb b3 81 bc bb 9d e0 bd 53 6c dc bd d2 4a 1a be
       -0.015832802 -0.10967585 -0.10762849 -0.15067604
000050 31 a1 95 bc e1 66 36 bd 1c 58 08 be 10 62 9a 39
       -0.018265339 -0.044531707 -0.13314861 0.0002944623
000060 54 ac d6 bd a3 c2 d0 bc 97 ec 06 be b4 9b 18 be
       -0.10482088 -0.025483435 -0.1317619 -0.14903146
000070 20 c5 95 3d 1d 1c c6 bd 3a 3e 08 3e d7 b3 6a 3d
       0.07312989 -0.09673331 0.13304988 0.057300415
000080 99 88 85 3e b1 d9 26 3d 73 af 93 bd fb 61 c3 bd
       0.26080778 0.04073495 -0.07211199 -0.09540173
000090 e1 86 13 be c7 b0 04 bd 7c ee 07 3e 4f 67 01 be
       -0.14406921 -0.03239515 0.13274568 -0.12637065
0000a0 aa a5 a7 3d 8f 20 a1 3c 3c 1d 45 3d 0a bc 13 b9
       0.08185895 0.019668845 0.048123583 -0.00014089062
0000b0 03 a4 bd 3d 3c 25 11 3e f1 d4 f1 bd 03 bc 12 3e
       0.092597984 0.1417436 -0.118081935 0.14329533
0000c0 b6 f6 87 bd 0d 89 97 3e 07 31 13 3e 3a ec 73 3d
       -0.06638853 0.2959675 0.14374171 0.059551455
0000d0 6f 0d 1c be a2 8d b9 bc 12 91 07 3e b5 53 ce bc
       -0.152395 -0.022650544 0.13238934 -0.025186399
0000e0 c4 1b 57 3e 2c b2 12 3e 57 53 f7 bc a4 d7 8e bd
       0.21006685 0.1432578 -0.030191107 -0.06974724
0000f0 94 ac be 3d 52 79 32 3e 2f 6b 27 be 96 b0 df 3d
       0.093102604 0.17429093 -0.16349481 0.10922353
000100 36 08 bb 3b c3 d4 54 be a3 e7 16 bb 3d 95 4e 3d
       0.005707766 -0.20784287 -0.002302625 0.050435293
000110 24 df fb bd 7f 97 05 be b7 72 a1 bd 3d 50 82 bd
       -0.1229842 -0.13046072 -0.07883208 -0.063629605
000120 0e 25 f6 bd 76 65 8c 3e 02 9b 01 3d c7 50 4f 3d
       -0.12018786 0.2742116 0.031641968 0.050614145
000130 8e 7e cf bc d1 55 bb bb 2f 11 16 3e 75 d0 21 bd
       -0.0253289 -0.005717017 0.14654993 -0.03950544
000140 ff 55 d0 bb 40 8a 9c bd 40 bd 8a 3c c6 a6 24 be
       -0.006357908 -0.076435566 0.016935945 -0.16079244
000150 7f 3b aa 3d 0c b6 94 bd c8 5d 04 3e e2 19 f2 3b
       0.08312129 -0.07261285 0.129264 0.0073883394
000160 68 02 23 3b fb 1e 9f bc d6 f0 ca bd 54 2d 18 be
       0.002487326 -0.019423952 -0.09909217 -0.14861041
000170 de a4 49 3d a9 c7 d3 3d b6 9c 8e 3d 1b 57 ec 3d
       0.049229495 0.103408165 0.06963484 0.115400515
000180 04 a3 11 3d a5 cc 79 bd 58 da ee 3d f1 a4 fc bd
       0.035555854 -0.06098618 0.116627395 -0.123361476
000190 99 a6 6f bb 48 9d 31 3d 28 0a 3c bd 4c 79 f0 3d
       -0.0036567806 0.043362886 -0.045908123 0.117418855
0001a0 74 98 2d 3e db dc b0 bc 41 c0 0d 3d 15 3b ed 3c
       0.16952688 -0.021589687 0.034607176 0.028958837
0001b0 bf 3e 7d 3d 25 b3 20 be ea 9b ee bd 80 44 c7 3b
       0.061827417 -0.15693338 -0.11650832 0.006081164
0001c0 e3 8b 84 bb 8b 8e 2a 3d 0d 3c 08 be 67 19 42 be
       -0.004044996 0.041639846 -0.13304158 -0.18955003
0001d0 13 b3 24 3e e0 e3 18 3e 6c 97 55 3e 61 69 83 3b
       0.16083936 0.14930677 0.20858544 0.004010365
0001e0 1c c0 8f 3d 04 97 1c 3e b6 97 15 3e 34 a4 9e bd
       0.07019064 0.15291983 0.14608654 -0.07746163
0001f0 d9 b9 e5 bd 0e ed 13 3e f8 ba 20 be d1 38 19 3d
       -0.11217088 0.14445898 -0.15696323 0.0374077
000200 cd c3 69 3e a2 29 f9 3c 44 cc ef 37 b6 37 a1 bd
       0.22828598 0.03041536 2.8586139e-05 -0.07871954
000210 4a 3f c0 bd bf 15 05 3d ff 85 6b 3d b0 79 00 3d
       -0.093870714 0.03249144 0.057500836 0.03136605
000220 07 86 df bd 03 7d f9 bb 61 f4 0f 3e 32 3d 04 3e
       -0.109142356 -0.0076137795 0.14058067 0.12913969
000230 71 05 a7 3d 05 fe e4 bd 5a 99 b8 3b e9 dd c9 bc
       0.08155335 -0.11181263 0.0056335153 -0.024641948
000240 f6 aa a3 bb 66 fb d3 bd e2 19 a4 bb a4 96 d2 bd
       -0.0049947454 -0.10350685 -0.0050079683 -0.10282639
000250 83 c8 98 3c 58 da a3 bd b0 2d df bd 37 6e 0c be
       0.018650299 -0.0800063 -0.10897386 -0.13713919
000260 53 4f d9 bd fd 71 1f 3d 0c 2f b8 bc c6 9b 5a bd
       -0.10610833 0.038927067 -0.022483371 -0.053371213
000270 86 d4 2d 3e d9 e3 6f 3a 10 fb 27 3e 05 5b 0d 3c
       0.16975603 0.00091510784 0.16404366 0.008627658
000280 ee 29 7d 3e f0 4a dd 3b 20 e6 a1 bd 9d 77 54 bc
       0.24723026 0.006753318 -0.07905221 -0.012967971
000290 02 fb db bd a7 fe 60 3d 41 1c 11 3e 9c 1c ba 3c
       -0.10741235 0.054930355 0.14170934 0.02271872
0002a0 c3 47 df 3d 16 56 29 3d 22 6f 28 3e 76 ff 03 3e
       0.10902359 0.041341864 0.16448644 0.1289042
0002b0 87 ba de 3d 4e 48 30 3e 8e ab 49 bb 42 ff 00 3e
       0.10875421 0.17215082 -0.003077242 0.12597373
0002c0 c9 20 ee bd 8c 49 21 3e c6 33 59 3e 1f 3b ce 3c
       -0.11627347 0.15750712 0.21211156 0.025174676
0002d0 2d 36 c3 3b f4 46 a3 3c 48 1e 9b 3c fd 67 47 be
       0.005957386 0.019931294 0.018935338 -0.19473262
0002e0 08 35 8b 3e 87 05 88 3d a8 84 32 bc c3 46 ac bd
       0.27188897 0.06641679 -0.0108958855 -0.08411934
0002f0 d1 ea ea 3d d4 e7 35 3c 2b aa ce bd 07 a8 09 3d
       0.11470569 0.011102635 -0.10091051 0.03360751
000300 4f 76 49 bd 65 9b ac bd aa a8 87 3c bb ff bb 3d
       -0.049185093 -0.08428077 0.016559917 0.09179636
000310 9e e3 65 3d 87 80 1d be bf 1b 85 bd b4 22 f2 bd
       0.056125276 -0.1538106 -0.06499433 -0.11823025
000320 d0 ed 52 bc f6 b3 2e 3e 7a 51 e2 3d 11 49 94 3d
       -0.012874082 0.17060837 0.11050697 0.07240499
000330 2c b2 79 3d 6b 64 55 3d a8 f9 1d 3e 02 c8 c5 3d
       0.060960934 0.05209772 0.15427268 0.09657289
000340 04 91 91 bd 2c d1 9c bd 16 54 24 3d 35 48 b1 bd
       -0.07107738 -0.07657084 0.040119253 -0.086563505
000350 71 28 12 3e c3 c9 8f bd 60 3d 24 3e 02 1b 55 3d
       0.1427324 -0.07020905 0.16039038 0.05202771
000360 9d c7 6d 3d ae 58 1b bd 2c 40 ae 3c 94 67 d3 bd
       0.058051694 -0.03792637 0.021270834 -0.1032249
000370 93 c7 07 3e 23 f6 21 3e 66 bd 18 3e ea 97 8d 3d
       0.13259725 0.1581655 0.14916 0.06913741
000380 ed 31 52 3e 16 8c 7a bc 66 5b 5e 3d 7f 44 7c bd
       0.20526858 -0.015292188 0.054286383 -0.06158876
000390 58 e8 8c 3c af 71 52 3e b6 dc 5c 3c fb c8 ba 3d
       0.017200634 0.2055118 0.013480356 0.09120365
0003a0 88 a2 ca 3d 9b 9b ac bd 65 4c ce 3d 81 4b 19 3e
       0.098942816 -0.08428117 0.10073165 0.14970209
0003b0 db 8a 98 3d bf ee 40 bb 44 42 3d bc af 0d 5b 3d
       0.074483596 -0.0029439179 -0.0115514435 0.053479847
0003c0 db 85 99 3d 35 f4 cc bc 29 df f3 bd fb 59 96 bc
       0.07496234 -0.02501879 -0.11907799 -0.018353453
0003d0 77 68 c8 3d ac 26 82 3d 8b c9 56 3e 6d da e3 3d
       0.0978555 0.06355032 0.2097532 0.11125646
0003e0 a0 db b6 3c 69 5d 06 3d 6b 47 4d 3e 30 28 69 bd
       0.022321522 0.032803927 0.20046775 -0.05692309
0003f0 7e bb c4 bd ee 0d 94 3b 45 e8 9b bc 61 a0 91 3d
       -0.09606074 0.004518262 -0.019031653 0.07110668

fc2.bias f4 [32]
000000 f7 86 23 3d 18 cb 90 bc ce 75 96 3d fc 0f dd 3b
       0.039923634 -0.017674968 0.07346688 0.0067462903
000010 e8 22 dc 3d 50 f7 17 3d 04 48 92 3d 8e 1f ec 3d
       0.10748845 0.03710109 0.07142642 0.11529456
000020 33 b2 53 bb 23 c7 81 3d 5d 2c 9c 3b b7 0f 19 3d
       -0.003230226 0.063368104 0.0047660307 0.037368502
000030 3f 01 aa bc 13 c5 24 3d b1 91 d0 3d 6f c4 b1 bc
       -0.020752547 0.040227007 0.101840384 -0.021700112
000040 ff d3 9c 3d de 57 b7 3d f3 57 0c bd 14 f4 eb bb
       0.076576225 0.08952306 -0.034263562 -0.0072007272
000050 bb a0 6b 3d 23 09 00 3c 5f 77 d3 3d 7a 80 9f bc
       0.05752633 0.007814678 0.103255026 -0.019470442
000060 8b 68 ca 3d ce 1a d6 3c 64 ca 34 3b eb f9 3c 3d
       0.09883221 0.026135828 0.0027586455 0.046136778
000070 2e 24 a2 3d 88 81 81 3d b1 b9 8e 3d 2d d9 b5 bc
       0.07917057 0.06323534 0.069690116 -0.022198284

fc3.weight f4 [2, 32]
000000 8c 36 a5 3c 6f 54 86 ba 67 36 d1 3c 97 c7 54 3e
       0.020167612 -0.0010248552 0.025538636 0.20779262
000010 11 20 d7 3d 32 3b 14 be c2 09 42 3e ee 6b 8f 3e
       0.10504163 -0.14475706 0.18949035 0.2801203
000020 66 5a c3 3c 3b f2 6c be 5e e6 6f 3e 74 c0 b2 3d
       0.023846816 -0.23139279 0.23427722 0.08728114
000030 a5 ec 04 be 90 f9 69 be 4c 85 6b be fd d4 44 3e
       -0.12980898 -0.22849107 -0.23000067 0.19221874
000040 b3 77 09 be d4 4f 4f be 6c 07 34 be a8 94 0a 3e
       -0.13424568 -0.20245296 -0.17580956 0.1353327
000050 ba c3 56 3e b5 11 ad 3d b4 16 d2 3d 39 2e 5b be
       0.20973101 0.08450643 0.102582365 -0.21404351
000060 6b c9 3c bd d7 b9 40 bd 90 8d 50 3e bf 98 01 be
       -0.046090525 -0.04705223 0.20366502 -0.12655924
000070 58 45 4f be 87 4a 19 bd 4d 1a 8b be 49 17 27 3e
       -0.20241296 -0.03742459 -0.27168503 0.16317476
000080 3b 84 78 be f1 45 84 be 66 e8 83 be d5 09 88 bd
       -0.24269192 -0.2583461 -0.25763243 -0.066425
000090 96 31 1e be d5 39 7c 3e 54 e3 25 be 8e ba cd bd
       -0.15448603 0.24631436 -0.162 -0.10045348
0000a0 11 41 74 be 85 8f 0d 3e cf 82 5c be b7 93 61 be
       -0.23852946 0.1382428 -0.21534275 -0.22029005
0000b0 d7 23 48 3e b1 17 60 3e 41 4d 59 3d 9c 0b 38 be
       0.19544922 0.21884038 0.05305219 -0.17973179
0000c0 21 5f ff 3d 11 cb 1a 3d 85 bd 14 3e 33 be f0 bd
       0.12469316 0.037791315 0.14525421 -0.117550276
0000d0 5e b8 2a be fb 70 7f be 8c be 85 be cf 10 e0 3d
       -0.16671893 -0.24945442 -0.26121938 0.10940706
0000e0 a2 35 6a 3e 69 29 83 3e ad 12 77 be 3f 41 4d 3e
       0.22872022 0.2561753 -0.24128218 0.2004442
0000f0 06 51 0b 3d ae 7c 8b 3e 58 d3 af 3d 41 e0 4f be
       0.034012817 0.2724356 0.085852325 -0.2030039

fc3.bias f4 [2]
000000 21 2e 1d bc 20 42 85 bd
       -0.0095935175 -0.06506753
