LSTM_Attn/lstm_attn.pt (torch_old, 960722 bytes, 10 tensors)

lstm.weight_ih_l0 f4 [512, 300]
000000 ca 3e 3d 3d 42 50 85 3d 36 5a 69 bc 3a b0 8e 3d
       0.04620246 0.065094486 -0.014242699 0.06967206
000010 4b d3 0b bc 6e d4 ed 3c 87 ea ef 3d a0 cc c5 bd
       -0.008534263 0.029031958 0.117146544 -0.0965817
000020 e5 b3 0b be b7 79 46 3b bf 95 9d 3d 44 d9 95 bc
       -0.13642843 0.003028495 0.076945774 -0.018292077
000030 05 ba de bd 47 e9 9c 3d 64 b7 cc bd 50 00 40 3d
       -0.10875324 0.076616816 -0.099959165 0.046875298
000040 b2 09 ac 3d 76 e8 d6 bd f5 ae 10 be 8d 31 8c 3d
       0.08400287 -0.10493557 -0.14129241 0.068453886
000050 67 46 31 3d d2 d0 19 bc 19 36 8a 3d 52 b8 d9 3d
       0.04328003 -0.009388166 0.067485996 0.106308594
000060 62 a6 b2 3d 95 be 93 bd 8a e2 a7 bd 9c 05 02 bd
       0.08723141 -0.07214085 -0.08197506 -0.03174363
000070 15 12 97 3c ab a9 a6 bd 96 74 55 3c 00 c4 58 bd
       0.01844124 -0.0813783 0.013028285 -0.052921295
000080 5e 65 01 3d 69 89 9d 3c c4 0f 4d bd 82 d7 73 3d
       0.031590812 0.019230561 -0.050063863 0.059531696
000090 fd b4 d8 3b f7 04 ef 3c 1d fb 82 3c 83 9d 53 3c
       0.0066133724 0.029177172 0.01598888 0.012915972
0000a0 c2 d9 a2 3d 5a 99 e8 bd 0d a7 c0 3c c6 4f e7 3a
       0.0795169 -0.113573745 0.023517156 0.0017647676
0000b0 70 0a 02 3e 35 5d 8c 3d e2 4a ab bd dd 8e 08 3c
       0.12699294 0.06853715 -0.08363892 0.0083348425
0000c0 69 da 08 3e e7 b1 8a 3d 30 6f 05 3d 9b 49 56 3b
       0.13364567 0.067722134 0.03257674 0.003269768
0000d0 80 b9 99 bc 58 bc 45 3d 6e 9b d5 bd d9 0b d5 3d
       -0.018765211 0.04827532 -0.104300365 0.104026504
0000e0 74 06 40 3c 13 d3 e4 3d bf 7e fa bc 1d fb d3 bb
       0.011720289 0.11173072 -0.030578015 -0.006469144
0000f0 1f b9 d8 bc 20 ae 9d 3d 1b ba bd bd d9 67 91 3d
       -0.02645546 0.07699227 -0.092640124 0.070998855
000100 3d b3 30 bd 07 05 48 bd 20 85 95 bc cc 67 e1 3b
       -0.043139685 -0.04883292 -0.018251956 0.0068788286
000110 82 fe d2 bc ad 8f 69 3d 7e 6d 08 bd 25 99 75 bd
       -0.025756124 0.057021786 -0.033307545 -0.059960503
000120 b9 89 e7 3c b1 1e 8e bd cc d4 10 3d 1f bf 1e 3d
       0.028263913 -0.06939448 0.03535919 0.038756486
000130 bc bc c6 bd 8e 5d ca bc f1 71 8d bd ba 43 f5 3b
       -0.09703967 -0.024702813 -0.06906498 0.0074848803
000140 1b 59 8d bd 3f f5 e5 3c ec e9 92 3d b7 ed ed bc
       -0.06901761 0.028071044 0.07173523 -0.029044015
000150 b1 c8 df 3d 2e 29 f0 3d f7 e5 cb 3d 6b a9 20 bd
       0.10926951 0.117266044 0.09955972 -0.03922407
000160 6f 58 18 3d 15 be 19 3d 24 95 8d bc 6e ef a8 3b
       0.03719371 0.037534792 -0.01728303 0.0051554954
000170 8c 06 09 bd 15 4b 5e bc c5 18 0d 3d 30 a2 fe bd
       -0.03345351 -0.013567706 0.03444745 -0.124332786
000180 19 de 3e 3d 2b 24 22 bd 51 6e c1 bd 0e db 96 bd
       0.046598528 -0.039585274 -0.09444869 -0.07366
000190 57 c2 00 3c 49 7b a1 bd 17 4d af bc 0d ad bb bd
       0.007858834 -0.07884843 -0.021399064 -0.09163866
0001a0 3b 12 ae bb b8 64 21 3d b3 b2 94 3d 61 93 e5 3d
       -0.005312232 0.039402694 0.07260647 0.11209751
0001b0 73 c8 65 bd bd 28 21 bd 5d db 02 3d b5 4f 8f bd
       -0.056099366 -0.03934549 0.031947482 -0.06997625
0001c0 13 e9 8a 3d 6a f2 89 bd bb fe 90 bd 31 20 34 bd
       0.06782737 -0.0673569 -0.07079836 -0.043976013
0001d0 8c 61 a4 3d d8 b5 ee bd 66 c2 2c bd bd 3c d4 3d
       0.08026418 -0.11655778 -0.04217758 0.103631474
0001e0 4a b7 04 be 32 ae 27 3e 77 13 28 3d a1 79 ca bd
       -0.12960544 0.16375044 0.041034188 -0.0988648
0001f0 f2 12 f2 3d bc f9 99 bd fb 58 00 3d 3d 6b e8 3d
       0.1182002 -0.07518336 0.03133486 0.11348579
000200 90 31 8b bd 3d 92 e3 3c eb 20 0d bc 3a 93 9f bd
       -0.06796563 0.027779693 -0.008613805 -0.07791753
000210 9b 90 34 bc 0d 46 e3 bd ab 40 4a be 3a cc 0b bc
       -0.011020805 -0.110973455 -0.19751231 -0.008532578
000220 09 cc a4 bd 71 7f 1e 3d 68 d0 a1 3d 0d 1f 06 bd
       -0.08046729 0.038695756 0.079010785 -0.032744456
000230 51 09 76 3d a0 24 5b 3d 0e 54 eb 3d 88 de 2d bd
       0.06006748 0.053501725 0.114906415 -0.04244855
000240 52 96 4d 3d b2 57 86 3c 6a 80 3b 3a a2 bb 47 bb
       0.050192185 0.016399238 0.0007152619 -0.0030476828
000250 08 dd 13 3b c4 db 25 3e 31 29 8a 3c b7 77 bc bd
       0.0022562165 0.16197115 0.016865345 -0.09202521
000260 40 38 38 bb 7e 7a 8e 3c 8c 83 87 3c 65 4d 89 bd
       -0.00281097 0.017392393 0.016542219 -0.06704215
000270 2b 1f 83 3c 24 b5 a0 3d 78 93 a4 bd a1 d2 13 be
       0.016006073 0.0784705 -0.0803594 -0.14435817
000280 52 b7 d4 3b 34 6c 2c 3d 2a ec f9 3d 32 9d 0a 3c
       0.00649158 0.042095378 0.12203248 0.00846033
000290 71 00 04 3d bb 38 04 3d 34 a3 fd bc 86 ad 84 bd
       0.032226983 0.032280665 -0.03096161 -0.064784095
0002a0 20 02 79 3d 86 89 d6 3d 4b 6b c7 bc 6a 2e e7 bc
       0.060793042 0.10475449 -0.024343153 -0.028220374
0002b0 28 93 e0 3c 47 56 f6 bc 40 99 18 3d cb c4 e4 3d
       0.02741392 -0.030070437 0.037255526 0.11170348
0002c0 21 9a 91 bd 4f bf 65 bd 74 24 e0 bd 6f f6 bc bc
       -0.07109476 -0.05609065 -0.10944453 -0.023066727
0002d0 90 64 6c 3d 90 66 97 3d 8d b0 8b bd af 0a 88 3d
       0.05771309 0.07392609 -0.06820784 0.06642663
0002e0 1f 5f 40 3c 8c 4f 2e 3e 56 19 ea bd 3c 43 82 3d
       0.011741429 0.17022532 -0.11430614 0.0636048
0002f0 0a d2 00 3e 25 c1 5d bd 7e 69 74 bd fb 9f 27 3d
       0.12580124 -0.054139275 -0.059670918 0.040924054
000300 c3 53 c3 3c 89 20 bc bd 5b c9 4e bc 9e e7 a5 bd
       0.023843652 -0.09185893 -0.012621249 -0.08100818
000310 e4 43 e4 3d 31 9e 55 3d d8 db 11 bd ad 77 bc 3d
       0.111457616 0.052152816 -0.03561005 0.09202514
000320 b6 b8 84 bd 1a 48 32 be c2 a3 fd bd 86 3e df bd
       -0.06480543 -0.17410317 -0.1238475 -0.10900597
000330 10 a8 00 be a5 0f 9b 3d 27 81 5c bd 08 17 a4 3d
       -0.12564111 0.07571343 -0.053834107 0.08012205
000340 3f b3 04 bd 0d 24 98 3d d7 d3 3b 3c 5f 73 6e bd
       -0.032397505 0.07428751 0.011464081 -0.058215495
000350 f3 39 9f bd 66 c6 75 3e c6 34 01 3d d8 83 fd 3a
       -0.07774725 0.24001464 0.03154447 0.0019341661
000360 6a ab e0 bd 22 21 25 3d 49 c1 8e 3d 00 b7 7e bd
       -0.10970195 0.0403148 0.0697046 -0.06218624
000370 de 04 f5 3d 12 89 f2 bc b5 48 02 3d 7d 60 31 3c
       0.11963819 -0.029606376 0.03180762 0.010826227
000380 0e 1b 19 3e 81 7c 00 3d 15 cb 90 3c a7 2e 26 3d
       0.14951727 0.031368736 0.017674962 0.040571835
000390 38 78 ab bd 16 0b 2a 3d b5 04 97 bb 7a d0 89 bd
       -0.08372539 0.04151448 -0.0046087154 -0.06729217
0003a0 49 66 bd 3d 61 64 84 bd 53 40 83 bd ab 32 15 bd
       0.09248025 -0.06464458 -0.06408753 -0.036425274
0003b0 9b e7 f6 3d 9a 00 90 3d d4 80 f5 3c c5 69 dc 3d
       0.12055894 0.07031365 0.029968657 0.107623614
0003c0 9f 08 8e bd e6 69 00 3e ed 6f aa 3d 47 55 ed 3a
       -0.06935238 0.12540397 0.083221294 0.001810708
0003d0 c7 9e 15 bb c9 e2 3c bd e6 2d 1c 3c bf 9b 87 bd
       -0.0022830234 -0.046114717 0.009532427 -0.06621503
0003e0 83 32 e1 3b 29 98 56 3d 45 8c af bd 88 d1 92 3d
       0.0068724765 0.052391205 -0.08571676 0.07168871
0003f0 da f6 bb bc ff 52 fe bc 7e f3 89 3d 1d 94 d0 bd
       -0.022944856 -0.031045435 0.067358956 -0.101845

lstm.weight_hh_l0 f4 [512, 128]
000000 93 36 92 bc 97 25 0d bc 3c 61 ad bd 90 2c 57 3d
       -0.017848289 -0.008614919 -0.084658116 0.052532732
000010 78 32 7d bd 77 99 b9 3d 37 2f 6b 3d d8 f5 11 be
       -0.06181571 0.09062474 0.057418074 -0.14253938
000020 fd b1 3e 3d 99 05 98 bd 3d 8c 38 bc 16 4b 63 bc
       0.04655646 -0.07422943 -0.011263904 -0.013872882
000030 ce f7 7e 3d 94 0c a5 3d 7c e6 86 3d 0d 4c 82 3d
       0.062248044 0.0805904 0.0658693 0.06362162
000040 21 07 8d 3b 44 a9 8b bc b3 87 1b bd 71 6b 50 bd
       0.0043038283 -0.017048486 -0.03797121 -0.050883714
000050 7c 5a 30 bd ce 7b 6e 3a 76 f9 9d 3d 1b 94 c5 3d
       -0.043055043 0.0009097428 0.077135965 0.096473895
000060 e1 87 3b 3d 71 17 b6 3b 58 ce 89 3d 23 b8 85 bc
       0.04578388 0.0055569937 0.0672881 -0.016323155
000070 8f 42 87 bd 1c 2e 89 3d 43 b1 5c 3d 41 89 7a 3d
       -0.06604492 0.06698248 0.053879987 0.06116605
000080 63 9f 7d bc 2a 79 79 bd a9 f9 f0 bd 56 ec db bd
       -0.015479895 -0.060906567 -0.11766369 -0.10738437
000090 d8 c0 c9 bd ad ae ae bb ab d0 a9 bd 92 49 a2 3c
       -0.09851235 -0.0053308816 -0.082917534 0.019810472
0000a0 92 8c 17 3e 5b 77 19 3c 87 2d 50 bc e9 f8 1f bb
       0.14799717 0.0093668355 -0.012706167 -0.0024409837
0000b0 4a 74 87 bd 30 2d d9 3d b1 bf 81 3d 8b a7 b5 bd
       -0.06613977 0.10604322 0.0633539 -0.08869847
0000c0 65 f4 3d 3d a7 30 75 bd f3 37 53 3c d5 67 7b ba
       0.04637565 -0.05986085 0.012891757 -0.00095903623
0000d0 af 6e 60 3d ad f7 d8 bc a4 c1 24 bd 2e 5c c0 bc
       0.054793056 -0.026485289 -0.040223733 -0.023481455
0000e0 1d 78 bb 3b 71 00 28 3d ef 0c c7 3d b7 84 16 bd
       0.0057211057 0.041016046 0.09719264 -0.03674766
0000f0 1f f7 37 3c c9 c3 3e 3b 94 66 04 bd 25 e8 61 bd
       0.011228352 0.0029108396 -0.03232439 -0.05515303
000100 fc 14 2b bd df 40 f6 3c 7c ad 48 3d 35 80 61 bd
       -0.04176806 0.03006023 0.048993573 -0.05505391
000110 79 5e 07 bd 97 a2 48 bd 92 4b c2 3d d6 9d 40 bd
       -0.03304908 -0.048983183 0.0948707 -0.047025524
000120 0d b2 8b bc a2 e1 8d 3d 1e ac d7 bd 7d 0e ff 3d
       -0.017052675 0.06927802 -0.105308756 0.12453935
000130 a4 d1 80 bb 14 c2 9c bd b5 14 2e bd 24 c7 a8 3d
       -0.003931241 -0.07654205 -0.042500217 0.08241108
000140 17 4e c8 3c 4c d9 77 bd ca c3 5d 3c 0a c6 bf bd
       0.024451299 -0.060509965 0.013535449 -0.09363945
000150 73 2e 05 3d a4 f9 cb 3d b1 c2 3c 3d 30 f4 ea 3b
       0.032515 0.099597245 0.04608411 0.0071702227
000160 2d 5d 01 be 84 7d 7e bd ff 87 19 bd ce b4 58 3c
       -0.126332 -0.06213142 -0.03748321 0.013226701
000170 75 df 85 3c e3 ec 62 bd e5 36 83 3c 6a a2 74 bd
       0.016341904 -0.055401694 0.016017387 -0.059725203
000180 78 9d 0d bc 8b 7f cf bd 6d 12 83 bd c9 e4 a8 bd
       -0.0086435005 -0.10131749 -0.06399999 -0.08246762
000190 f7 ee d8 3d 43 38 b5 bc 9b fd 4d 3c e8 6c b2 bd
       0.10592454 -0.022121554 0.012572671 -0.087121785
0001a0 3a c7 be 3d 0f 18 8c 3d f8 ec 10 ba 21 5f 6b 3d
       0.09315343 0.06840526 -0.0005528475 0.05746377
0001b0 6d 70 aa 3c 91 f4 ff bc 7c 8e dc bc 97 94 45 3d
       0.020805562 -0.031244548 -0.02692341 0.04823741
0001c0 36 85 84 bb 7c 05 66 bd 7e 60 c7 bd e8 d3 3a bd
       -0.0040442003 -0.056157574 -0.09735201 -0.045612246
0001d0 40 d3 c2 bc 4e c1 dc bd a5 f9 8a bc 6d 29 aa 3d
       -0.023782372 -0.107790574 -0.016964743 0.083086826
0001e0 f0 75 22 3e c7 49 88 3b 97 c7 d4 bc 02 d3 76 3d
       0.15865302 0.0041591856 -0.025974078 0.060259826
0001f0 ab 98 ac bd b8 cf bb bb 1f 49 37 bd ea 84 1c ba
       -0.084275566 -0.005731549 -0.044747468 -0.00059707335
000200 04 f8 03 3b b8 d2 6f bc 05 e4 cc bd 0f cb b7 bc
       0.0020136843 -0.014637642 -0.10004429 -0.022435693
000210 31 07 63 be 50 c1 15 bb 6c cd de 3d 68 a4 8b be
       -0.22170712 -0.002285082 0.10879025 -0.2727387
000220 8c fd 1e be 26 77 88 bd 9d 74 02 3e 23 00 89 3d
       -0.15526408 -0.06663351 0.12739797 0.06689479
000230 5b 3e 35 3d d7 b6 ab bd 32 44 e0 3d 88 44 ff bc
       0.04424892 -0.08384483 0.10950507 -0.031160608
000240 e2 98 25 3e dc c2 19 3d c3 3d a4 bd c1 e0 1c 3e
       0.16171601 0.037539348 -0.080195926 0.15320112
000250 27 be a3 3d 25 e3 d7 bb 78 5c 53 bc 37 18 ff 3d
       0.07995253 -0.006588357 -0.012900464 0.124557905
000260 19 50 c8 3c 46 a4 05 be 5b 07 46 3b a7 83 41 be
       0.024452256 -0.13050947 0.0030216787 -0.18897878
000270 b9 c4 f5 bd 93 6b 44 bd 55 e9 5c 3d 4e dc 95 bd
       -0.120004125 -0.047954153 0.05393346 -0.073174104
000280 fe ab a7 bc 3c 6d f9 3d 8c ac 8d 3c 5d 05 4a be
       -0.020467754 0.12179038 0.01729419 -0.19728608
000290 7a a4 28 3d 97 20 a4 3d 2e 33 28 bd 1f 8d 6a 3d
       0.041172482 0.080140285 -0.041064434 0.05726349
0002a0 58 fc 53 3e 4b c8 b7 3c 62 c0 b0 bd 30 96 9c bd
       0.2070173 0.022434374 -0.08630444 -0.076458335
0002b0 13 2e 9d 3c 2c d2 5c 3b 1b 5d e6 3c 9f 9b af bd
       0.019187009 0.0033694608 0.028120568 -0.08574604
0002c0 ed 4e 91 3c a7 ff 32 bd e5 1b bb 3c 66 ed 32 bc
       0.01773783 -0.04370084 0.02284045 -0.010920858
0002d0 68 69 47 3c 17 76 11 bd de c3 b1 bc 54 48 a0 bd
       0.012171127 -0.03551301 -0.021699842 -0.078262955
0002e0 88 1d 44 bd 60 1e a5 bd 5d 38 52 3d 62 ae 33 bd
       -0.047879726 -0.08062434 0.051323283 -0.043867476
0002f0 9c a4 8d 3b 52 1a 2d bd 73 36 a6 3d 36 6c 09 bd
       0.0043226015 -0.04226143 0.08115854 -0.033550464
000300 db c9 07 3c 7c 10 8b bc 70 6e d6 3d 63 85 c6 bd
       0.008287872 -0.016975634 0.10470283 -0.0969341
000310 2e c0 38 be 93 aa 12 3d cb e2 6e bd 5a d0 de bc
       -0.1804206 0.035807204 -0.058321755 -0.02719896
000320 c1 a7 6f 3d 0f 18 ed 3c 10 b8 fa bc 78 ca 60 3d
       0.058509592 0.028942136 -0.030605346 0.05488059
000330 61 71 c4 3d 41 54 ad bd 27 20 a3 bd 5d 96 a7 bc
       0.09591938 -0.08463336 -0.07965117 -0.020457441
000340 36 b2 ac bc 12 4d 88 3d 49 b0 b2 3d 0c 5b 01 3e
       -0.021081071 0.06655325 0.0872503 0.12632388
000350 af 68 80 3d e1 c2 f0 3d c4 e3 d6 bd 09 6c 35 3c
       0.06269967 0.1175592 -0.104926616 0.011073121
000360 db dd 84 3d 95 9b 03 bd 6d c2 37 3d 6f 53 84 3d
       0.06487628 -0.032130796 0.044863153 0.06461226
000370 91 6d d2 bd 89 ea 4a bd b6 07 99 3d 4f 48 82 bd
       -0.102748044 -0.049540076 0.07472174 -0.06361448
000380 52 2f 0a bd 47 8d 88 bc 2d ff 39 bc 33 ef 4e bd
       -0.033736534 -0.016668929 -0.011352343 -0.050521087
000390 71 92 a2 3d 7d 06 74 3d 48 a3 a8 bd 09 31 a6 3d
       0.07938088 0.0595765 -0.082342684 0.081148215
0003a0 48 57 8b 3d 6a 1a 16 3d e2 02 37 be 4d 5c 81 bd
       0.06803757 0.036646284 -0.17872193 -0.06316433
0003b0 26 20 46 bc 2d 5a d6 3d c4 56 ad 3d 68 9c 07 3e
       -0.012092626 0.104664184 0.08463815 0.13243258
0003c0 e1 61 37 3d e4 b8 c7 bd f3 90 84 bd 25 16 21 3d
       0.04477108 -0.09752062 -0.06472959 0.03932776
0003d0 fb 1f 22 bd f6 59 91 3d 94 b7 ba 3d 6d 5f 14 3e
       -0.03958128 0.07097237 0.09117046 0.14489527
0003e0 0a 79 e1 3c d0 b7 d6 3c 47 11 4d bd cb 64 90 3c
       0.027523536 0.026210696 -0.050065305 0.017626187
0003f0 fa d8 b5 ba 2b 02 a8 bd b6 d5 b7 b9 ba 87 a6 3b
       -0.0013873868 -0.082035385 -0.00035063707 0.005082098

lstm.bias_ih_l0 f4 [512]
000000 cb 5c fd bc 7b 43 88 bd 95 e9 90 bd 83 04 80 bb
       -0.030928036 -0.06653496 -0.07075802 -0.003906788
000010 0a 21 8f bb b9 71 27 3d 88 42 1a be fa 0a 48 3d
       -0.0043679522 0.04087994 -0.15064442 0.048838593
000020 27 5a 97 3c 86 e2 9e 3c 35 66 2a bc 85 b4 bb bd
       0.018475605 0.019395124 -0.010400345 -0.09165291
000030 61 19 84 3c 13 da bc 3b 43 71 48 3d 52 ae 16 bc
       0.016125383 0.005763301 0.04893614 -0.009196835
000040 c6 4c 45 bd d0 4f 38 3d fb 8e 53 bd b5 ea e9 bd
       -0.04816892 0.04499799 -0.05165003 -0.1142172
000050 45 d7 a3 3c 97 ae 30 bc ee c7 49 3d f5 21 71 bd
       0.02000011 -0.010783813 0.049262933 -0.058870275
000060 f9 d8 16 3d e6 26 41 3d f5 e5 24 3d 98 62 79 bd
       0.036828015 0.047156237 0.040258367 -0.060885042
000070 0e 66 ac 3d 86 f3 3b bd f2 07 7a bc e2 b3 b5 bd
       0.08417903 -0.04588654 -0.015260683 -0.088722005
000080 52 53 cf bc 36 af 21 3d 27 32 7d bd 3c dd 9c 3c
       -0.025308285 0.039473735 -0.061815407 0.019148462
000090 16 7b 9e bd 97 65 93 3d 29 27 0e bd b7 a4 65 3d
       -0.077383205 0.07197111 -0.034705315 0.056065287
0000a0 d6 02 d6 bd 1f 7c 41 3d b7 63 77 3c bb 5a 5c bd
       -0.1044976 0.04723751 0.015099457 -0.053797465
0000b0 5a 34 62 3d 73 62 64 3d f9 d6 c9 3d 23 1f 87 bd
       0.055225708 0.05575795 0.09855456 -0.06597736
0000c0 7b 98 ae bd 3a 20 69 3d 7b 46 fb bd f4 10 2e 3c
       -0.08525177 0.0569155 -0.122693025 0.010624159
0000d0 cd b6 94 bd 0d 5e 47 3b 96 95 a7 bd ff 0c a2 3d
       -0.07261429 0.003042105 -0.08182828 0.07912635
0000e0 63 48 4c bc d7 9d 70 bd af d3 2f 3d 57 d4 85 3b
       -0.01246843 -0.058744278 0.042926487 0.004084151
0000f0 22 2a 59 bd 38 87 b1 bc d8 71 30 bd fb 07 98 bb
       -0.053018697 -0.021670923 -0.04307732 -0.004639623
000100 dd 1f 64 3d 97 92 92 bd 7c d5 91 3d 04 1e 58 bd
       0.05569445 -0.07156866 0.07120797 -0.052763
000110 11 2a 4d bd 83 48 7e 3b dc 31 f6 3c 87 e7 0c be
       -0.050088946 0.0038800545 0.030053072 -0.13760196
000120 45 28 82 3d 5f d9 88 3d 48 65 15 3d f6 ab be bd
       0.06355337 0.06682085 0.036473542 -0.09310143
000130 e0 97 6e bd 6e c9 88 bd 78 e1 72 bb 03 b9 fd 3b
       -0.058250308 -0.06679045 -0.003706066 0.0077430024
000140 6c 5e 23 bd ef 8c 89 3d 53 a1 80 3d af f2 e8 3c
       -0.03988497 0.06716334 0.0628077 0.028436033
000150 94 76 59 bd 0b e0 5c ba e2 79 68 bd 03 7a 4a bd
       -0.0530916 -0.0008425719 -0.05675686 -0.049432766
000160 44 7c 89 3d 8f 29 c5 bc 9b fe ba bc 17 1f a0 bd
       0.06713155 -0.024067668 -0.022826483 -0.0781843
000170 69 78 1b be b9 60 ee 3d 07 f6 df bd fb d2 0b bd
       -0.15182652 0.11639542 -0.10935598 -0.034136754
000180 0e 1b 97 bd e1 5b 99 3d 87 18 d5 3c c6 cd c7 3c
       -0.07378207 0.07488228 0.026012672 0.024390113
000190 b4 ba b0 bc d5 92 7a bd bd 66 57 3d 75 3f c3 bb
       -0.021573402 -0.061175186 0.052588213 -0.0059584924
0001a0 e9 49 3a 3c f5 f3 a7 bc d2 b8 96 3b f1 61 1b bd
       0.011370161 -0.02050207 0.004599669 -0.0379352
0001b0 cc 65 aa 3d c3 68 8b bd 19 b0 a6 bd eb fa 21 bd
       0.083201975 -0.06807091 -0.08139057 -0.039545935
0001c0 fd 67 f8 3c aa 81 ce bd 3b dd 51 3d e3 12 5d bd
       0.030323023 -0.10083325 0.051236372 -0.05397309
0001d0 5b b9 a0 3c 1a b7 47 39 d7 78 e4 bc f2 52 78 3d
       0.019619634 0.0001904633 -0.027889652 0.060625978
0001e0 b2 ba 69 bd 84 b0 57 bd ea 14 91 3d 18 a2 99 3d
       -0.057062812 -0.052658573 0.07084067 0.0750162
0001f0 61 19 31 bc dd 7c 18 bc 12 98 14 3d 86 d3 18 be
       -0.010809273 -0.0093071135 0.036277838 -0.1492444
000200 02 aa 03 bd 7e 58 f5 3d f7 2a c7 3c 31 bd 53 3d
       -0.032144554 0.11979769 0.02431248 0.0516941
000210 77 05 1f bc 84 09 b3 3d 53 0f 80 3d cb 34 07 bc
       -0.009705893 0.08742049 0.06252923 -0.008252333
000220 84 98 c0 3d a9 55 92 3d 45 65 67 bc bb de f9 3d
       0.0940409 0.07145245 -0.014123266 0.122006856
000230 93 4d 2e bd 74 e5 66 bd 9e 05 16 3d c2 33 e3 3d
       -0.04255445 -0.056371167 0.03662645 0.110938564
000240 15 e3 d6 3d d8 cd 1a 3d cb a3 e3 3d 01 98 da 3d
       0.10492531 0.037793964 0.111152254 0.10673524
000250 1d 36 d4 3d 6e 4b 16 bd e8 34 b5 bd 88 05 ca 3c
       0.10361884 -0.03669303 -0.08847982 0.02466084
000260 c7 ae 1a 3d 65 0b b6 3c 15 a0 9c bc 11 73 a8 bc
       0.037764337 0.02222223 -0.019119302 -0.02056268
000270 01 b3 e3 bb 7b 58 90 3d 2b 1a de 3c 22 64 69 bc
       -0.006948829 0.07048126 0.027112087 -0.014245065
000280 72 7f 4a 3d 44 fc 5c bd a5 e7 10 3d 71 91 ed 3d
       0.049437948 -0.053951517 0.035377163 0.11600006
000290 6f 9a c5 3d 67 16 a7 3d e8 25 f0 3d 73 1d 73 3d
       0.096485965 0.0815857 0.1172598 0.059354257
0002a0 ae 21 b5 3c 28 99 90 bc 8e 58 69 3d 35 cb ec 3d
       0.022110786 -0.017651156 0.056969218 0.11562196
0002b0 7a 0a 5b bb 9f 7c c9 3d e7 a8 95 3d 98 57 4e 3b
       -0.0033422993 0.09838223 0.07307606 0.0031485315
0002c0 61 4e 27 bc 51 70 98 3d 4f e1 47 bd 42 a1 69 bd
       -0.010211558 0.07443298 -0.048798855 -0.057038553
0002d0 fd 16 a3 3c 7f 91 2f 3d f7 3e 29 bd 3a ef 6f bd
       0.019908423 0.042863365 -0.041319814 -0.058577754
0002e0 d6 97 f9 3d 32 be 2b 3d b0 28 dd 3c e7 10 be bd
       0.121871635 0.04192943 0.02699694 -0.092805676
0002f0 47 7e ad bd 33 f6 66 3d 98 86 10 bc ac d2 b0 bd
       -0.08471351 0.056387138 -0.008821152 -0.086339325
000300 a4 dc 3a 3b 2a 7f 04 3c a6 35 22 3c aa 32 81 3c
       0.002851286 0.008086959 0.009900486 0.015771229
000310 a8 45 e0 3d e7 80 8e bd 04 c0 37 bc cb 59 a4 3d
       0.10950786 -0.0695818 -0.011215214 0.08024939
000320 83 60 25 bb 2e d8 a2 3d fd aa 91 bd 03 1a 6b 3d
       -0.0025234527 0.07951389 -0.071126916 0.057397854
000330 32 56 72 bc 22 42 b7 3d 96 35 b6 bc 00 3b 57 bd
       -0.014791058 0.08948161 -0.022242349 -0.0525465
000340 09 4b 4e 3d fb 02 91 3d 73 da 78 3b d7 83 bb bc
       0.050364528 0.070806466 0.0037972003 -0.022890015
000350 d0 74 66 3d 3c 5c 4a bd cc d9 e4 bc a1 80 96 3d
       0.056263745 -0.049404368 -0.027935885 0.07348753
000360 91 94 b3 3d 0a 65 8a bd cd e4 d6 3c 5e fc 05 bd
       0.08768571 -0.06757553 0.026232148 -0.03271138
000370 2d c0 34 3d de 92 c6 bb c4 06 76 bb 10 23 75 bd
       0.044128586 -0.0060599884 -0.0037540654 -0.05984789
000380 81 1b 8a bc 30 66 c7 3d 5d 11 dc bc 0e 95 db 3b
       -0.016858818 0.097362876 -0.026863748 0.0067011183
000390 5b b6 a5 3c a4 c6 88 bd e3 a7 a1 bd cd 43 8e bd
       0.020228555 -0.06678513 -0.0789335 -0.06946526
0003a0 58 44 5e bd b9 96 55 bd 52 c3 9e ba 4b fc 29 bd
       -0.054264396 -0.052145693 -0.0012112653 -0.04150037
0003b0 42 59 14 3d 5f 27 e7 bc 72 68 8d bd 3c 85 9a bd
       0.036217935 -0.028217016 -0.06904687 -0.07544944
0003c0 28 9d 2a 3d ae 37 d2 3d 2f 4d 8f 3d 14 cb bf 3d
       0.041653782 0.10264526 0.069971435 0.09364906
0003d0 1b 79 46 bd a6 88 81 bc e4 fb 1b bd c9 52 8f 3c
       -0.04845534 -0.01581223 -0.03808202 0.01749553
0003e0 e2 d8 44 3d d0 3d 11 bd f6 45 a3 3d aa 9c 84 3c
       0.048058398 -0.03545934 0.07972328 0.016187984
0003f0 ba b5 60 bd e9 b3 e8 3d 38 64 9a bd 35 a8 62 3d
       -0.054860808 0.1136244 -0.075386465 0.055336196

lstm.bias_hh_l0 f4 [512]
000000 93 dc 91 38 00 d8 cb bc 86 a0 14 bd a7 a1 8d bd
       6.955224e-05 -0.02488327 -0.0362859 -0.06915598
000010 43 84 cc 3b ff d0 bd 3d 2b 6f 01 be 3a 7b d0 bc
       0.0062413528 0.092683785 -0.12640063 -0.025449384
000020 c7 d6 ce bd 88 7b 22 bd df 66 ac 3d 5a 72 0f be
       -0.10099559 -0.03966859 0.084180586 -0.14008465
000030 47 73 2b bd 33 32 02 bd e2 3d 42 3a 81 18 b8 bc
       -0.041857984 -0.031786155 0.0007409734 -0.022472622
000040 d0 6e 9d bc d7 a9 3b bc 99 63 d2 3c cd da 27 bd
       -0.019217879 -0.011454067 0.025682257 -0.04098015
000050 0d 13 a8 3d 75 b5 5b bd 0a 99 52 3d 94 c8 e9 3c
       0.08206759 -0.053639848 0.05141548 0.028538026
000060 cc dd f7 3c 0a 68 c2 3b 08 74 d8 3b 6a 8f b6 bd
       0.030257128 0.0059328126 0.006605629 -0.08914073
000070 85 eb 63 3d a1 24 99 bc 1c c8 6d bc af ad fd bb
       0.05564453 -0.018694224 -0.014513042 -0.007741652
000080 93 98 2d 3a 94 0a 5b 3d 1d 94 a9 39 1d 17 f0 bd
       0.00066221616 0.053476885 0.00032344545 -0.117231585
000090 8e 97 89 bd 0d 07 3f 3d de 60 9d bd 7f 36 00 3d
       -0.0671836 0.046637584 -0.076844916 0.03130197
0000a0 d3 8a c2 bc 8f 87 a9 bd c4 92 32 bd da a4 17 bd
       -0.023747837 -0.08277809 -0.043596998 -0.03702245
0000b0 9e 5d 3e 3d 0b 5d 15 3d 3b 02 aa bb 4c c8 b0 bd
       0.046476 0.036465686 -0.005188254 -0.086319536
0000c0 6f 5c 13 3d 0a 62 58 bd 34 53 bf bd 03 4f 8d 3d
       0.035976823 -0.052827872 -0.093420416 0.06899836
0000d0 98 ad a0 3d ad b6 a2 3d a6 3a 36 3d 39 13 66 bb
       0.078456104 0.07944999 0.044489525 -0.0035106672
0000e0 8e f4 aa 3d f8 60 ad bc c9 2a fa 3b 29 ae b4 3d
       0.08347426 -0.021164402 0.007634495 0.08822281
0000f0 78 76 9a bb f0 e0 7f 3d 46 4a 2f 3d d9 7e 12 bd
       -0.0047138296 0.062470376 0.042795442 -0.035765503
000100 58 b5 7c bd fc 9e 91 bd 14 10 aa 3d 6d 67 80 bd
       -0.06169638 -0.07110402 0.08303848 -0.06269727
000110 f9 14 8b 3c 4e 11 98 3d 9f f3 ac bd cb 3d b5 bd
       0.016977774 0.074251756 -0.084449045 -0.08849677
000120 4d b8 85 3d 58 f4 a7 bd 7d a1 71 3d 47 7b 3d 3d
       0.06529293 -0.08200902 0.058991898 0.046260145
000130 35 56 15 bc 47 53 09 bd 72 a2 ce 3d 68 74 c0 bb
       -0.009114792 -0.033526685 0.10089578 -0.0058732517
000140 bd 53 54 bc 61 68 31 3c 2a c7 ac bd 9c e5 26 3b
       -0.012959418 0.0108281085 -0.08436425 0.0025466448
000150 6b ad b5 bd c4 70 1f 3d eb e1 c3 bd ab c8 5b bd
       -0.088709675 0.0389259 -0.09564575 -0.05365817
000160 18 17 3c bd 05 67 16 bd 6b fe dd 3d 0d 25 54 3d
       -0.04592046 -0.03671934 0.10839542 0.051793147
000170 ae 3e 8c be d3 c9 f8 3c 93 dc 63 bc 23 26 e3 3c
       -0.2739157 0.030369675 -0.013907569 0.027728146
000180 2a f5 f5 bc e2 98 55 3c 26 1a 8e bb 54 c7 91 bd
       -0.03002413 0.013036938 -0.004336613 -0.07118097
000190 0f 95 2c 3c dd e6 76 bc 1b 0b 35 3d 61 bd 8d 3d
       0.010533585 -0.0150696905 0.044200044 0.06920887
0001a0 ca e7 06 3b b7 bb 73 3d a9 03 38 3c 5f 8d 5a 3d
       0.0020584934 0.05950519 0.011231341 0.05335748
0001b0 c4 99 99 3d 63 3c bb 3d 5f 84 ab bc 43 1b 7c bd
       0.075000316 0.09142377 -0.020937143 -0.061549436
0001c0 18 0b 69 3c 55 32 b7 bd a1 f4 0a 3d 48 9b e3 bc
       0.014223836 -0.08945147 0.033924703 -0.027784005
0001d0 d2 2d 0c bd 34 fc 8f 3d 5f 80 61 bd 0f 62 6d 3d
       -0.034223385 0.07030526 -0.055054065 0.057954844
0001e0 71 bd cc bc 3c a5 2b bd 00 76 8a 3b bd 81 e5 3c
       -0.024992676 -0.041905627 0.0042254925 0.028015966
0001f0 40 6e 47 bd a0 9a b3 bc a0 25 7a bd e5 cd 1d be
       -0.048689127 -0.021924317 -0.06107104 -0.15410574
000200 b2 64 0d 3d 24 33 df bc 8e 0b c9 3d 41 94 2f 3d
       0.03451986 -0.027246065 0.09816657 0.042865995
000210 28 0c 2e 3c ea de 81 3d 76 2f f6 3c 43 18 82 3d
       0.010623015 0.063413456 0.030051928 0.06352284
000220 c0 89 07 3e 9a e8 fa bc 75 c0 c2 3c 31 4b 9a 3a
       0.13236141 -0.030628491 0.023773411 0.0011771676
000230 85 5f 07 bd dd e0 c5 3c 2e 6a 44 bd 5f 00 c3 3d
       -0.03305008 0.024155075 -0.047952823 0.09521555
000240 27 bc 89 3d 41 1e 8a 3d d8 fc 04 bd d7 5f 27 bd
       0.0672534 0.06744052 -0.032467693 -0.040862884
000250 1a cc 23 bd e4 4e db 3c ce d6 a0 3c 6a 32 1a bc
       -0.03998957 0.026771016 0.019633677 -0.009411434
000260 6d 4a 13 bd 14 62 a6 bd 10 ef 65 3c 28 55 b9 3b
       -0.03595965 -0.08124176 0.014034048 0.0056559034
000270 b7 02 b8 bd f6 5e 8c 3d b3 c4 c5 3d 6f 3f 03 bd
       -0.08984893 0.0685405 0.09656658 -0.032042917
000280 aa e1 f1 3c 3f f6 6f 3c 81 20 b5 3d 68 f9 1d 3e
       0.02952655 0.014646112 0.0884409 0.15427172
000290 68 62 30 bd 71 43 e6 bb 2d 35 7d 3d 54 fe b6 3d
       -0.043062598 -0.0070270826 0.06181829 0.08935228
0002a0 23 b7 5e 3d b5 56 af 3d d1 c2 d6 bc af f5 16 3c
       0.05437387 0.0856146 -0.026215943 0.009213849
0002b0 df 5f c0 3d 94 19 d6 3b 0c d4 9c 3d b5 1a b1 3c
       0.09393286 0.006533811 0.07657632 0.02161918
0002c0 8f 33 14 bd 85 34 f1 3b 20 6b 27 bd f2 9e 89 bc
       -0.036181983 0.007360997 -0.040873647 -0.016799424
0002d0 88 84 50 bd ae 83 17 3c 37 db d4 bc c4 ea 41 bd
       -0.05090764 0.0092477035 -0.025983436 -0.04734303
0002e0 2d 4b b1 3d 0a a1 b3 bc a2 a7 e7 bc dd bb b1 bd
       0.08656917 -0.021927375 -0.028278176 -0.0867841
0002f0 9c 7f 46 3d 51 64 1c 3d 9e 17 cb bc b7 b2 9f 3d
       0.04846154 0.038181607 -0.024791535 0.07797759
000300 2e ad c4 3d 5d a3 2c bd 96 eb 17 3d 97 f6 12 3d
       0.09603344 -0.042147983 0.037089907 0.035879698
000310 c8 67 62 bd 2b b9 f7 3c 76 3b c3 3d f2 07 81 3c
       -0.055274755 0.030239662 0.09532826 0.015750859
000320 cc d7 64 3d b0 f6 05 3e 8a f6 a8 bd bb c4 89 3d
       0.055869862 0.13082385 -0.082501486 0.067269765
000330 1c 23 9d 3d 30 10 c6 3d 38 23 b0 bc 2f 05 70 bc
       0.07672712 0.09671056 -0.021501169 -0.014649673
000340 37 90 a2 bc 3d 32 40 3d 9d 8e 8c bc 4c 3c d9 3d
       -0.019844158 0.04692291 -0.017157847 0.10607204
000350 be ef a0 bd 6a 65 51 3d e2 70 b0 bd 8b 78 b5 bc
       -0.07858227 0.051122107 -0.08615281 -0.022152206
000360 04 59 d7 bc 66 c6 61 3d 22 61 c3 3d e2 a1 96 bc
       -0.026287563 0.055120848 0.09540011 -0.018387739
000370 99 08 0a 3e 2b 84 a3 3d 0d c7 5a 3d 09 d0 59 3c
       0.13479842 0.079841934 0.053412486 0.013294228
000380 d3 78 da bc e3 95 52 bd 0f 54 af bc 44 bf 9d bd
       -0.026668942 -0.051412474 -0.021402387 -0.07702497
000390 4c dd 5f bc 8f d3 d0 3d 3c 91 48 bd 68 31 5e 3d
       -0.013663601 0.101966016 -0.04896663 0.054246336
0003a0 58 70 9a 3c 81 4b 9b bd 84 49 c1 3d 47 4e 1e bc
       0.018852398 -0.075827606 0.0943785 -0.009662217
0003b0 8f 25 56 3a 75 4f c2 3d 68 53 87 3d e5 f3 ba 3d
       0.0008169049 0.094878115 0.06607705 0.091285504
0003c0 5b 57 75 3b a2 3b 35 3d fe a5 dd 3c 03 c4 f8 3c
       0.00374361 0.044246323 0.02705669 0.030366903
0003d0 42 62 27 3d f5 09 b1 bd 1c 47 54 bc ae 2a be 3d
       0.04086519 -0.08644477 -0.012956407 0.09285484
0003e0 ac b3 f0 3d f3 ca 38 bd 6d 21 29 3c e6 4b 9e bd
       0.1175302 -0.045115422 0.010322911 -0.0772932
0003f0 36 79 17 bc aa a8 87 3d 22 18 86 bd ac c4 4c 3d
       -0.0092452075 0.06623967 -0.06547572 0.04999225

fc1.weight f4 [60, 256]
000000 29 15 c5 3d 65 f4 ee 3d 2c d4 2a 3d 67 f3 9d 3d
       0.096231766 0.11667708 0.04170625 0.07712441
000010 65 76 2a 3e c9 79 3e bd 00 bd 0a bd ce 8b 0e 3d
       0.16646726 -0.046502862 -0.03387165 0.034801297
000020 20 0e 06 3d db 29 77 bd 25 b3 5c be 6e 69 40 3e
       0.032728314 -0.06034265 -0.21552713 0.18790218
000030 0e d7 9e 3d 5c 3e 8e be bc 6b 04 be 3b c7 39 3b
       0.07755862 -0.2778195 -0.12931722 0.002834751
000040 fa f5 03 3e d1 51 96 3c c0 14 73 3b 0b 43 36 bd
       0.12886801 0.01834956 0.0037091225 -0.04449753
000050 58 34 99 3c c5 3c 36 3d ab 13 08 bd 20 63 d5 bd
       0.018701717 0.044491548 -0.03322188 -0.10419297
000060 54 48 81 bd 28 4e f9 3d 65 c1 10 3e fc ad 46 bb
       -0.063126236 0.1217311 0.14136274 -0.0030316105
000070 d7 34 71 bd e1 3a 69 3e d7 cc 8b be 34 34 04 3d
       -0.058888283 0.22776367 -0.27304718 0.032276347
000080 14 ef 75 bc d0 a8 54 be be 14 a2 3d 2d c0 f6 3c
       -0.015010614 -0.20767522 0.079141125 0.030120933
000090 c3 fe c1 3d c3 ab e3 bd b2 2a e5 3d 05 86 fc 3d
       0.0947242 -0.11116745 0.11189784 0.1233025
0000a0 03 1f ad 3c b7 a6 99 3d a9 1d af 3d 75 50 1b be
       0.021132952 0.075025015 0.08550579 -0.1516741
0000b0 0e 68 7b bd 01 23 cb bd 6a ab 63 bd b8 e9 f7 bd
       -0.06137853 -0.09918786 -0.055583395 -0.12105125
0000c0 b5 3f 13 3e 4c 7f 99 3d 56 88 03 3d 74 9f dc bc
       0.14379771 0.07494983 0.032112442 -0.026931502
0000d0 ae 40 e4 3c 64 7a 37 bd 57 89 fc 3b da c6 5c bd
       0.027862873 -0.044794455 0.007706802 -0.053900577
0000e0 ff 48 5f bd c1 53 25 3e 17 c2 17 3e 0e c0 56 3d
       -0.054512974 0.16145231 0.14820133 0.05242925
0000f0 bb 2b f1 3d d0 28 82 bd 68 46 26 3d 4e 75 8d bd
       0.11775919 -0.063554406 0.04059449 -0.0690714
000100 86 15 80 bd 3b b5 ca 3d 16 d5 74 bd 94 3a 33 3d
       -0.06254105 0.09897848 -0.059773527 0.043757036
000110 ec 42 ab 3d cf c5 88 bd 81 55 a5 3b 26 d0 32 3e
       0.08362374 -0.06678354 0.0050455933 0.17462215
000120 b8 42 5c bc 9b f6 a3 3d 28 2f 30 3d 04 4f 4d be
       -0.013443641 0.08006021 0.04301372 -0.20049673
000130 c0 c4 6e bc 7c 0f 89 bd af 8d db bd 1f 70 8f bc
       -0.014573276 -0.066924065 -0.107203834 -0.017509518
000140 6f e3 75 3d a5 77 bc bc 9a f7 a0 bd 57 ed 87 bc
       0.06003135 -0.02300627 -0.07859726 -0.016592665
000150 4a 91 81 3d 6c 7e 01 be 4d 27 29 3e 9a 7e 59 3d
       0.0632654 -0.12645882 0.16518898 0.053099252
000160 92 88 8a 3c d6 88 1c be 5b 43 93 3d 3a 33 7d bc
       0.016910825 -0.15286574 0.071905814 -0.015454108
000170 6a 9e 17 3e 0c 40 99 bc 8b 71 7d 3d 55 c2 97 3d
       0.14806524 -0.018707298 0.06187586 0.07410113
000180 fe f9 02 3e 3f 09 97 bc 8a 8a 91 ba 67 73 1e 3e
       0.12790677 -0.018437026 -0.001110391 0.1547371
000190 b9 e7 f3 bd 22 f8 98 bd 62 fa 59 bd 37 e5 36 bd
       -0.11909432 -0.074692026 -0.0532173 -0.04465219
0001a0 1b 91 42 3d 09 69 2a 3e ad 9f 40 3c 35 0d 76 bd
       0.047501665 0.1664163 0.01175682 -0.06007119
0001b0 7f 93 12 be 1a e4 61 be 6d d6 b6 3d 4c 2c 7e 3e
       -0.14314078 -0.2205967 0.08927617 0.24821585
0001c0 9b 78 2f 3d 7f e1 cf bc 37 5b 0e bd 10 be cb bd
       0.042839628 -0.02537608 -0.034754958 -0.09948361
0001d0 b5 fe cd bd a4 58 31 bb f0 9f b3 3d 6f 5e c3 3c
       -0.10058347 -0.002706089 0.0877074 0.02384874
0001e0 fc 5e 4b 3c 17 0c 93 3d 49 c3 56 3c 96 63 d6 3c
       0.012412783 0.0718004 0.013108083 0.026170533
0001f0 6b 9c 07 bd 2d fb 9b bd 22 bf 1e 3e 73 5e 55 3d
       -0.033108156 -0.07616267 0.15502599 0.052092027
000200 0a f0 e8 3d 46 d6 af 3d 1f 71 1a 3d c8 2b 35 3d
       0.11373909 0.08585791 0.037705537 0.044231206
000210 43 8f 4e 3e 26 16 03 bd 2c 5a 98 3b 11 e3 1a 3d
       0.20171838 -0.032003544 0.004649421 0.037814204
000220 67 d5 5e 3d 0a fe 35 bd e0 04 23 be 19 1c 5c 3e
       0.054402735 -0.044431724 -0.15919828 0.21495093
000230 18 cf b7 3c ca b6 18 be ff 62 d9 bd 2e 6f af bd
       0.022437617 -0.14913478 -0.10614585 -0.08566128
000240 f3 6c b3 3d 4e aa e5 bb a6 83 4d bd 5a 02 9d bd
       0.08761015 -0.0070088273 -0.050174378 -0.07666464
000250 15 f6 81 bc 2d cc e2 3d 86 2f ca 3b ef 77 f3 bc
       -0.015864411 0.110741 0.006170216 -0.029720275
000260 ab 0c 15 3d 5f 95 0c 3e 0d 45 89 3d f2 57 9d 3d
       0.036389034 0.13728856 0.067026235 0.0768279
000270 c9 33 a0 3c d3 98 08 3e dd ca 0e be f9 f1 21 3c
       0.019555943 0.13339548 -0.13944574 0.009884351
000280 c7 6f e6 bc 3b 5b 38 be 7f c3 bf 3d ed b3 4f bc
       -0.028129471 -0.18003552 0.0936346 -0.012677175
000290 b2 ec ba 3d 6d e8 4a bc b9 9d dc 3d 49 1f 00 3d
       0.09127177 -0.012384516 0.10772271 0.031279836
0002a0 67 1b 94 3d 82 7a e9 bc a8 49 ba 3d f6 39 9f be
       0.07231789 -0.0285008 0.0909608 -0.31098908
0002b0 e1 81 fd bc 66 0b d5 bd f5 37 f3 bd bb c4 5f bd
       -0.03094572 -0.10402565 -0.11875907 -0.054630976
0002c0 3d d2 48 3e 27 70 2d 3e 33 2b ec bc 25 92 27 bd
       0.1961145 0.16937314 -0.028829193 -0.04091086
0002d0 bd a4 78 bd 95 bd df 3c f2 bf 25 bb c8 5c 9e 3c
       -0.06070398 0.02731208 -0.002529141 0.01933135
0002e0 20 ed d0 3c 87 5f 68 3e 38 cf 92 3d ab 3c a5 3d
       0.025503695 0.22692691 0.0716843 0.08068212
0002f0 08 2f e9 3d ca 66 e9 bc b5 42 93 3c 02 5c a2 bd
       0.113859236 -0.028491396 0.017976144 -0.07927705
000300 69 8c 6c 3d e5 91 b5 3d c9 50 35 bd 2a f9 2b bc
       0.057751093 0.08865718 -0.044266496 -0.010496417
000310 a3 7b cb 3d b5 88 ca ba 2c fc d5 3b 1b 02 07 3e
       0.09935691 -0.0015452119 0.0065303054 0.13184397
000320 72 19 fc bc 5e 72 96 bd da 57 e9 3c b1 97 1a be
       -0.030773852 -0.073460326 0.028484274 -0.15096928
000330 69 7d a1 3d 57 72 b1 bd 33 54 94 bd b5 ec 32 bc
       0.07885248 -0.08664387 -0.07242622 -0.010920693
000340 3d 50 8e 3d ec 40 47 3b 36 1d 02 bd 3f 59 8e 3c
       0.06948898 0.0030403687 -0.03176614 0.01737654
000350 d3 b2 ca 3c d0 52 8d bd 8a f7 f2 3d ca f6 08 3d
       0.024743473 -0.06900561 0.118636206 0.03343848
000360 d1 07 9d bd 3a 35 bc bd 10 98 0f 3e 88 df 3b bc
       -0.076675065 -0.0918984 0.14022851 -0.011466868
000370 1c 13 18 3e 2f 7c fb 3d cd 77 1b 3d 37 9f cf 3b
       0.1485104 0.122795455 0.037956048 0.0063361186
000380 ae 96 1d 3e 3e bf 24 bd f2 ff 7c 3d 6a d4 aa 3d
       0.15389511 -0.040221445 0.061767526 0.08341296
000390 99 03 ff bd 73 fc 39 bd 52 ef 25 be 82 3e 33 3c
       -0.12451858 -0.04540677 -0.16204575 0.010940196
0003a0 4c 99 d2 3c e2 e1 4c 3d df 2b 64 3c b4 a3 48 bd
       0.025707863 0.050020106 0.013926475 -0.048984244
0003b0 33 3f a0 bd 1d 87 59 be fa a9 85 3d 71 b1 76 3e
       -0.07824554 -0.21242948 0.06526561 0.24091126
0003c0 44 74 55 3d 1d 4b 15 3c 32 01 25 3d ec c2 88 bd
       0.052112833 0.009112147 0.040284343 -0.066778034
0003d0 19 a3 21 bd 1b 97 0f 3c b8 0b 97 3d f6 01 7c 3d
       -0.039462183 0.008764054 0.07375282 0.061525308
0003e0 ff 55 4b 3d 48 3a 3c 3d 2c a8 f3 3b ee 00 0d 3d
       0.04964256 0.04595402 0.007435819 0.034424715
0003f0 a5 9d 0e 3d cf 52 c1 bd 36 75 9f 3d c5 a4 29 bd
       0.03481831 -0.094396226 0.07786028 -0.041416902

fc1.bias f4 [60]
000000 10 3b a1 3d 73 2c 5e 3d e9 08 21 3e c4 5d 83 bc
       0.078725934 0.05424161 0.15726055 -0.016035922
000010 f6 6c 01 3e a9 93 99 3c a2 63 9a 3d c3 41 db bd
       0.12639222 0.018747168 0.07538535 -0.107059024
000020 f6 ad 72 bd 58 b0 4d bd dd 48 0a bd 99 7a 09 be
       -0.059247933 -0.050217003 -0.033760894 -0.13425674
000030 ea 27 25 bd 8f a0 c4 bb 21 22 3d bd 22 e2 a9 bd
       -0.04032127 -0.0060005854 -0.046175126 -0.082950845
000040 2f c4 d4 bd 92 42 ea bd 75 52 8d bd c4 bb d1 bc
       -0.103889816 -0.114384785 -0.06900493 -0.025602229
000050 51 13 13 be d4 01 12 bd cd 16 a6 bd f1 65 18 be
       -0.14362837 -0.035646275 -0.08109818 -0.14882638
000060 65 35 26 be a6 48 21 be ee 08 1f be c9 03 1b bc
       -0.16231306 -0.1575037 -0.1553075 -0.009461352
000070 fd 38 d4 bd 4b 79 a4 bd 33 7f e6 bd 4c 25 8d bc
       -0.10362432 -0.08030947 -0.1125473 -0.017229699
000080 80 95 49 bd 84 cc 98 bd f7 4a 10 be 15 22 64 bd
       -0.04921484 -0.07460883 -0.14091097 -0.055696566
000090 9c f8 15 bd a6 5e 01 be 09 d8 09 be f4 08 00 be
       -0.036614046 -0.12633762 -0.13461317 -0.12503415
0000a0 79 40 13 bd d2 0a c5 3b 8e cb ed bd 46 53 bc bd
       -0.035950158 0.006013253 -0.116110906 -0.09195571
0000b0 3b b4 aa bd 6f 64 81 bd 1c 13 6a bd 8e 6d 82 bd
       -0.083351575 -0.06317984 -0.05714713 -0.06368552
0000c0 fe c1 03 3d f2 db b9 bd ad bc a0 bd e5 d6 01 3d
       0.032167427 -0.09075154 -0.07848487 0.03169908
0000d0 e8 45 17 bd 3f b8 95 3c 4e 97 99 3d e7 6a a7 3d
       -0.036931902 0.018276332 0.07499562 0.08174687
0000e0 1b 3c 82 3d 30 be 0a 3e 1e 25 5d 3e 27 93 9e 3e
       0.063591205 0.13549113 0.2159619 0.30971643

fc2.weight f4 [32, 128]
000000 5b eb 24 3d 34 c0 af bd 48 6d 96 3d 0d b8 1f 3e
       0.040263515 -0.08581582 0.073450625 0.15597554
000010 fb f2 89 3b 44 c3 a4 bd 21 a6 49 be 8f 7a 05 3e
       0.0042098737 -0.080450565 -0.1969228 0.13035034
000020 c1 90 ef bc 6a f9 be 3d a8 76 0a 3e 0e ff b0 3c
       -0.029243829 0.09324916 0.13521826 0.021605995
000030 20 f4 ba 3d 9b 48 a0 3d ca 4a 47 bc d3 89 28 be
       0.091285944 0.078263484 -0.012163827 -0.16458826
000040 3f 8a 8d 3d d6 0d 21 bc 75 3e 26 3d 2e b4 79 be
       0.06911134 -0.009829959 0.040586907 -0.2438514
000050 88 fa 02 be f5 88 3a be 94 50 92 3d 03 63 f5 bd
       -0.12790883 -0.18216307 0.07144275 -0.119817756
000060 da 15 86 3d 63 db 61 3d 12 d5 75 bc a2 90 0c bc
       0.065471366 0.055140864 -0.015004413 -0.008579405
000070 fc 9a 99 bb 09 42 b3 3d 4b 56 a0 3d 14 36 80 3d
       -0.004687665 0.087528296 0.07828959 0.062603146
000080 77 cc 0a 3e dc d9 bc 3d e8 22 2e bd cf 6d c0 3d
       0.1355456 0.09221241 -0.042513758 0.09395944
000090 fd 7b 06 be 67 c6 e4 bd d7 89 18 be b8 83 73 3d
       -0.13133235 -0.11170655 -0.14896332 0.05945179
0000a0 1d 20 ae bc 38 d0 ac bd 2a 17 aa bb f4 c5 30 3d
       -0.021255547 -0.08438152 -0.0051907497 0.043157533
0000b0 15 75 3f 3b ff 94 9c bd 1b be 48 be 85 ad 55 3d
       0.0029214073 -0.07645606 -0.1960377 0.052167434
0000c0 76 b5 98 bd 2e d9 9d bd f4 1f 12 be 3d 17 d2 bd
       -0.07456486 -0.07707439 -0.14270002 -0.102583386
0000d0 e6 62 d1 bd 20 92 bd bd a5 70 34 be 08 aa 96 3c
       -0.102239415 -0.09256387 -0.17621095 0.018391624
0000e0 9a 55 0f 3d 4a 18 a8 3d 2f 25 3d 3e 77 20 82 bd
       0.034993745 0.08207758 0.18471216 -0.063538484
0000f0 2d 62 9a bd e1 e7 3d bd 88 ea 55 bc 6a ad 3e 3d
       -0.07538257 -0.046363715 -0.013056405 0.0465521
000100 be 03 ad 3c f1 81 38 bd 22 44 ab 3c 86 4c 70 3d
       0.021119948 -0.045045797 0.020906512 0.05866673
000110 1a 4c f3 bc 28 42 2c bd c4 bf d0 3d c4 17 9f bc
       -0.029699374 -0.04205528 0.101928264 -0.019420512
000120 38 50 ab bd a6 8e a7 3c e5 e9 ab 3d d0 bd ea 3a
       -0.0836491 0.020453762 0.08394221 0.0017909352
000130 b7 7d 0d be 4a bb 5b bc 5d fa 0a bd ec fb f6 bd
       -0.13817488 -0.013411352 -0.03393017 -0.12059769
000140 d0 36 29 3e ee a0 15 be 16 87 37 be 09 79 36 be
       0.16524816 -0.14612171 -0.17922625 -0.17819609
000150 58 dc e9 3d 7a ca b7 bd 09 98 27 3d 55 a5 55 3e
       0.1141898 -0.08974166 0.040916476 0.2086385
000160 d9 32 16 bd 43 02 58 be 2a 5f 26 3d fc 3f 0a be
       -0.036669586 -0.21094613 0.0406181 -0.1350097
000170 9d 2c b0 bd a0 eb 87 bd fd 05 4f be 8f f5 29 be
       -0.08602259 -0.06636739 -0.20217128 -0.1659758
000180 60 a0 d8 bd a3 36 d5 bd ee 7a da 3c f9 ba 41 be
       -0.10577464 -0.10410812 0.026669946 -0.1891898
000190 00 bf a4 3d 72 ad 48 bd 1b d6 bd 3d 5f 8b 04 be
       0.08044243 -0.048993535 0.09269353 -0.12943791
0001a0 4e d7 0d 3e de 2f 4c 3d 1c 6c d7 bc e5 b8 d6 bc
       0.13851663 0.049850337 -0.026296668 -0.026211211
0001b0 9d 0c 24 bd fb d7 9a 3d 1c 68 1b 3e c1 73 a1 bd
       -0.04005109 0.07560726 0.15176433 -0.078834064
0001c0 fd 29 fe bd 2f 7c ef 3d 34 20 dd 3d 4b 55 5f 3d
       -0.124103524 0.11693608 0.10797158 0.0545247
0001d0 19 06 e0 3d 94 1e fc 3d 72 ad e4 3d f9 b9 02 3b
       0.10938663 0.1231052 0.111658946 0.0019947274
0001e0 04 25 52 bd 43 38 13 3d d0 64 c5 3d 44 5c 0e 3e
       -0.051304832 0.035942327 0.09638369 0.13902384
0001f0 90 fe f8 bd a1 c6 c8 3d 85 ce 9b 3d a4 a3 5c bd
       -0.12157929 0.098035105 0.0760775 -0.053866997
000200 b4 22 9c 3d 1f 93 73 bc 42 19 f8 3d 3e 48 cc 3d
       0.076238066 -0.014866619 0.121141925 0.099747166
000210 4f af d5 3d 7b ea 2b 3d 66 03 32 bd a9 c5 b4 3d
       0.10433828 0.041971665 -0.043460272 0.08826763
000220 bc 40 63 3d 1e c8 1c 3c 4e c0 bf 3d bd 77 ad bd
       0.055481657 0.009569196 0.09362851 -0.08470104
000230 e7 79 fe 3d 8b 17 1b 3e 7f e4 3d be a1 fd c1 bd
       0.12425595 0.151457 -0.18544196 -0.09472204
000240 4e 9c bf 3d 5e b5 c1 3d 53 47 ed 3d ce 9e 05 be
       0.09355985 0.09458421 0.1158587 -0.1304886
000250 97 78 d2 bb e5 71 91 bd 5a c5 2a 3e 95 d5 a3 bc
       -0.006423067 -0.07101802 0.16676846 -0.019999305
000260 4c 07 94 3d 1c e9 02 3d 22 8c c1 ba fe fe 8e 3d
       0.07227954 0.03196059 -0.0014766494 0.0698223
000270 eb ad 3f 3e 84 cd e9 3c e8 aa a5 3c 63 4c 0e 3e
       0.18718688 0.02854038 0.020223096 0.13896327
000280 cf f9 57 3d 43 f3 0e 3d ae a2 79 bd ff cb d9 3d
       0.05272847 0.03489996 -0.06094616 0.10634612
000290 71 c2 bb bd c6 63 fd 3c b4 38 b4 bd e2 dc bc 3d
       -0.09167946 0.030931365 -0.08799878 0.092218176
0002a0 ca 67 33 bd d9 88 a5 bc ae 2c f1 3d 28 1b f4 3d
       -0.043800153 -0.020206856 0.117761 0.11919242
0002b0 fb d6 ab bd 24 01 64 bd a9 dc 6b be 85 34 c3 3c
       -0.08390614 -0.05566515 -0.23033394 0.023828754
0002c0 fd 6b e7 bd cd c0 ef ba 3b e0 fc bd bd 68 39 be
       -0.11299894 -0.0018291712 -0.12347456 -0.1810636
0002d0 b8 a9 85 bd 0a 22 60 3d f3 16 3f be 23 26 03 3e
       -0.06526512 0.054719962 -0.18661098 0.12807517
0002e0 9f 3d 83 ba 45 14 cc 3c 55 84 3e 3e 16 37 39 be
       -0.0010012871 0.024912009 0.18605168 -0.1808742
0002f0 46 60 03 be bc 83 99 bc 7c 37 d8 bd 9a 7d 03 bc
       -0.12829694 -0.018739574 -0.10557458 -0.008025551
000300 dc 30 31 3d ee be bf bd 55 c5 34 3e 31 8f f1 3d
       0.043259487 -0.09362589 0.17653401 0.1179489
000310 c7 8b 60 3d 6f e1 e5 3d aa a6 de 3d ba d8 87 bd
       0.054820802 0.11224639 0.108716324 -0.06633134
000320 74 ee 0b be d1 63 6e 3d e8 1a a8 3d 81 2c b3 3d
       -0.13665181 0.05820066 0.08208257 0.08748723
000330 31 59 f2 bd 4e 8e 19 bd 50 71 72 3d af 52 ca bd
       -0.11833418 -0.037489228 0.059190094 -0.09879052
000340 5e 40 fa 3d 36 72 4a bd f9 b3 20 be dd a1 0f be
       0.12219308 -0.049425326 -0.15693654 -0.1402659
000350 58 c4 9e 3d d3 44 2b be 4a 5e 67 3e d1 0a 51 3e
       0.07752293 -0.16725473 0.22594562 0.20414282
000360 c9 76 09 be 9a 12 2a be 11 6c a7 3d 99 34 12 bc
       -0.13424219 -0.16608658 0.08174909 -0.008923673
000370 e7 a6 a4 bd 92 5b 1c bd 17 54 5a be 58 42 f6 bc
       -0.080396466 -0.038173266 -0.2132114 -0.030060932
000380 15 d9 5f bd 40 a3 d3 bd 4b a0 89 3d e3 6b 08 be
       -0.054650385 -0.10333872 0.067200266 -0.13322406
000390 13 81 10 3e 86 20 c5 bd 76 6b 4c 3d ba bb e9 bd
       0.14111738 -0.09625344 0.04990717 -0.11412759
0003a0 f8 77 4a 3e 2e d0 8b 3d 00 33 99 ba cf 13 08 3d
       0.19772327 0.068268165 -0.0011688173 0.033222016
0003b0 b0 0d 58 3d 97 cd 16 3d 69 5e 1d 3e b3 c9 aa bc
       0.05274743 0.03681716 0.15368046 -0.02084813
0003c0 d2 c0 18 3c 82 e1 a6 3d 6f bf 0a 3e da 9e f5 bb
       0.009323316 0.08148481 0.13549589 -0.007495743
0003d0 63 e2 01 3e e2 17 b7 3d cb 94 30 3d f6 6a fd bc
       0.12684016 0.08940102 0.04311065 -0.030934792
0003e0 30 0f 45 3c 22 dc b2 bc 94 ad 90 3d 98 e8 73 3e
       0.012027547 -0.021833483 0.070643574 0.23819196
0003f0 2b 5e c7 bd 9e 88 ed 3d c8 3c 0f 3e 8d 39 f2 bb
       -0.09734758 0.11598323 0.1398803 -0.0073921145

fc2.bias f4 [32]
000000 63 39 ae 3d 01 15 90 bb 50 1d 59 bc 8b dd fe bb
       0.085070394 -0.004397035 -0.013251618 -0.007777875
000010 c5 6b a2 3c f9 c2 7f 3d 57 8e e9 3d a0 81 1a 3b
       0.01982678 0.0624418 0.11404102 0.0023575798
000020 e2 d4 59 3c 05 0e 42 3c a3 17 47 bc c6 09 c6 3c
       0.013295384 0.011844163 -0.0121516315 0.024174582
000030 e6 2f b7 3c 0c c7 29 3d 9b 33 93 3d 22 5e 9f 3d
       0.022361707 0.04144959 0.07187577 0.07781626
000040 7a f5 2a 3d 08 2e 0a 3b 2a af 39 bc 55 e3 9f 3d
       0.04173801 0.0021084566 -0.011333266 0.07807032
000050 38 41 6e 3d 93 f9 a3 3c 56 11 d7 3c 6f ca a0 3d
       0.058167666 0.020016467 0.026253384 0.07851111
000060 99 ea a8 3d e0 08 dc 3d 1b 88 b3 3d 79 0d ad 3d
       0.08247871 0.1074388 0.087661944 0.08449835
000070 24 88 a6 3d 77 d6 ca 3c e2 ab d2 3c 4d a9 f6 bc
       0.081314355 0.024760468 0.025716726 -0.030110026

fc3.weight f4 [2, 32]
000000 16 6d e0 bd 46 79 28 be ac 25 8a bd f3 b7 73 be
       -0.109583065 -0.16452512 -0.067454666 -0.2380064
000010 2b 53 1b be ff bb 32 be 3c ae 89 3b b6 b2 48 3e
       -0.15168445 -0.17454527 0.0042016786 0.19599423
000020 72 c3 63 be 61 2f 66 3e 90 2c 2a be 29 36 8d 3e
       -0.22242525 0.22479011 -0.16618562 0.27580383
000030 4c ab 67 3e 42 fc ea bc 58 28 75 be 10 8e 56 be
       0.22623938 -0.028684739 -0.23941171 -0.2095263
000040 e3 7e 3b 3e a3 e4 7d bd 7d c1 3b be bf 92 55 3e
       0.18310122 -0.061985623 -0.18335529 0.2085676
000050 c2 47 58 be 41 cf e7 bd fa c7 ad bd 67 8a 28 3e
       -0.21121123 -0.113188274 -0.08485408 0.16459046
000060 f2 c9 03 3e 3c 3e 93 3e 20 6a 96 3e b7 0c 16 bd
       0.12870005 0.2875842 0.29377842 -0.03663322
000070 2c 99 60 3e 71 95 8c be 59 00 71 3e 9b 47 4a 3e
       0.2193343 -0.27457765 0.23535289 0.19753878
000080 af ad 1f 3e c8 17 9e 3d 7d 6e 1e 3e f5 ae 90 3d
       0.15593599 0.0771938 0.15471835 0.070646204
000090 15 88 46 3e b0 78 04 3d 85 d2 77 be 41 b8 df bd
       0.19387849 0.03234166 -0.242014 -0.109238155
0000a0 78 1b f6 3c 92 6e 72 be 98 ff fb 3c d1 12 33 be
       0.030042395 -0.23674992 0.030761525 -0.17487647
0000b0 ab 66 15 be 44 7e 6e 3e 2d e7 c2 3c b2 57 5b 3c
       -0.14589946 0.23290354 0.023791874 0.013387607
0000c0 04 8a 23 be f6 92 23 3e bb 98 92 3d 15 51 33 be
       -0.15970618 0.1597403 0.07158037 -0.17511399
0000d0 29 42 e3 3d f1 16 2f 3e d6 95 0d 3e c2 56 81 be
       0.110966034 0.17098595 0.13826689 -0.25261503
0000e0 19 ff 83 be d3 f2 54 bd ff 8e c7 3c 31 04 72 3e
       -0.25780562 -0.051989388 0.024360178 0.23634411
0000f0 af 79 49 be 6d 96 a2 3c a1 7f 09 be 28 10 19 be
       -0.19675325 0.01984712 -0.13427593 -0.1494757

fc3.bias f4 [2]
000000 d1 fb e6 3d 94 56 e6 bd
       0.11278499 -0.11246982
