LSTM_Attn/lstm_attn.pt (torch_old, 960722 bytes, 10 tensors)

lstm.weight_ih_l0 f4 [512, 300]
0.12628768 0.0028902178 -0.09822896 0.08989233 0.037622917 -0.029682728 0.10793342 -0.04607484
-0.044300534 -0.07989738 -0.032440852 0.17595553 0.023474643 0.010658531 -0.048026353 -0.035763714
0.024449948 -0.054899566 -0.020823529 -0.00954686 -0.029194228 0.05529301 0.03420103 0.011166107
-0.049266145 0.019953573 -0.060387265 0.0460002 -0.021935971 -0.0010563697 -0.027506905 -0.10151988
0.06331232 -0.09846807 0.074408464 -0.041427676 0.02949717 0.036956634 0.13686599 -0.085039794
-0.021718262 0.06456227 0.022811966 0.07446281 0.060897585 0.05582636 0.032966863 0.09040103
0.008996158 -0.124341495 0.015681667 -0.07565912 -0.05762495 0.07932743 -0.0036025704 -0.023559405
0.018900348 0.031923216 -0.14935434 0.028377065 0.10551648 -0.017270343 -0.024200039 0.020692063
-0.026981061 0.043512546 0.09139473 -0.021483894 -0.0508511 0.054933697 0.12832987 -0.065825984
-0.053958762 0.018376019 0.10340491 0.08235613 0.035344712 0.13519682 -0.01938674 -0.042718906
-0.07247919 -0.06482645 -0.008991612 0.10257927 0.036783792 -0.088683866 -0.00934688 -0.08736426
-0.027099878 0.064876616 -0.07180607 0.03293577 -0.09209583 -0.014886066 -0.035276134 0.06911582
-0.017419495 0.031698577 0.014875977 -0.07745481 0.09756631 -0.08963968 -0.100552686 0.053783454
0.009830242 -0.0038762242 -0.040246703 0.0022986976 0.026389683 0.024154563 -0.07913521 0.016539628
-0.08433217 -0.07441583 -0.03241594 0.0044340333 0.018544028 -0.08892297 -0.06894872 0.08116186
0.008370816 -0.080609754 0.04264448 -0.059549395 -0.049235873 -0.09197179 0.059960753 -0.028703796
-0.00084741256 0.059293073 0.03581392 0.030817324 0.059023216 -0.0009014813 -0.05980314 0.099019
0.056288633 0.012716067 -0.018637562 -0.0046668034 0.08967392 -0.055763558 0.055314083 -0.049161807
-0.004482858 -0.013950655 0.031537954 0.04703843 0.050850637 0.031200236 -0.11364767 -0.10565924
-0.06130397 0.029491777 -0.07534496 0.081358574 0.039759163 -0.102015644 0.06649746 0.010707575
-0.046047647 0.016827863 -0.1212577 0.047269333 0.018199082 0.019672694 0.018156437 0.033785015
-0.028800158 -0.06740639 -0.03162012 0.10735207 -0.05939576 -0.08628276 0.07977726 -0.0665547
-0.02652352 0.0036936891 -0.03276608 0.12409361 0.04274932 -0.01980762 -0.00064512895 0.09965233
0.094379835 -0.034186516 0.033106353 0.082604825 0.013418246 0.022818366 -0.003045938 -0.03370658
0.077202246 -0.043846298 0.086764775 -0.02620006 -0.040510893 0.009871931 -0.06177724 -0.042342167
-0.09232832 0.043333583 -0.008477579 0.07788194 -0.106422834 0.0066654775 0.058792893 0.034574628
-0.023136467 -0.074716434 -0.055193182 -0.04251165 -0.02106301 0.0049017975 -0.099829234 -0.04149272
0.053341087 0.10622398 0.074285775 0.007799499 0.0008230054 0.01872321 -0.010157014 0.020695928
0.025276532 0.033915598 0.012038509 -0.02702569 0.17719178 -0.049775273 0.0964673 0.048661675
-0.045171194 0.013784866 -0.076864585 0.08608269 -0.09015433 -0.056106817 -0.01221132 -0.11395641
-0.0726195 0.11681728 0.0045056087 -0.115544885 0.036192335 0.10640332 0.03337574 -0.0750961
-0.1066464 -0.044998575 0.03749819 0.09001065 -0.024409326 0.09827662 0.042925876 -0.003050208
00000000: 8f51 013e cf69 3d3b 442c c9bd 7819 b83d
00000010: 7d1a 1a3d 3129 f3bc 320c dd3d f9b8 3cbd
00000020: 7a74 35bd 3da1 a3bd b3e0 04bd b02d 343e
00000030: e54d c03c 1fa1 2e3c 48b7 44bd f97c 12bd
00000040: 424b c83c 5ede 60bd 1b96 aabc 6f6a 1cbc
00000050: bc28 efbc ec7a 623d 6116 0c3d 0cf2 363c
00000060: 4ccb 49bd ad75 a33c a358 77bd b56a 3c3d
00000070: 11b3 b3bc e375 8aba 2956 e1bc a8e9 cfbd
00000080: e4a9 813d a1a9 c9bd 7763 983d 11b0 29bd
00000090: 0da4 f13c d75f 173d 9926 0c3e 5829 aebd
000000a0: 7fea b1bc 3939 843d 29e0 ba3c f57f 983d
000000b0: bf6f 793d 2eaa 643d 4308 073d 2d24 b93d
000000c0: 9f64 133c c1a6 febd d776 803c 2bf3 9abd
000000d0: 2408 6cbd 6b76 a23d 1a19 6cbb a7ff c0bc
000000e0: e7d4 9a3c ebc1 023d 58f0 18be 0577 e83c
000000f0: 0619 d83d 897a 8dbc 293f c6bc 6782 a93c
00000100: 6307 ddbc 363a 323d 292d bb3d fefe afbc
00000110: 3e49 50bd 2802 613d e868 033e c6cf 86bd
00000120: dd03 5dbd 4e89 963c f4c5 d33d 55aa a83d
00000130: 9ec5 103d 0971 0a3e f1d0 9ebc 05fa 2ebd
00000140: f86f 94bd bbc3 84bd 8e51 13bc 1515 d23d
00000150: 9aaa 163d e39f b5bd a823 19bc 08ec b2bd
00000160: 9000 debc 08de 843d 100f 93bd a8e7 063d
00000170: bd9c bcbd b0e4 73bc b57d 10bd 988c 8d3d
00000180: 54b3 8ebc 5ed6 013d 5fba 733c a1a0 9ebd
00000190: d8d0 c73d 0295 b7bd 91ee cdbd 0a4c 5c3d
000001a0: 060f 213c 4008 7ebb bad9 24bd bfa5 163b
000001b0: 2d2f d83c cadf c53c a411 a2bd 1d7e 873c
000001c0: 58b6 acbd 5467 98bd 94c6 04bd 5e4b 913b
000001d0: a5e9 973c 3f1d b6bd fd34 8dbd 3038 a63d
000001e0: bf25 093c ba16 a5bd faab 2e3d 11ea 73bd
000001f0: 8eab 49bd b55b bcbd 6899 753d 3924 ebbc
00000200: e524 5eba 4bdd 723d 9eb1 123d 9d74 fc3c
00000210: 54c2 713d 6351 6cba 23f4 74bd 79ca ca3d
00000220: e98e 663d 0d57 503c cdad 98bc fceb 98bb
00000230: f6a6 b73d 5468 64bd 0591 623d e45d 49bd
00000240: f0e4 92bb 4a91 64bc f12d 013d 5eab 403d
00000250: c248 503d a397 ff3c 1cc0 e8bd df63 d8bd
00000260: df19 7bbd bd98 f13c 754e 9abd 539f a63d
00000270: 81da 223d 94ed d0bd d22f 883d d36e 2f3c
00000280: 759c 3cbd 96da 893c f555 f8bd 7d9d 413d
00000290: 3e16 953c a128 a13c cfbc 943c 2862 0a3d
000002a0: 4fee ebbc 5d0c 8abd 1984 01bd 67db db3d
000002b0: f848 73bd 04b5 b0bd 4362 a33d d54d 88bd
000002c0: da47 d9bc d211 723b ba35 06bd ca24 fe3d
000002d0: e919 2f3d 9743 a2bc df1d 29ba 8516 cc3d
000002e0: 374a c13d 2907 0cbd 879a 073d b82c a93d
000002f0: 34d8 5b3c 95ed ba3c 5c9e 47bb e90f 0abd
00000300: 361c 9e3d 2d98 33bd bbb1 b13d 82a1 d6bc
00000310: c0ee 25bd e1bd 213c 220a 7dbd fb6e 2dbd
00000320: a116 bdbd 8e7e 313d 8be5 0abc 9180 9f3d
00000330: 37f4 d9bd 146a da3b d1d0 703d 209e 0d3d
00000340: b088 bdbc ee04 99bd 3f12 62bd b220 2ebd
00000350: 558c acbc 429f a03b 4573 ccbd 45f4 29bd
00000360: 2f7c 5a3d f58b d93d 2423 983d f192 ff3b
00000370: f5be 573a 6b61 993c 9b69 26bc 828a a93c
00000380: bb10 cf3c 15eb 0a3d 2b3d 453c fb64 ddbc
00000390: c371 353e 28e1 4bbd a690 c53d 7751 473d
000003a0: 6e05 39bd ebd9 613c 2e6b 9dbd 1f4c b03d
000003b0: d5a2 b8bd 43d0 65bd fd11 48bc fa61 e9bd
000003c0: 88b9 94bd e63d ef3d c9a3 933b cca2 ecbd
000003d0: 6a3e 143d fce9 d93d 00b5 083d fccb 99bd
000003e0: 6e69 dabd 6d50 38bd b497 193d 8157 b83d
000003f0: 11f6 c7bc 4145 c93d 0bd3 2f3d 00e6 47bb

lstm.weight_hh_l0 f4 [512, 128]
0.00025529828 -0.037617497 -0.065636575 -0.045808353 -0.114991665 0.021252006 -0.016611187 -0.012413268
0.018220603 0.09912282 -0.04545116 -0.07371745 -0.047018483 0.07141826 -0.05951206 0.099334665
-0.030953832 -0.0816499 0.09384971 -0.08623202 0.026449626 0.08404321 0.03615821 -0.019379033
0.110730976 0.048436087 -0.06447691 0.06028427 0.07334843 0.05820205 -0.05058004 0.019857042
0.041903425 -0.03665712 -0.0007042918 -0.031224975 -0.043661267 0.112777814 -0.0038431806 0.012203591
0.043004192 0.027846484 -0.028750826 -0.051651616 0.08607132 -0.030480033 -0.05762041 0.057523187
-0.17744988 -0.0174689 0.020881595 0.077258 0.10012182 -0.026680013 -0.029969161 -0.035979263
0.0039029995 -0.039968617 -0.12604627 0.08233506 0.117346786 0.040692445 0.01745761 0.0949815
-0.0035623203 0.052659877 -0.07524353 -0.10712906 -0.04654289 -0.022722783 -0.100319184 0.026015496
0.07717719 -0.0110629015 -0.0555274 -0.057782073 -0.036353998 0.0129697835 0.043046955 -0.08789461
-0.037472703 -0.050512373 0.0690459 0.085164934 -0.1034012 -0.0010519609 -0.011346297 0.044368766
-0.0068888515 0.058841914 -0.037756253 -0.043581303 -0.06962508 -0.01654712 0.0020222217 0.012672525
0.07828789 0.031921685 0.08035889 0.016461259 0.03932199 -0.062404104 -0.051600005 -0.018952621
0.14747669 0.038536225 -0.003489179 0.03586673 0.01566871 -0.08086799 0.10318905 -0.063120954
-0.08331049 0.08914186 -0.052564558 -0.053932298 -0.036609568 -0.027866604 0.046867806 -0.06772732
-0.056721278 0.014422408 -0.00045869502 -0.051879965 -0.04845795 0.10105964 0.08102411 0.047920052
0.0018618883 -0.101884045 0.06150483 -0.0192647 -0.015748171 -0.06373842 -0.027597535 -0.08080169
-0.12476468 -0.07900786 0.098121405 0.047107514 -0.08708651 0.0042795776 0.056687098 -0.12854879
0.018786373 0.057165027 -0.0844597 0.0020122007 -0.049828306 -0.040223204 -0.07013533 -0.06416562
-0.026983496 -0.027656168 -0.0018505824 -0.044309434 -0.020609306 -0.095451504 -0.036032517 -0.0951551
-0.1118622 -0.028102618 0.03064218 -0.06791455 -0.06681291 0.027093798 -0.05027566 -0.047646422
0.06329038 0.022580676 -0.06864131 -0.033313435 -0.077262565 -0.0035435008 0.026323749 -0.060304295
-0.01047764 -0.05403512 0.0303787 -0.07072847 0.023489814 -0.025602527 -0.17045859 0.03687153
-0.0064572273 -0.051254984 0.12268839 0.099769 -0.07404543 0.012381451 -0.047911726 -0.02544546
0.07662488 0.05247009 0.02669359 -0.052912377 -0.0893768 -0.10743078 -0.1254522 0.053335946
-0.02417404 -0.04363199 -0.0645637 -0.007285577 -0.01524594 -0.0044267676 -0.003058914 0.00072784384
0.00546766 -0.032787297 0.034981273 -0.09848751 0.04199059 0.017473388 -0.00512616 -0.019997831
0.0847589 0.06814923 -0.00032612446 0.0050429497 -0.08045006 -0.11161933 -0.0541916 -0.093857735
0.019806944 -0.056893814 -0.082378276 -0.053398103 -0.08414862 0.015254026 0.049542192 0.0059651565
0.044726387 0.12665229 -0.012683507 0.11036793 -0.054951344 -0.07243008 -0.07007599 -0.011013121
-0.024324713 0.030778714 0.03548051 -0.026823694 -0.0034032715 0.04415026 -0.052034877 -0.08157117
-0.097839564 0.0024029196 0.028793506 -0.003679183 0.05036628 -0.086517364 0.0021743542 -0.078135505
00000000: 8ed9 8539 ce14 1abd 786c 86bd 8aa1 3bbd
00000010: c080 ebbd b018 ae3c 2f14 88bc 0561 4bbc
00000020: 6043 953c e800 cb3d ff2a 3abd 2df9 96bd
00000030: 7496 40bd bd43 923d ebc2 73bd f96f cb3d
00000040: e492 fdbc 1038 a7bd 4734 c03d 6a9a b0bd
00000050: e3ac d83c d91e ac3d a21a 143d c7c0 9ebc
00000060: ecc6 e23d eb64 463d 780c 84bd a4ec 763d
00000070: b437 963d 4665 6e3d 042d 4fbd 3cab a23c
00000080: eda2 2b3d c725 16bd 39a0 38ba 85cb ffbc
00000090: 28d6 32bd 0ef8 e63d dfdd 7bbb 92f1 473c
000000a0: 2a25 303d 4f1e e43c da86 ebbc a590 53bd
000000b0: 2946 b03d 43b1 f9bc 6103 6cbd 6f9d 6b3d
000000c0: 6cb5 35be f01a 8fbc e10f ab3c 7139 9e3d
000000d0: ab0c cd3d 0b90 dabc e381 f5bc fe5e 13bd
000000e0: 77c9 7f3b 22b6 23bd 4612 01be 499f a83d
000000f0: 8353 f03d 1fad 263d 4303 8f3c a985 c23d
00000100: d175 69bb e2b1 573d 4819 9abd 7b66 dbbd
00000110: c2a3 3ebd 2125 babc 2574 cdbd 731e d53c
00000120: 130f 9e3d 2c41 35bc b370 63bd e5ac 6cbd
00000130: eee7 14bd 377f 543c 0152 303d 1702 b4bd
00000140: fa7c 19bd 10e6 4ebd f067 8d3d f46a ae3d
00000150: 02c4 d3bd f3e1 89ba d2e5 39bc 06bc 353d
00000160: e0bb e1bb 3804 713d 4da6 1abd 4f82 32bd
00000170: 9897 8ebd d38d 87bc 4087 043b 6ca0 4f3c
00000180: 6755 a03d 50c0 023d 3493 a43d c3d9 863c
00000190: 1810 213d 729b 7fbd 875a 53bd 8742 9bbc
000001a0: 2104 173e 29d8 1d3d b6aa 64bb fee8 123d
000001b0: ab5b 803c 1e9e a5bd c854 d33d 8f45 81bd
000001c0: b19e aabd 0290 b63d ef4d 57bd 1de8 5cbd
000001d0: eaf3 15bd 8148 e4bc 75f8 3f3d 9fb4 8abd
000001e0: 9254 68bd f74b 6c3c 017d f0b9 1680 54bd
000001f0: d87b 46bd 5bf8 ce3d f8ef a53d d147 443d
00000200: 9b0a f43a 95a8 d0bd 7dec 7b3d 01d1 9dbc
00000210: 4f02 81bc 4a89 82bd 3a14 e2bc 5b7b a5bd
00000220: a084 ffbd dfce a1bd e0f3 c83d cff3 403d
00000230: 6a5a b2bd b33b 8c3b bb30 683d 4ba2 03be
00000240: e1e5 993c e025 6a3d 35f9 acbd 20df 033b
00000250: c418 4cbd 16c1 24bd 1da3 8fbd 4469 83bd
00000260: 7e0c ddbc 308f e2bc 3e8f f2ba cf7d 35bd
00000270: d9d4 a8bc 147c c3bd d596 13bd ade0 c2bd
00000280: 0218 e5bd 7637 e6bc 4f05 fb3c c916 8bbd
00000290: 35d5 88bd d0f3 dd3c daed 4dbd e528 43bd
000002a0: 639e 813d 1cfb b83c d193 8cbd ab73 08bd
000002b0: d63b 9ebd 143a 68bb e7a4 d73c a301 77bd
000002c0: 68aa 2bbc ee53 5dbd c0dc f83c 17da 90bd
000002d0: b66d c03c 64bc d1bc b28c 2ebe 9a06 173d
000002e0: 2697 d3bb bff0 51bd 0d44 fb3d b153 cc3d
000002f0: 21a5 97bd 92db 4a3c 163f 44bd ff72 d0bc
00000300: 81ed 9c3d e1ea 563d 84ac da3c a6ba 58bd
00000310: 2f0b b7bd ab04 dcbd 8b76 00be cb76 5a3d
00000320: a308 c6bc 75b7 32bd f939 84bd d9bb eebb
00000330: 1bca 79bc 6b0e 91bb 1078 48bb c6cc 3e3a
00000340: 0e2a b33b f94b 06bd 8648 0f3d d2b3 c9bd
00000350: 53fe 2b3d 5a24 8f3c 59f9 a7bb 7ed2 a3bc
00000360: 1396 ad3d d391 8b3d affb aab9 543f a53b
00000370: 00c3 a4bd ad98 e4bd 03f8 5dbd 7c38 c0bd
00000380: 2c42 a23c 7d09 69bd f1b5 a8bd f8b7 5abd
00000390: 1d56 acbd 06ec 793c c1ec 4a3d 5c77 c33b
000003a0: 0433 373d 23b1 013e 7cce 4fbc 9508 e23d
000003b0: a914 61bd 3956 94bd 0084 8fbd 6170 34bc
000003c0: 9f44 c7bc a423 fc3c 0354 113d 5dbd dbbc
000003d0: 6c09 5fbb e7d6 343d 8622 55bd c90e a7bd
000003e0: 1c60 c8bd 4d7a 1d3b 5ce0 eb3c 731e 71bb
000003f0: df4c 4e3d 0430 b1bd 9c7f 0e3b 8205 a0bd

lstm.bias_ih_l0 f4 [512]
-0.06365655 -0.030386485 0.03324658 0.08079614 0.031305782 0.049490396 -0.13813862 0.10196689
-0.042134438 -0.09987027 0.09400648 -0.05648424 -0.07548367 -0.029173484 -0.056152165 -0.06618332
-0.1589147 -0.02238867 0.016017735 -0.029660271 0.06533285 0.07844072 0.06767619 -0.036841534
0.055126395 0.060859427 0.06380275 -0.05149916 -0.16915068 0.060973 -0.00011332863 -0.050041694
0.06411299 -0.0044567003 0.06992546 0.061426073 -0.06607178 0.06565947 -0.010430677 0.022261325
-0.054467276 -0.11806563 -0.069876574 0.053997617 -0.07111209 0.058240246 -0.06946191 -0.03588034
-0.056111123 0.063623674 0.017963387 -0.027784511 0.018180063 0.055771414 0.027764719 0.026232425
0.06246374 0.057645667 -0.058991484 0.033925902 0.036787838 0.066389844 0.074373715 0.0053325975
0.07302623 -0.059333522 -0.011044442 -0.07156216 0.021340435 -0.021437252 0.0029355816 -0.07213654
-0.062286217 -0.07136173 -0.06900744 -0.036273383 -0.09557851 0.13701995 0.06761245 0.06510567
0.078390285 -0.08546552 -0.076865286 -0.011006692 -0.08719884 -0.1299216 -0.0041964655 -0.0956675
0.015341593 0.021812385 0.08586381 0.076152764 -0.04924324 -0.033784404 0.005331665 0.028712684
0.11968936 -0.023072682 0.07095381 -0.09586586 -0.099079825 0.072098985 -0.091351286 0.0051194946
0.0014967297 -0.035768487 0.06617446 -0.084745556 0.03225309 -0.0970473 0.0064857258 -0.038595453
-0.12722366 0.039374847 -0.00071955216 0.06554729 -0.018725082 -0.025197979 -0.043638576 0.018566346
0.04376944 -0.031174967 0.034371316 0.058960263 0.10023701 -0.045597717 0.010616221 -0.033663813
-0.05690724 0.051521298 -0.052883804 0.029768785 0.11032375 -0.022073183 0.0036945795 0.11214489
0.050164886 0.008450306 0.039154608 -0.07438314 -0.07527175 0.058380917 0.023636445 0.0832048
0.038963966 0.026791124 -0.040500734 -0.0043967674 0.07665403 -0.0386221 0.013234156 0.0004919333
0.07718847 -0.048327256 -0.06282597 -0.012923076 -0.065243855 0.04198554 0.102372244 0.0060563977
0.051713973 0.09040252 0.039826795 -0.021385726 0.0035973801 0.11616062 0.15157191 0.06321618
-0.019224245 -0.028032467 0.05071985 0.070723265 0.07489202 0.0049979156 0.04842364 0.071392804
0.015765755 -0.04389076 0.05389287 0.045872264 0.015691161 -0.01724639 0.009606783 0.03104054
-0.01584079 0.036362544 -0.046438884 -0.012417716 -0.007886488 0.02887854 -0.017361835 0.01917981
0.09884985 0.07016956 -0.009247184 0.03437516 0.047556706 0.044800486 0.033344943 -0.056705706
0.010865684 -0.029913554 -0.060768884 0.0031601763 0.018670088 0.049577147 0.07104489 0.10970991
-0.02899345 -0.07137503 -0.021455545 0.089244775 -0.010765193 -0.02196252 0.104156576 0.0007861782
0.015251049 0.03503453 0.09286348 -0.0462064 -0.0017072689 0.045153525 0.08831692 0.030101107
-0.00688883 0.0019399131 0.069273 -0.006684475 0.031769793 0.006495632 -0.019214673 -0.060649805
-0.008859122 0.051220525 0.031284615 0.00056278973 -0.008523008 0.04441832 0.13784204 0.14265475
-0.0143140545 0.05863617 0.06832424 -0.07124167 0.032482777 -0.03246925 0.08243856 0.040652554
-0.07563655 0.07543261 0.09965823 0.04036207 0.06935895 0.054744557 -0.008594841 -0.052235458
00000000: 5e5e 82bd 14ed f8bc 912d 083d 7278 a53d
00000010: 7e3a 003d 71b6 4a3d 3674 0dbe 04d4 d03d
00000020: 2995 2cbd c988 ccbd 7886 c03d 055c 67bd
00000030: 2f97 9abd 3bfd eebc d0ff 65bd 1f8b 87bd
00000040: 89ba 22be 7268 b7bc a037 833c 19fa f2bc
00000050: 3bcd 853d 87a5 a03d d099 8a3d 26e7 16bd
00000060: 37cc 613d bc47 793d 04ab 823d c8f0 52bd
00000070: d635 2dbe d3be 793d d8aa edb8 85f8 4cbd
00000080: ac4d 833d 8309 92bb 1435 8f3d e899 7b3d
00000090: a450 87bd 7978 863d 6ee5 2abc 625d b63c
000000a0: 1419 5fbd 65cc f1bd 731b 8fbd 9b2c 5d3d
000000b0: 37a3 91bd 538d 6e3d 0c42 8ebd 43f7 12bd
000000c0: c7d4 65bd 214d 823d f427 933c 589c e3bc
000000d0: 5bee 943c 9170 643d d672 e33c 62e5 d63c
000000e0: fbd9 7f3d dd1d 6c3d 0ea1 71bd e3f5 0a3d
000000f0: d8ae 163d 66f7 873d 3f51 983d 12bd ae3b
00000100: c78e 953d b507 73bd bff3 34bc 2f8f 92bd
00000110: 23d2 ae3c 2d9d afbc e362 403b 53bc 93bd
00000120: d51f 7fbd 1926 92bd c653 8dbd 6693 14bd
00000130: aabe c3bd f54e 0c3e 6578 8a3d 1f56 853d
00000140: 168b a03d 8c08 afbd 8c6b 9dbd 6a55 34bc
00000150: 4e95 b2bd 2b0a 05be 8182 89bb 52ed c3bd
00000160: 4e5b 7b3c e3af b23c 5dd9 af3d fbf5 9b3d
00000170: 48b3 49bd 8461 0abd 3fb5 ae3b dd36 eb3c
00000180: b21f f53d ec02 bdbc 3b50 913d 5255 c4bd
00000190: 5dea cabd a2a8 933d 6216 bbbd 6fc1 a73b
000001a0: ea2d c43a fa81 12bd 7a86 873d 148f adbd
000001b0: d11b 043d bcc0 c6bd 3686 d43b 4416 1ebd
000001c0: eb46 02be 8547 213d 54a0 3cba a83d 863d
000001d0: 5865 99bc fe6b cebc 5dbe 32bd 7318 983c
000001e0: 9647 333d a562 ffbc f0c8 0c3d 5180 713d
000001f0: 1049 cd3d acc4 3abd a9ef 2d3c 11e3 09bd
00000200: 9117 69bd ff07 533d b09c 58bd abdd f33c
00000210: 6bf1 e13d d2d2 b4bc c220 723b 38ac e53d
00000220: b279 4d3d 2773 0a3c 9560 203d 3056 98bd
00000230: 1328 9abd d420 6f3d 38a1 c13c 4767 aa3d
00000240: ae98 1f3d 0f79 db3c 19e4 25bd c212 90bb
00000250: cafc 9c3d 3532 1ebd 13d4 583c 16f5 003a
00000260: fd14 9e3d cdf2 45bd e7aa 80bd 4fbb 53bc
00000270: 929e 85bd 08f9 2b3d 8aa8 d13d bf74 c63b
00000280: 08d2 533d f524 b93d 6c21 233d 1e31 afbc
00000290: 06c2 6b3b 9ee5 ed3d ab35 1b3e 7c77 813d
000002a0: 2a7c 9dbc 58a4 e5bc 9ebf 4f3d 5cd7 903d
000002b0: fd60 993d 8ec5 a33b de57 463d 6436 923d
000002c0: 2f27 813c ccc6 33bd c5be 5c3d 8ee4 3b3d
000002d0: c08a 803c 4d48 8dbc c565 1d3c bb48 fe3c
000002e0: 8bc4 81bc e4f0 143d b336 3ebd ad73 4bbc
000002f0: 5436 01bc b092 ec3c 683a 8ebc fa1e 9d3c
00000300: ca71 ca3d 0fb5 8f3d 8081 17bc f8cc 0c3d
00000310: d2ca 423d b780 373d b594 083d 3e44 68bd
00000320: fb05 323c 450d f5bc cbe8 78bd f61a 4f3b
00000330: 03f2 983c 6811 4b3d fc7f 913d 97af e03d
00000340: ac83 edbc 122d 92bd 8ac3 afbc f7c5 b63d
00000350: 7e60 30bc beea b3bc 0b50 d53d 8717 4e3a
00000360: 89df 793c 5e80 0f3d 352f be3d ec42 3dbd
00000370: 70c6 dfba e7f2 383d 80df b43d 9996 f63c
00000380: b2bb e1bb af44 fe3a 01df 8d3d 7109 dbbb
00000390: 0b21 023d 50d9 d43b 1768 9dbc ee6b 78bd
000003a0: da25 11bc 9dcc 513d 4c24 003d 2e88 133a
000003b0: 16a4 0bbc fcef 353d 7726 0d3e 1614 123e
000003c0: 7f85 6abc 7b2c 703d 94ed 8b3d 27e7 91bd
000003d0: a90c 053d 7afe 04bd 8cd5 a83d 4b83 263d
000003e0: 56e7 9abd 6a7c 9a3d 9d19 cc3d b352 253d
000003f0: 110c 8e3d d43b 603d 60d1 0cbc d9f4 55bd

lstm.bias_hh_l0 f4 [512]
-0.051905584 0.049850646 -0.0053631687 0.02603385 0.02248952 0.0025777393 -0.11008472 0.06508951
0.031009465 -0.023262559 -0.047486473 -0.07801306 -0.022198008 0.019547902 0.017488046 0.067585096
-0.048099004 0.041481417 0.035113897 -0.05455657 -0.061103247 -0.085029215 -0.064761974 0.0441854
0.061980676 0.07038765 0.004567351 0.027345164 -0.017549114 0.008746576 -0.011914616 0.023926612
0.045965895 -0.04115217 0.03805192 -0.07374031 0.0077802413 0.085842796 0.072759315 -0.06302336
-0.07580726 -0.08429135 -0.06946869 -0.006295298 -0.03264501 -0.03338034 0.023973562 0.013389269
0.079720944 -0.089640506 0.025776891 0.006862411 0.08684811 -0.015141769 0.08113549 0.10536893
0.04418471 0.03868371 -0.050023355 0.096923545 0.05884002 0.06530719 0.032219354 -0.029538503
0.058731593 -0.031597693 0.051325895 -0.042720515 0.030978186 0.0871528 0.010316045 -0.071451254
-0.08618349 -0.02244527 -0.030899147 -0.051552508 0.033665095 0.0074846903 0.045749284 -0.004505415
0.05052344 0.04584794 -0.084551744 -0.01676365 0.031924706 -0.082181685 0.08764194 -0.0324163
-0.06617393 0.04353149 0.08609917 -0.019180903 -0.09442467 -0.08159485 -0.057414576 0.044526424
0.026473356 -0.050069686 -0.035712782 0.06500307 -0.092352934 -0.07932761 0.022556754 0.043074645
-0.026060177 -0.02132826 -0.06287194 0.005620296 0.06101174 -0.019387873 -0.03242193 -0.09302113
-0.016260209 0.0025472934 0.017337503 -0.011358541 0.02163682 0.0012295952 0.06978012 -0.027585449
0.034302857 0.035172265 -0.11787908 0.050955594 0.0763422 -0.080489725 -0.079079464 -0.013993474
0.0751547 -0.0034074232 0.030062292 0.079256214 -0.037876207 -0.04629003 0.09181123 -0.033038333
0.062439166 -0.07887288 -0.044601724 -0.09398213 -0.049929384 0.09574434 -0.013790215 -0.06326723
0.017935513 0.053586446 0.0086285565 0.011537402 0.012016122 -0.04899303 -0.030200839 0.04512221
0.019549087 0.030646496 -0.09143424 0.0746235 -0.033250365 -0.018755296 0.039263528 0.06891079
0.10072371 0.0025525782 -0.07601188 0.07214227 -0.056955267 0.03653886 -0.01262105 -0.06464064
0.07320914 0.02488027 0.07844516 0.070619404 -0.04902515 -0.03509062 -0.012155895 0.07484177
0.053055678 -0.081600256 0.019536024 -0.06796514 0.020758795 -0.059195295 -0.060617093 -0.02410943
-0.0054777134 -0.06569983 -0.071230985 0.060388822 -0.07936796 0.08392024 -0.052294113 0.029250612
-0.013285484 0.04232178 0.110639095 0.057706628 -0.02149904 0.028792022 0.0706241 0.08887653
-0.0013315919 0.010727609 -0.05168828 -0.06561192 0.10919162 0.015566675 -0.045373153 0.08972913
-0.004508022 0.036215443 -0.06965174 -0.07197313 -0.02489552 -0.10157393 0.0025276793 0.03357601
-0.009304548 0.09846331 0.05837837 -0.05718076 0.042263933 -0.043109387 0.08624491 0.08114546
-0.016177943 0.07930835 0.027983293 0.07690006 0.05682954 -0.07238692 -0.07593 0.043268315
0.0046237605 -0.027304797 0.11073247 -0.080705725 0.08569644 -0.019335648 0.12116189 0.12132952
0.01657703 -0.010738978 -0.048952334 -0.08139891 -0.0611889 -0.029852806 -0.032285597 -0.018559322
0.028450767 0.021270407 -0.025930634 0.018896805 -0.047498517 0.03302479 -0.06540593 -0.013237094
00000000: f39a 54bd 3130 4c3d 85bd afbb f144 d53c
00000010: f13b b83c 4aef 283b 1974 e1bd a64d 853d
00000020: 9007 fe3c 1f91 bebc 2d81 42bd 50c5 9fbd
00000030: 99d8 b5bc ec22 a03c 1743 8f3c 0e6a 8a3d
00000040: 7603 45bd 6be8 293d 97d3 0f3d b676 5fbd
00000050: 6647 7abd cc23 aebd eda1 84bd c0fb 343d
00000060: 73df 7d3d 6627 903d b8a9 953b f702 e03c
00000070: 29c3 8fbc cc4d 0f3c 8635 43bc be01 c43c
00000080: bc46 3c3d 2e8f 28bd 54dc 1b3d 2905 97bd
00000090: 65f1 fe3b 59ce af3d d602 953d 6412 81bd
000000a0: d640 9bbd f1a0 acbd 9a45 8ebd ca48 cebb
000000b0: c6b6 05bd d3b9 08bd 3464 c43c aa5e 5b3c
000000c0: bc44 a33d 7195 b7bd 0f2a d33c 13de e03b
000000d0: 6cdd b13d 2f15 78bc 5d2a a63d aacb d73d
000000e0: 07fb 343d cf72 1e3d 4ae5 4cbd da7f c63d
000000f0: 3c02 713d c7bf 853d 71f8 033d bbfa f1bc
00000100: 8a90 703d 956c 01bd 1a3b 523d b5fb 2ebd
00000110: f7c5 fd3c 2b7d b23d a104 293c 0955 92bd
00000120: f880 b0bd 25df b7bc 3520 fdbc b928 53bd
00000130: 69e4 093d 2242 f53b 9a63 3b3d 29a2 93bb
00000140: abf1 4e3d 0dcb 3b3d 7729 adbd ec53 89bc
00000150: 7bc3 023d df4e a8bd 9e7d b33d f4c6 04bd
00000160: 3386 87bd 134e 323d c354 b03d 4521 9dbc
00000170: b961 c1bd 331b a7bd 8c2b 6bbd 5761 363d
00000180: a7de d83c df15 4dbd 9147 12bd 5420 853d
00000190: 8923 bdbd 8476 a2bd f1c8 b83c 0a6f 303d
000001a0: 277c d5bc 9ab8 aebc 01c3 80bd 762a b83b
000001b0: 72e7 793d 51d3 9ebc dccc 04bd dd81 bebd
000001c0: 2134 85bc 7ef0 263b 6107 8e3c 2d19 3abc
000001d0: b33f b13c 5e2a a13a e1e8 8e3d e1fa e1bc
000001e0: 2781 0c3d cb10 103d 966a f1bd d0b6 503d
000001f0: 4d59 9c3d ccd7 a4bd 6af4 a1bd e244 65bc
00000200: b5ea 993d 134f 5fbb 3245 f63c 1551 a23d
00000210: 1524 1bbd 9d9a 3dbd 8707 bc3d 3453 07bd
00000220: 36c0 7f3d 1b88 a1bd 4cb0 36bd b479 c0bd
00000230: c182 4cbd 9c15 c43d 5bf0 61bc 4092 81bd
00000240: 7fed 923c 767d 5b3d ca5e 0d3c 5f07 3d3c
00000250: 45df 443c eaac 48bd c067 f7bc 11d2 383d
00000260: 6825 a03c 5c0e fb3c e041 bbbd 35d4 983d
00000270: 8931 08bd b5a4 99bc cbd2 203d 1a21 8d3d
00000280: 3c48 ce3d 2849 273b 1eac 9bbd 54bf 933d
00000290: ed49 69bd c6a9 153d 85c8 4ebc 5062 84bd
000002a0: acee 953d b5d1 cb3c dba7 a03d e8a0 903d
000002b0: 98ce 48bd 2fbb 0fbd 8529 47bc a446 993d
000002c0: e950 593d 091e a7bd 030a a03c 4f31 8bbd
000002d0: 590e aa3c c476 72bd a149 78bd 2481 c5bc
000002e0: 647e b3bb a28d 86bd 8de1 91bd 455a 773d
000002f0: ab8b a2bd 60de ab3d 5a32 56bd fb9e ef3c
00000300: 5cab 59bc 9a59 2d3d c096 e23d c95d 6c3d
00000310: c11e b0bc 3fdd eb3c 5ea3 903d e604 b63d
00000320: cf88 aeba dac2 2f3c 17b7 53bd 8b5f 86bd
00000330: db9f df3d 5e0b 7f3c 33d9 39bd e8c3 b73d
00000340: 08b8 93bb a556 143d 92a5 8ebd a666 93bd
00000350: b1f1 cbbc fe05 d0bd 6ca7 253b 0087 093d
00000360: 1a72 18bc 22a7 c93d 281e 6f3d 5f36 6abd
00000370: f21c 2d3d 7893 30bd 2ca1 b03d 972f a63d
00000380: 9b87 84bc 6b6c a23d 383d e53c c77d 9d3d
00000390: 17c6 683d 983f 94bd 3081 9bbd 1e3a 313d
000003a0: ea82 973b 4fae dfbc b5c7 e23d 0b49 a5bd
000003b0: 9d81 af3d cb65 9ebc ba23 f83d 9d7b f83d
000003c0: 8dcc 873c 8af2 2fbc 3e82 48bd 79b4 a6bd
000003d0: 36a1 7abd df8d f4bc e73d 04bd b809 98bc
000003e0: 9511 e93c 473f ae3c 7b6c d4bc 79cd 9a3c
000003f0: ce8d 42bd 0145 073d 8bf3 85bd 65e0 58bc

fc1.weight f4 [60, 256]
0.0051233727 -0.1377302 -0.019760603 0.024551786 -0.035409916 -0.09080743 0.096876 0.034686603
0.054439634 -0.07076507 -0.048344567 -0.06333739 0.04221891 0.011944104 0.014845127 0.065149635
-0.045530844 -0.0003265443 0.028691666 0.06936799 0.008601635 0.027631477 0.072530635 -0.009214462
0.054287575 0.08789977 -0.01825244 0.061891254 -0.10193098 -0.0220377 0.0024657564 0.0009992255
0.0042906785 0.05826504 -0.06472149 -0.022984361 0.027815321 0.073401466 0.12669128 0.037059978
-0.027176615 0.028308598 0.041205145 -0.014800052 0.051259007 0.049344428 -0.03852589 -0.03568696
-0.028602432 -0.017185759 0.06708993 0.08209996 -0.022196177 0.018876841 0.08602926 0.15500623
0.057618007 0.07579081 0.01712678 -0.0039580744 0.08865513 0.006754066 0.10123833 0.008047572
-0.20081943 0.013200151 -0.016441723 -0.14837615 0.031234149 0.019085178 0.017171588 0.07036224
0.050669186 0.14155687 -0.002671072 0.085310906 -0.052488934 -0.20307614 -0.051886585 0.020053262
-0.13330726 0.019298129 -0.070760444 -0.016802501 -0.027597073 -0.04848012 0.16130191 0.005084541
0.05062402 -0.025134454 0.06948887 -0.05753124 0.009614541 -0.03593359 0.010217481 0.04067025
-0.021421246 0.04086067 -0.012206555 0.04488736 -0.08966497 0.064201266 0.047111053 0.04400168
-0.017160619 -0.06638058 0.036482934 -0.031068143 -0.03642052 -0.096189424 0.00086382503 0.09632978
0.08963586 -0.031542316 0.0510338 0.062913425 0.053352382 -0.029269962 0.02119654 -0.052621864
0.031255227 0.008501486 0.10082143 0.025695184 -0.03683115 -0.022166966 0.08792099 -0.029505497
0.041479938 -0.15959045 0.012445463 0.033451974 -0.018939262 -0.14228155 0.08146502 0.053022776
0.050720006 -0.075543724 -0.0073074773 0.023145638 0.061633646 0.058314893 -0.06519649 0.04346798
-0.10268266 -0.042648017 0.083977625 0.03612461 0.054177456 0.044766385 0.064522766 0.020598888
0.00474081 0.08839057 0.035804916 0.068076275 -0.015597256 0.02089759 -0.012384534 0.050566457
0.08365459 0.046609174 0.0006096745 0.03146804 0.011082834 0.10941685 0.020079516 -0.043300796
0.025933241 0.023591325 0.06974494 -0.012999767 0.007970797 0.035021715 0.0016236121 0.034425963
0.04171056 -0.07957611 -0.009954158 0.037075695 0.05283804 -0.0045028836 -0.0073720966 -0.0013250462
0.10203683 0.1197943 0.046768583 0.0025095097 0.06459252 0.05907807 0.043135088 -0.07920625
-0.2054143 0.07722602 0.01806009 -0.13711224 -0.075244494 -0.036654513 0.067243 -0.031638257
0.042520143 0.15028475 0.007348929 0.117902026 -0.052851416 -0.05491311 -0.015576841 0.022024544
-0.07199429 -0.018231612 -0.046575543 0.057990886 -0.0032261813 0.069676846 0.14101246 0.01610407
0.05342613 -0.021193137 0.053543024 0.044387013 -0.012290235 0.06554309 0.03369784 0.03322406
-0.056565814 -0.008776427 -0.038258582 0.060519744 0.008611091 0.058396578 0.08458904 -0.027851067
-0.054640688 -0.062059585 0.061001163 -0.021702345 -0.040679026 0.008040259 -0.018433644 0.014014203
0.0018347346 0.0042893034 0.086210236 -0.0483815 0.016592177 -0.03355109 0.02553947 0.0001749504
-0.0027830421 0.0059178313 0.05922186 -0.023360442 0.019401617 -0.07715166 0.031130241 0.01688497
00000000: f7e1 a73b 2509 0dbe fde0 a1bc d420 c93c
00000010: fd09 11bd 3ff9 b9bd ed66 c63d 8a13 0e3d
00000020: 18fc 5e3d 47ed 90bd f404 46bd 09b7 81bd
00000030: bced 2c3d 34b1 433c fa38 733c 2c6d 853d
00000040: 8d7e 3abd 0934 abb9 c90a eb3c ce10 8e3d
00000050: dfed 0c3c 685b e23c f18a 943d 41f8 16bc
00000060: a65c 5e3d cb04 b43d 2486 95bc af81 7d3d
00000070: 31c1 d0bd 6888 b4bc 8798 213b 72f8 823a
00000080: d298 8c3b 53a7 6e3d b38c 84bd b349 bcbc
00000090: f5dc e33c 8253 963d 5cbb 013e 34cc 173d
000000a0: 7ea1 debc 6fe7 e73c bac6 283d eb7b 72bc
000000b0: f7f4 513d 621d 4a3d 53cd 1dbd 7d2c 12bd
000000c0: a64f eabc 26c9 8cbc 7266 893d 0624 a83d
000000d0: c2d4 b5bc 9ba3 9a3c 1c30 b03d f4b9 1e3e
000000e0: dc00 6c3d 3638 9b3d 764d 8c3c bcb2 81bb
000000f0: d290 b53d 3651 dd3b 0b56 cf3d f7d9 033c
00000100: 9ca3 4dbe 7245 583c cbb0 86bc ebef 17be
00000110: c2de ff3c 8558 9c3c 6eab 8c3c 141a 903d
00000120: 7e8a 4f3d 49f4 103e 270d 2fbb 7cb7 ae3d
00000130: a3fe 56bd 31f3 4fbe 0787 54bd bd46 a43c
00000140: b381 08be 1c17 9e3c daea 90bd 66a5 89bc
00000150: 4213 e2bc 1793 46bd 542c 253e 399c a63b
00000160: 225b 4f3d c5e6 cdbc 2e50 8e3d e1a5 6bbd
00000170: 4f86 1d3c 1a2f 13bd 3967 273c d995 263d
00000180: 9c7b afbc 855d 273d 01fe 47bc cfdb 373d
00000190: 45a2 b7bd f47b 833d 85f7 403d 1b3b 343d
000001a0: 6d94 8cbc 8bf2 87bd 216f 153d 9e82 febc
000001b0: af2d 15bd f6fe c4bd 5172 623a 8c48 c53d
000001c0: 0193 b73d 8432 01bd d108 513d c1d8 803d
000001d0: 0788 5a3d 8fc7 efbc 5ea4 ad3c 068a 57bd
000001e0: 7b05 003d d149 0b3c 777b ce3d b57e d23c
000001f0: 43dc 16bd 7f97 b5bc ec0f b43d 83b5 f1bc
00000200: dee6 293d ae6b 23be 0ee8 4b3c f004 093d
00000210: 8326 9bbc 41b2 11be 22d7 a63d 692e 593d
00000220: c8bf 4f3d abb6 9abd 9073 efbb ec9b bd3c
00000230: 9073 7c3d 99db 6e3d bd85 85bd 7b0b 323d
00000240: 494b d2bd b0af 2ebd 76fc ab3d 66f7 133d
00000250: 2ee9 5d3d f55c 373d 8324 843d 00bf a83c
00000260: cc58 9b3b 1d06 b53d 2da8 123d 936b 8b3d
00000270: a28b 7fbc 6c31 ab3c 80e8 4abc c61e 4f3d
00000280: 1953 ab3d 43e9 3e3d 90d2 1f3a a2e4 003d
00000290: c694 353c f115 e03d cc7d a43c 2d5c 31bd
000002a0: f371 d43c 9842 c13c 6fd6 8e3d fafc 54bc
000002b0: f297 023c ee72 0f3d 62cf d43a 3d02 0d3d
000002c0: b1d8 2a3d cdf8 a2bd c416 23bc afdc 173d
000002d0: b36c 583d ed8c 93bb a191 f1bb 2cad adba
000002e0: aff8 d03d b756 f53d 6a90 3f3d 9676 243b
000002f0: 1549 843d d9fb 713d 6bae 303d e336 a2bd
00000300: 2058 52be ad28 9e3d c1f2 933c 2767 0cbe
00000310: c919 9abd 0b23 16bd b3b6 893d 1e97 01bd
00000320: 9a29 2e3d 3fe4 193e 49cf f03b 9e76 f13d
00000330: ba7a 58bd 92ec 60bd 0236 7fbc d16c b43c
00000340: be71 93bd 765a 95bc ffc5 3ebd da87 6d3d
00000350: 576e 53bb bcb2 8e3d 9265 103e afec 833c
00000360: 5cd5 5a3d 3b9d adbc ee4f 5b3d 28cf 353d
00000370: fb5c 49bc 753b 863d bf06 0a3d f415 083d
00000380: 8eb1 67bd 01cb 0fbc 08b5 1cbd 8de3 773d
00000390: 8915 0d3c 4031 6f3d 053d ad3d ec27 e4bc
000003a0: eace 5fbd 3132 7ebd 5bdc 793d 1ec9 b1bc
000003b0: 0d9f 26bd 4abb 033c 2702 97bc d49b 653c
000003c0: 7a7b f03a 498d 8c3b fe8e b03d ae2b 46bd
000003d0: 51ec 873c de6c 09bd 2738 d13c e472 3739
000003e0: b363 36bb 5eea c13b 9f92 723d 665e bfbc
000003f0: 24f0 9e3c b101 9ebd d904 ff3c 5952 8a3c

fc1.bias f4 [60]
0.14364462 0.08116153 0.153881 0.15394694 0.06337207 0.12465889 0.01680638 0.03953284
-0.0330263 -0.037954185 -0.010427723 -0.059892762 -0.023805711 -0.09354312 -0.02520664 -0.084418
-0.019024134 -0.084755234 -0.1543085 -0.07959268 -0.02813328 -0.090776026 -0.0128173325 -0.17275433
-0.16024503 -0.050759684 -0.09462946 -0.14680105 -0.084174454 -0.19999447 -0.057008676 -0.13056861
-0.13875322 -0.100058205 -0.118874796 -0.11304746 -0.17683575 -0.049564835 -0.14271362 -0.09653075
-0.07596414 -0.030664582 -0.040311135 -0.05576239 -0.1017126 -0.07728973 -0.15650946 -0.03402684
-0.13674125 -0.08948761 -0.10818763 -0.025583792 -0.08542101 -0.020295976 -0.075024724 -0.033268716
0.051718578 -0.00649107 0.053621233 0.12540576
00000000: 9317 133e 0438 a63d fb92 1d3e 44a4 1d3e
00000010: 37c9 813d 294d ff3d 89ad 893c 30ed 213d
00000020: 9646 07bd d975 1bbd 0ad9 2abc 1d52 75bd
00000030: 3204 c3bc 8993 bfbd 287e cebc 58e3 acbd
00000040: 80d8 9bbc 2794 adbd 0c03 1ebe 7d01 a3bd
00000050: c477 e6bc c8e8 b9bd caff 51bc 83e6 30be
00000060: 4617 24be 63e9 4fbd 17cd c1bd 0453 16be
00000070: a863 acbd 5acb 4cbe ee81 69bd c7b3 05be
00000080: 5315 0ebe 51eb ccbd a174 f3bd 6d85 e7bd
00000090: 6e14 35be 7f04 4bbd 8523 12be eab1 c5bd
000000a0: 1693 9bbd 4a34 fbbc 4a1d 25bd 1b67 64bd
000000b0: b24e d0bd 144a 9ebd 0444 20be ba5f 0bbd
000000c0: e605 0cbe 4845 b7bd 7a91 ddbd 1a95 d1bc
000000d0: 36f1 aebd bf43 a6bc 90a6 99bd c744 08bd
000000e0: dcd6 533d 0bb3 d4bb f0a1 5b3d 5e6a 003e

fc2.weight f4 [32, 128]
0.033187095 -0.03414076 0.18170875 -0.11656653 0.08960007 -0.03456363 -0.15814707 0.015755935
-0.12674437 -0.18640818 0.12856124 0.16098778 -0.13348603 -0.02315346 -0.123534344 -0.1579601
0.10500514 0.04250775 -0.12733762 -0.06375398 0.12532791 -0.027794702 -0.03922929 -0.10613387
0.034189377 -0.038072214 0.103423804 -0.0034258536 0.04659325 -0.14953826 -0.122816324 0.0076130284
-0.0054190513 0.00691625 0.21312317 -0.115467995 -0.044638794 0.00640923 0.08136995 0.17133443
0.027744843 -0.09309188 -0.062376875 0.048567917 -0.08370329 0.17479114 -0.0029577124 -0.13033105
0.08110561 0.1408772 -0.13204896 -0.012791825 -0.004366979 -0.120215215 -0.15163527 -0.030660044
-0.13811024 0.015392676 0.20781961 -0.07483912 -0.120152965 -0.16804433 -0.11579457 0.03605646
0.04370622 0.12075506 0.25332856 0.04770733 0.11008726 0.17065412 -0.073192075 0.111878894
-0.033009227 0.085525885 -0.18756925 0.09209987 0.17498872 0.015215599 0.0049035097 0.18437788
-0.13633202 0.16191594 -0.008315058 -0.04967651 0.12656763 0.08162227 0.03433965 -0.07659649
-0.05274755 -0.07617097 0.047037486 -0.054277442 -0.15407188 0.026107032 -0.04442992 -0.057292085
0.055303488 0.06483766 -0.16392179 0.08415457 0.08672238 -0.072569825 0.13435777 0.14427091
-0.042707708 0.21133992 0.023445977 0.12582842 -0.16539952 0.13974923 -0.013569532 -0.03982973
0.029298836 -0.07143008 0.016371526 0.109713 -0.033015285 -0.081266195 0.11609451 -0.057018764
0.1303074 0.08215186 0.12107061 0.06979862 0.09693036 -0.18779169 0.15124683 -0.017389936
0.14686349 -0.064822845 -0.06372058 0.020465918 -0.003328917 -0.02387967 0.06856729 -0.077654526
0.09358597 0.18505944 0.04191914 -0.13103095 0.19204187 0.027035922 0.039710946 0.12391926
-0.02329724 -0.10832935 0.1473716 0.07747888 -0.044190016 -0.0038900631 0.09685448 0.08927677
0.12202547 -0.08530088 -0.03674784 -0.016922813 0.021254482 0.1346063 0.1492428 0.106262214
0.07642724 0.13506953 -0.13385394 0.14806053 0.14966042 0.009886559 0.0035739783 -0.12553632
-0.104517765 0.09891173 0.021242177 -0.102362186 0.040769983 -0.12112168 -0.1287095 0.106442265
-0.120365195 -0.11594274 0.20694378 0.07057289 0.13810734 0.062469922 0.15929729 -0.14033017
0.13184889 -0.13155662 -0.017134592 -0.025536483 0.1202368 0.10251441 0.1411582 -0.019249208
0.10822505 -0.009619194 -0.115771204 -0.00018086527 0.004486795 -0.023362452 0.0027606834 0.0034020504
0.117115036 -0.09897344 0.22835681 0.03144882 -0.06893427 -0.017499093 -0.028263915 -0.07646967
0.19761044 -0.06566957 0.12557702 0.17168172 -0.07410509 -0.08095177 -0.013029712 0.26325774
0.091076 0.06397585 -0.03145455 0.04564502 0.10754704 -0.15265338 0.08839133 0.10214154
-0.06531745 -0.14586155 0.12212805 -0.08282665 -0.096918285 0.1451716 -0.1282138 -0.043867685
0.073535 -0.15500566 0.1141591 -0.189427 0.20715874 -0.07417396 0.11162532 0.008773577
0.008942695 0.16974008 0.08697588 -0.19279371 0.09353345 0.033536784 -0.14229406 0.10306817
0.011506042 -0.10369921 -0.14862329 -0.08001254 -0.02321843 0.19873862 -0.02130029 0.09740287
00000000: 31ef 073d 2ed7 0bbd dc11 3a3e 6fba eebd
00000010: 3e80 b73d 9892 0dbd 4ef1 21be 9712 813c
00000020: 47c9 01be c9e1 3ebe 8fa5 033e fbd9 243e
00000030: 90b0 08be 53ac bdbc 93ff fcbd 4bc0 21be
00000040: ef0c d73d 9b1c 2e3d cb64 02be 7291 82bd
00000050: f655 003e b7b1 e3bc e4ae 20bd b75c d9bd
00000060: 290a 0c3d 9cf1 1bbd dccf d33d 4984 60bb
00000070: 90d8 3e3d 8f20 19be 2087 fbbd b676 f93b
00000080: 4c92 b1bb b6a1 e23b f63c 5a3e 7c7a ecbd
00000090: 2bd7 36bd 8504 d23b 4aa5 a63d 4b72 2f3e
000000a0: 2749 e33c f5a6 bebd e57e 7fbd 27ef 463d
000000b0: a16c abbd 73fc 323e 2ed6 41bb 8175 05be
000000c0: b31a a63d 1d42 103e d837 07be ce94 51bc
000000d0: e018 8fbb 6533 f6bd 4746 1bbe c62a fbbc
000000e0: c56c 0dbe 9031 7c3c aace 543e 4145 99bd
000000f0: c212 f6bd d013 2cbe b425 edbd f0af 133d
00000100: 4b05 333d 6e4e f73d 48b4 813e c368 433d
00000110: 6e75 e13d f4bf 2e3e bae5 95bd c320 e53d
00000120: af34 07bd 3228 af3d 2712 40be db9e bc3d
00000130: 3e30 333e d94a 793c 9fad a03b 8ecd 3c3e
00000140: 9f9a 0bbe 4bcd 253e e23b 08bc 9979 4bbd
00000150: f29a 013e 9429 a73d bca7 0c3d 9fde 9cbd
00000160: d10d 58bd 87ff 9bbd 61aa 403d 0652 5ebd
00000170: 05c5 1dbe 6ade d53c 26fc 35bd 1bab 6abd
00000180: e985 623d 9bc9 843d 1ddb 27be 3b59 ac3d
00000190: 819b b13d 7d9f 94bd 1595 093e c1bb 133e
000001a0: 47ee 2ebd 7e69 583e c711 c03c 2ad9 003e
000001b0: 7e5e 29be 6c1a 0f3e be52 5ebc 8024 23bd
000001c0: 1d04 f03c ef49 92bd 941d 863c 36b1 e03d
000001d0: 093b 07bd e46e a6bd f5c2 ed3d 828c 69bd
000001e0: 4e6f 053e 3c3f a83d def3 f73d 94f2 8e3d
000001f0: 6d83 c63d 774c 40be 73e0 1a3e 5775 8ebc
00000200: 6263 163e d7c1 84bd ef7f 82bd 24a8 a73c
00000210: f629 5abb 4c9f c3bc 026d 8c3d 5609 9fbd
00000220: 00aa bf3d 3980 3d3e 67b3 2b3d fa2c 06be
00000230: a0a6 443e 707a dd3c f2a7 223d 62c9 fd3d
00000240: dad9 bebc c7db ddbd 95e8 163e 3fad 9e3d
00000250: 9700 35bd 6ef0 7ebb a45b c63d bdd6 b63d
00000260: 7de8 f93d 3ab2 aebd e784 16bd b6a1 8abc
00000270: e11d ae3c 3cd6 093e 1bd3 183e 01a0 d93d
00000280: e385 9c3d ab4f 0a3e 0211 09be 2e9d 173e
00000290: 9540 193e 3cfb 213c 6839 6a3b 988c 00be
000002a0: 690d d6bd 3c92 ca3d 1304 ae3c 44a3 d1bd
000002b0: 6dfe 263d a50e f8bd 6ccc 03be 67fe d93d
000002c0: 0782 f6bd 6373 edbd 12e9 533e 8588 903d
000002d0: 036c 0d3e 76e0 7f3d d41e 233e b6b2 0fbe
000002e0: 6503 073e c7b6 06be d85d 8cbc e331 d1bc
000002f0: b63e f63d 13f3 d13d c68b 103e 84b0 9dbc
00000300: 18a5 dd3d d399 1dbc 7419 edbd a7a6 3db9
00000310: f705 933b 9d62 bfbc 95ec 343b eff4 5e3b
00000320: 02da ef3d 96b2 cabd 5ed6 693e 7ad0 003d
00000330: 692d 8dbd 425a 8fbc ba89 e7bc 219c 9cbd
00000340: 645a 4a3e c47d 86bd 4397 003e 55cd 2f3e
00000350: 69c4 97bd 0bca a5bd 937a 55bc b8c9 863e
00000360: 0e86 ba3d c505 833d 7cd6 00bd 46f6 3a3d
00000370: 9f41 dc3d 2b51 1cbe 8306 b53d 952f d13d
00000380: 28c5 85bd bb5c 15be 451e fa3d 05a1 a9bd
00000390: 187d c6bd dda7 143e 7a4a 03be 9aae 33bd
000003a0: 8599 963d ceb9 1ebe 3fcc e93d 27f9 41be
000003b0: 6c21 543e 84e8 97bd d19b e43d 0dbf 0f3c
000003c0: 6284 123c 58d0 2d3e 6920 b23d b76b 45be
000003d0: 778e bf3d de5d 093d 89b5 11be 6815 d33d
000003e0: d783 3c3c 4060 d4bd b430 18be 9ddd a3bd
000003f0: 9434 bebc 2382 4b3e f27d aebc 287b c73d

fc2.bias f4 [32]
0.090064414 0.09749541 0.019736608 0.0034774498 -0.01298168 -0.009120559 0.09534124 0.038572025
0.08377276 0.06497482 0.092549704 0.023650756 0.10322491 0.07797254 0.08580291 0.0819665
0.039113656 -0.0052824914 0.055317167 -0.03337263 0.028809523 0.10305071 0.043230247 0.07713344
0.08203341 0.043920863 0.051622886 -0.011946412 -0.025634859 0.046967197 0.00017593356 -0.027213579
00000000: b173 b83d acab c73d abae a13c ede5 633b
00000010: 1db1 54bc 666e 15bc 4542 c33d b3fd 1d3d
00000020: 0e91 ab3d 8511 853d b38a bd3d 3bbf c13c
00000030: 9567 d33d 11b0 9f3d 70b9 af3d 0dde a73d
00000040: a435 203d c018 adbb 4194 623d bdb1 08bd
00000050: f301 ec3c 400c d33d 3312 313d 23f8 9d3d
00000060: 2201 a83d 5de6 333d 8572 533d e2ba 43bc
00000070: 3200 d2bc ad60 403d ce7a 3839 03ef debc

fc3.weight f4 [2, 32]
0.25448722 -0.07618989 -0.24362244 -0.230923 -0.2199611 -0.08514702 -0.18500094 -0.16768745
-0.039542697 -0.2120754 -0.18353392 0.18514259 0.1416181 -0.24541645 -0.18360654 0.20264451
0.18273108 0.15383738 -0.15330975 0.23986477 0.25870165 -0.19397758 -0.22130403 -0.23684128
0.01949482 -0.2105869 0.14172837 0.035991967 0.27293375 0.22677864 -0.11353105 0.23072709
-0.0069118 0.13958907 -0.005796415 0.14081827 0.1064226 0.19041044 0.1282115 0.18380825
0.24403001 0.13747343 0.05106606 -0.10268577 -0.05768056 0.05784842 0.08287328 -0.15436335
-0.106268145 -0.23163863 0.18421838 -0.13663802 0.015643174 0.0021297077 0.15880466 0.19628024
-0.21386695 0.22613257 -0.17250682 -0.21018104 -0.091136396 -0.13112964 0.11996732 -0.18044609
00000000: 264c 823e 7209 9cbd 2978 79be 1477 6cbe
00000010: 7c3d 61be 9061 aebd e370 3dbe 42b6 2bbe
00000020: 86f7 21bd 4b2a 59be 51f0 3bbe 0596 3d3e
00000030: 5604 113e 734e 7bbe 5a03 3cbe 0b82 4f3e
00000040: db1d 3b3e 8c87 1d3e 3bfd 1cbe 1c9f 753e
00000050: 8b74 843e 0fa2 46be 869d 62be 8586 72be
00000060: 9ab3 9f3c 18a4 57be 3e21 113e 506c 133d
00000070: f9bd 8b3e a938 683e f882 e8bd b943 6c3e
00000080: 617c e2bb 70f0 0e3e daef bdbb aa32 103e
00000090: 18f4 d93d f4fa 423e e049 033e 3b38 3c3e
000000a0: 01e3 793e d6c5 0c3e a52a 513d eb4c d2bd
000000b0: 7342 6cbd 77f2 6c3d 77b9 a93d 6d11 1ebe
000000c0: 1da3 d9bd ad32 6dbe bea3 3c3e d6ea 0bbe
000000d0: 1d26 803c 9192 0b3b b09d 223e b0fd 483e
000000e0: f0ff 5abe 4c8f 673e a1a5 30be b339 57be
000000f0: b8a5 babd d946 06be 6db1 f53d dcc6 38be

fc3.bias f4 [2]
0.08458812 0.0173326
00000000: 893c ad3d 19fd 8d3c
