LSTM_Attn/lstm_attn.pt (torch_old, 960722 bytes, 10 tensors)

lstm.weight_ih_l0 f4 [512, 300]
000000 d8 36 10 bc 83 e1 27 be 93 35 f9 bd 48 86 64 3b
       -0.008802138 -0.1639462 -0.121684216 0.0034870077
000010 f5 11 3f be 2d 58 96 ba 99 de 8a be 1e 0e df 3d
       -0.18659194 -0.001147037 -0.27122954 0.108913645
000020 12 e5 12 3d 17 94 d8 bb 1c 78 d3 bd e8 36 b5 3d
       0.03586299 -0.0066094506 -0.103256434 0.08848363
000030 b9 3f c2 3c 98 aa 5c 3d 86 ae 2a 3e 74 86 75 3d
       0.023712026 0.05387363 0.16668138 0.059942678
000040 dd 47 ea 3d fa 1d 08 3d e1 03 de 3c 69 31 fe 3d
       0.11439488 0.033231713 0.027101459 0.12411768
000050 ff 2e 06 bd be ee d1 3c 0b 8a 65 3d c4 37 7a 3c
       -0.032759663 0.025626536 0.05603985 0.015272085
000060 70 70 5c 3d c8 bd 10 3e 8c 0c 05 be ce e6 d0 3c
       0.053818166 0.14134896 -0.12993068 0.025500681
000070 bd e2 25 bd f8 7f 63 bd e9 e3 58 3c 35 fe 08 3e
       -0.040499438 -0.055541962 0.013237932 0.13378222
000080 8d e1 a3 3d 9b 76 a4 3c df 5d d8 3d 02 f2 39 3d
       0.08002005 0.020076087 0.105647795 0.045396812
000090 69 e5 09 3d b0 0d 95 3d 3b c6 a3 3d c9 2e af 3c
       0.03366605 0.07278001 0.07996794 0.021384614
0000a0 e6 a7 35 bd 7d aa 61 bd ac a8 91 3c fd 25 9f 3c
       -0.044349574 -0.05509423 0.017780624 0.019427294
0000b0 f6 ae bb 3d 9b 5f c8 bb 8d ca b2 bd 29 7d 09 38
       0.091642305 -0.0061149127 -0.0873004 3.277991e-05
0000c0 a0 62 06 3c 56 33 a2 bd 73 e1 41 bc ef 5e 38 bd
       0.008202225 -0.07919948 -0.011833536 -0.04501241
0000d0 e2 44 4c bd 70 6b a3 bc a2 b2 f5 ba e2 b4 ef 3c
       -0.04987038 -0.019948691 -0.0018745253 0.029261056
0000e0 01 33 3d 3d fa 72 99 bd 49 54 ca 3d 39 bd 01 be
       0.04619122 -0.07492633 0.09879357 -0.12669839
0000f0 a9 7d 38 bc 62 34 0b bc d2 9c a1 3d 91 fc 82 3d
       -0.0112604285 -0.008496376 0.07891239 0.063958295
000100 51 df 8c bd 73 87 bb 3d af 13 86 3c a5 1a b9 3c
       -0.06878532 0.09156694 0.016366808 0.022595713
000110 f1 ea c8 3d 5c ca 07 3d 7f e4 68 bd 95 9e 84 bd
       0.098104365 0.03315197 -0.056858536 -0.064755596
000120 81 d5 3e 3d fc b4 8c bd f4 8f 95 3c f9 cd 7e 3c
       0.046590332 -0.068704575 0.018257119 0.015552037
000130 4e fd 7d bc 4a ab aa 3d e4 61 71 3d 01 5a 00 3d
       -0.015502287 0.08333452 0.058931246 0.031335834
000140 08 29 c4 bd 94 71 39 be 6f 80 e1 bd 42 c1 20 3d
       -0.095781386 -0.18109733 -0.11010825 0.039246805
000150 6e ea e6 3b 2e 88 5a be 46 53 92 bd 4d 4e f1 3b
       0.007046989 -0.21341011 -0.071447894 0.0073640705
000160 4c ac 69 bc e2 fc 6d bd 92 a8 2d 3d 4b 5b c2 3d
       -0.01426227 -0.058102496 0.04239709 0.09490069
000170 c2 2c ca 3c a5 8f 97 bd d0 6c 41 3d fd b2 ee 3c
       0.024679545 -0.07400445 0.047222912 0.029138083
000180 31 d0 aa 3d e8 2b 92 bd ba ee 46 bd 45 7f 50 bd
       0.083404906 -0.07137281 -0.04856751 -0.050902624
000190 4d 00 25 bd 39 15 e1 bc d0 75 60 3c 7a 5f b6 3c
       -0.04028349 -0.02747594 0.013699964 0.022262324
0001a0 4d 2f 9d bb 49 a8 a4 bd 9a 07 ce 3b c1 00 de bb
       -0.0047968985 -0.0803991 0.0062875273 -0.006774992
0001b0 02 f4 06 bc 09 38 ad bd 91 2a 70 bc a3 71 0f bd
       -0.008236887 -0.084579535 -0.014658586 -0.03502048
0001c0 28 bd 34 bd d2 6a 36 3c 19 58 2f bd 48 44 8a bd
       -0.044125706 0.011133866 -0.042808626 -0.06751305
0001d0 15 1f cf 3d 0b 99 45 3d 15 43 b6 3d cb 0e 2b bc
       0.1011335 0.048241656 0.08899514 -0.010440539
0001e0 27 68 d9 3d 0f b8 b9 3d ed 9d 8b 3d d6 09 ae bd
       0.106155686 0.090683095 0.06817231 -0.0849797
0001f0 2b 69 19 bd 1a 96 4b 3d 57 71 ed 3c 46 38 06 be
       -0.03745381 0.049703695 0.028984709 -0.13107404
000200 d8 2d 8e bd 56 34 d5 bd 20 51 84 bd ec 51 a1 3d
       -0.06942338 -0.10410373 -0.06460786 0.078769535
000210 32 bd 8d bd 4d 51 00 be 9c 50 0e 3e 15 5e 92 bd
       -0.06920852 -0.12531014 0.13897938 -0.07146851
000220 78 10 d7 bd 81 b7 93 3d c0 72 a0 bc 66 2f d1 3d
       -0.10501188 0.07212735 -0.019585967 0.10214119
000230 86 ab 07 be 80 ee c0 3d 33 0f 88 bd cf 75 d4 bd
       -0.13249025 0.0942049 -0.06643524 -0.10374033
000240 61 bd 62 bd 98 51 a0 3c 26 57 23 bd fc a6 18 3d
       -0.055356387 0.019570157 -0.039878033 0.037268624
000250 0f 30 b7 3d 3a 6e 0e 3c 5f 83 b1 bb 1d cb 84 3d
       0.08944713 0.008693272 -0.005417272 0.06484053
000260 db 83 1c bd f5 2d 2a 3d a5 d6 85 bd 1f 26 5a bb
       -0.038211685 0.041547734 -0.06535081 -0.0033286882
000270 5c 64 46 3d e1 f2 24 3d 4c 2c e5 3c a6 ca 6b 3d
       0.048435554 0.04027069 0.027975224 0.057566307
000280 65 23 6f 3a cf 4a 05 3d 0c fb 81 bc fb d5 91 3d
       0.00091224007 0.032542046 -0.015866779 0.07120892
000290 7b e9 a0 bd 1c 7c 61 bd a7 5b 15 3d 3a bf 97 bd
       -0.07857033 -0.05505 0.03646436 -0.074095204
0002a0 78 f9 80 bd 7b 64 91 3c 65 1b a4 3d 05 60 59 3d
       -0.062975824 0.017748108 0.080130376 0.053070087
0002b0 83 59 a0 3d 3a a5 ba bc bc 3d 12 3d 0a b2 a1 3d
       0.07829573 -0.022783864 0.035703406 0.078952864
0002c0 91 99 e5 3d e3 ce 85 bd b7 17 be 3d 0b fa 96 bd
       0.11210931 -0.06533601 0.09281867 -0.07371911
0002d0 1e 79 ef 3b 69 f9 61 3d 8a bd 54 bd cd 83 40 3c
       0.0073081395 0.055169497 -0.05193857 0.011750174
0002e0 83 bc 6f 3c d3 3a 99 bc 81 a5 93 bc ee 2f 84 bd
       0.014632347 -0.018704807 -0.018023254 -0.06454454
0002f0 2b 2a 81 3d 58 91 7e 3d 9b c6 a3 3d 66 06 5c 3c
       0.06306871 0.06215033 0.07996865 0.01342926
000300 eb 5a 9e bd e9 df a6 bc df a0 d2 bd 48 65 d9 bc
       -0.07732185 -0.02037044 -0.1028459 -0.026537552
000310 78 8e 0e 3c 32 4e c3 bd 47 ec fe bd 57 5e 3e 3d
       0.008700959 -0.09536399 -0.1244741 0.04647669
000320 55 4a 7a bd 16 86 af 3d 2c 21 c0 3d 34 23 50 bd
       -0.061106045 0.08570497 0.09381327 -0.050814822
000330 03 01 9b bd 5b e7 06 3d 71 f0 3f bd 27 94 92 bd
       -0.07568552 0.03293548 -0.046860162 -0.07157164
000340 14 21 75 bc d8 9f ae bd 64 cb 3a bd b5 ad 03 bd
       -0.0149615 -0.085265815 -0.045604125 -0.03214808
000350 80 8d 16 3d e9 46 a1 bd a6 f6 f8 3d 7e 77 80 3e
       0.03675604 -0.07874853 0.121564195 0.25091165
000360 46 6e 41 3d cc 8e ad 3c d2 93 ad 3d 57 f4 7b bd
       0.047224306 0.021186255 0.0847546 -0.061512318
000370 5e 3c b3 bd 03 24 ed 3d 9d 8c bf 3d 62 89 2e 3d
       -0.087517485 0.11579134 0.09352992 0.042611487
000380 90 aa 49 3d 22 5d bd bc 83 45 7d bd f6 41 80 bd
       0.049234927 -0.023115698 -0.06183387 -0.06262581
000390 b2 05 0d 3d 02 69 e1 bb 9c 54 d8 3d 3f 1c d6 3a
       0.03442926 -0.006878973 0.10563013 0.0016335322
0003a0 09 aa 9d bd f1 9e 59 3d 4c 52 a2 bd 6d 8e 4d 3d
       -0.07698447 0.053130094 -0.07925853 0.050184656
0003b0 20 d4 f4 bd b8 9c 5c bc e4 00 11 bd 51 92 61 3d
       -0.11954522 -0.013465099 -0.03540124 0.05507118
0003c0 fa c5 99 bd 41 5e 30 bc 94 90 4c bd a6 92 43 be
       -0.07508464 -0.010764659 -0.049942568 -0.1909891
0003d0 9c c0 f7 3d e6 d4 ca bb 70 2b 56 bc 4d 4d 90 b9
       0.12097284 -0.0061899303 -0.01307188 -0.00027523414
0003e0 d1 b9 9a bc 4d c5 a3 3d be 39 d0 bd 2a ff 2c 3d
       -0.018887432 0.079966165 -0.101672634 0.04223553
0003f0 9d bc 03 bd 55 e9 b8 bc a4 fd be 3c 92 3d 21 bc
       -0.032162298 -0.022572199 0.023314305 -0.00984134

lstm.weight_hh_l0 f4 [512, 128]
000000 a8 b2 8d 3d 02 df 9f 3d aa b3 5a bc 02 8c 98 bd
       0.069188416 0.07806207 -0.013348499 -0.07448579
000010 4e 9c 3d 3d 89 7e 9d bd be 45 22 3b 62 4e 20 bd
       0.046291642 -0.0769015 0.0024760808 -0.03913725
000020 71 e7 a5 bd 71 c8 c4 3c 96 7c 0a 3d 29 7a 61 bc
       -0.081007846 0.02402136 0.03381022 -0.013762035
000030 16 cd 6e bc 3b d7 f8 3d 7b c2 fd 3c c9 7b dd 3d
       -0.0145752635 0.12150427 0.030976525 0.10814626
000040 fa 86 1a bd 1c f5 95 bd 54 3d 4f 3d 4a 2a 29 bb
       -0.03772638 -0.073221415 0.050595596 -0.002581256
000050 f8 29 b4 bd 11 e3 b1 3b 2c d3 03 be 6b 21 e6 3c
       -0.087970674 0.0054286798 -0.12873524 0.028092107
000060 28 0a 3e 3a e0 cb 9f bd 3d 7a 50 be c3 f9 6e 3e
       0.0007249438 -0.07802558 -0.2035913 0.23337464
000070 45 b7 50 bd 4e d8 ac bb e3 04 fe bd a4 40 b1 bd
       -0.05095603 -0.005274809 -0.12403276 -0.08654907
000080 70 34 0c be b4 c3 2b 3d ea 94 a3 3c a4 ab b1 bc
       -0.13691878 0.041934684 0.019968469 -0.02168829
000090 78 82 88 3c 02 d6 d2 bd a2 00 f2 bd 26 7f 75 bc
       0.016663775 -0.10294725 -0.11816527 -0.014983928
0000a0 71 00 86 3d e1 5c c1 3d 83 f0 81 bd 38 e3 8a bc
       0.06543053 0.09441543 -0.06344702 -0.01695405
0000b0 f0 ae 43 3c 88 e8 b0 bd 7c d1 b7 3d 75 0a 42 3d
       0.011943564 -0.08638102 0.08975503 0.047373254
0000c0 dd a8 45 bc 80 ba e4 bc ee 53 42 bb d9 73 25 bd
       -0.012064186 -0.027920961 -0.0029652077 -0.040393684
0000d0 4f 17 ad 3d 32 f1 ed bd bf f4 66 be 03 9c 1c bd
       0.084517114 -0.1161827 -0.225543 -0.038234722
0000e0 79 87 62 bd 7b b3 9f 3c 1f 06 ab 3d b6 3c 20 bd
       -0.055304978 0.019494763 0.08350777 -0.0391204
0000f0 f3 cd 15 3e 71 3f 39 3d 2b eb 3f bc af 23 ed 3c
       0.14629345 0.045226518 -0.011713783 0.02894768
000100 11 7f 50 3c 38 29 59 bd 62 2c 33 bd 03 da 3d bd
       0.0127256075 -0.053017825 -0.0437435 -0.04635049
000110 6a dc 44 3d 29 60 fd bb 93 28 21 3d 8c e6 42 3c
       0.048061766 -0.0077324104 0.039345335 0.011895787
000120 69 51 7b bd 02 ac 1a bd 73 94 a4 3c c8 8f b7 bc
       -0.061356936 -0.037761696 0.020090317 -0.022407427
000130 47 e5 8c bd a2 48 6c 3d f0 23 aa 3d 8a e9 0c 3e
       -0.06879669 0.057686456 0.08307636 0.13760963
000140 e4 80 d6 bd ad 2c 90 bd e0 67 0a 3d 68 ff 31 bd
       -0.10473803 -0.07039771 0.03379047 -0.043456465
000150 a3 35 d6 bd 6f 40 5c 3c 41 03 c7 3c 82 f1 7a bd
       -0.10459449 0.013443097 0.024293544 -0.061265476
000160 a7 9f 59 bd b5 e2 a3 bd 61 4e 72 bd 23 96 b3 bd
       -0.053130772 -0.08002225 -0.05915678 -0.08768871
000170 63 0a c8 bd 31 4b 96 3d 73 23 07 bd ea e0 e4 3c
       -0.09767606 0.073385604 -0.03299279 0.027939279
000180 78 ed db bd 2f fc f0 bc 5f 09 82 bd ee 10 a3 bc
       -0.10738653 -0.029417126 -0.06349444 -0.019905534
000190 3a bf 05 be ab f6 81 bd a1 7c 1f bd dd 26 7e bc
       -0.13061228 -0.06345876 -0.038937215 -0.015512195
0001a0 b5 0c 4a be 9f 19 ff bd 57 09 cc bd 98 69 1a 3d
       -0.1973141 -0.12456059 -0.09962719 0.03769836
0001b0 86 22 c4 bd b8 88 08 bd b8 66 99 bd c2 c8 75 3d
       -0.09576897 -0.03333351 -0.07490295 0.06000591
0001c0 f7 db 36 bd 8d c7 8e bd 2c 9b 5e bc ce c5 5f bd
       -0.04464337 -0.06971655 -0.013586801 -0.054632
0001d0 8e 7a 64 3d 6b f7 0d 3d e2 58 2d 3d 65 99 05 3c
       0.05578094 0.034659784 0.042321093 0.008154248
0001e0 3e 3b 99 3a fc b3 fd bd 28 02 5c 3d 6c 93 d9 bd
       0.0011690629 -0.12387845 0.053712994 -0.106238216
0001f0 ac d0 c5 3d 6e 42 7b bc 5f 42 89 bd b4 3f d6 3c
       0.096589416 -0.015335662 -0.067021124 0.026153423
000200 b7 16 f1 bb 8b dc 75 bd 8b e6 73 3e e4 ff d6 3d
       -0.007357444 -0.06002478 0.23818414 0.10498026
000210 be 3d ee 3d 8b a3 09 3c 52 91 87 3d 9b 8e 1d 3d
       0.1163287 0.008400808 0.066195145 0.038466077
000220 40 96 06 be 5f 9b 8a bd f2 4e bf 3d 42 c2 06 be
       -0.13143253 -0.06767916 0.093412295 -0.13160041
000230 cb 3a 0e 3d 2d 8e c7 3c 7f 30 28 3e ba e4 7d bc
       0.034724038 0.024359787 0.1642475 -0.015496427
000240 bb 2c bc bd 41 17 4b bd 43 58 15 be c3 79 f4 bd
       -0.09188219 -0.049582724 -0.1458445 -0.11937287
000250 d7 e6 f6 bb 54 e3 ac 3b c2 f2 9f bd e0 82 33 bd
       -0.0075348425 0.005276123 -0.07809974 -0.043825984
000260 2b 6d 47 be 71 55 c2 3d 4a b8 6f bd 43 ec d0 3c
       -0.19475238 0.09488953 -0.05852536 0.025503283
000270 27 ed 89 bd 8e f2 9d 3b 44 d4 d3 3d 0d db 0a bc
       -0.06734686 0.0048201745 0.10343221 -0.008475077
000280 19 fe 7b be ae 34 a8 bd 02 88 29 3e 6a 05 5c bd
       -0.2460865 -0.08213173 0.16555789 -0.0537161
000290 d9 45 23 be 8c 94 11 3e d9 cf 2c 3e f2 7c 14 3e
       -0.15944614 0.14216822 0.16876163 0.14500788
0002a0 ca 73 54 3e 08 e6 ef 3d aa b0 af 3a b5 e3 93 bd
       0.20747295 0.11713797 0.001340409 -0.07221166
0002b0 7e 53 0e be 0d ba dd 3d f7 96 e7 bd 75 a3 ac bd
       -0.13899037 0.10826502 -0.11308091 -0.084296145
0002c0 75 be 70 bd ec f5 a9 ba 98 48 d1 3c b8 ca d1 3d
       -0.058775384 -0.0012966967 0.02554731 0.10243744
0002d0 27 ad ad bd d7 65 24 be d7 33 70 bd b8 bd 54 bd
       -0.08480292 -0.16054474 -0.05864319 -0.051938742
0002e0 56 c0 b7 bc e7 3a 23 3e 40 9e 86 3c 7b 43 12 bd
       -0.02243058 0.15940438 0.016432881 -0.035708886
0002f0 0b fd 61 3d d4 be 3d be ee e1 ef 3d d8 38 17 bc
       0.05517296 -0.18529826 0.117130145 -0.009229861
000300 73 cf c3 3c 75 c6 82 be 6f de 8e 3d 4e 41 fd bd
       0.02390263 -0.25542036 0.069760196 -0.123659715
000310 d1 67 b7 bc c5 ee 0a 3e a2 67 14 bc 80 b3 4d 3e
       -0.02238837 0.13567646 -0.009057911 0.20088005
000320 8f 1a 14 3c 01 ed 60 bc bc 95 46 be 2c d7 8f bd
       0.009039535 -0.013728381 -0.19393057 -0.07023463
000330 43 42 c0 bd 13 fa 4d bc 9a 29 57 3d 86 bd d3 3d
       -0.093876384 -0.012571829 0.05252991 0.10338883
000340 48 4f b1 bc e2 4f 57 3d 63 89 86 3d 26 34 c6 3d
       -0.02164425 0.052566417 0.06569173 0.09677915
000350 23 86 c6 bd c9 33 e0 bd 9a bc 91 bd 58 dc 92 bc
       -0.09693553 -0.10947377 -0.07116051 -0.017927334
000360 a8 67 da bd 1f 8f 50 bc 83 e5 d4 bd fa f3 98 3c
       -0.10664302 -0.012729435 -0.103953384 0.018671025
000370 ed ca f8 3d e2 73 84 bd dd 3e fb bd b1 68 9e 3d
       0.1214808 -0.064674154 -0.122678496 0.07734812
000380 f1 58 f9 3c b6 f8 8c 3e a7 fa 8e 3b 46 16 b9 3d
       0.030437918 0.275335 0.004363376 0.090374514
000390 43 aa ab bd af 95 08 3d ca 3a f9 3c c5 f9 52 bd
       -0.08382084 0.033345874 0.03042354 -0.05150773
0003a0 e2 a8 b8 bd ae 0c 80 be 1c fd 54 3d 6c c5 9e 3d
       -0.09016587 -0.25009674 0.051999196 0.07752499
0003b0 fd 2d 70 bd 03 8d bf 3c be cd 20 be e4 58 26 be
       -0.058637608 0.02338267 -0.15703484 -0.16244847
0003c0 ab 97 92 bd 03 88 73 bd be db 12 3d a6 d1 aa bd
       -0.071578346 -0.059455883 0.035854094 -0.083407685
0003d0 15 e4 72 3d 81 e3 19 3e 16 02 45 3e 12 7f 1b 3e
       0.059299547 0.15028192 0.19239077 0.15185192
0003e0 d2 4c 98 bd 73 56 4d be cf f0 1a be 33 04 2b 3e
       -0.07436527 -0.20052509 -0.15130924 0.1670082
0003f0 a4 73 16 3e 27 a7 11 3e 1d d1 05 3e f0 41 8f 3d
       0.14692551 0.1422392 0.13068052 0.069949985

lstm.bias_ih_l0 f4 [512]
000000 ed e2 45 bd d0 13 cc bd d8 c7 59 3e 03 e4 93 bd
       -0.048312116 -0.099647164 0.2126764 -0.07221224
000010 83 12 a2 bd 21 40 08 3b 7c 3d 7b bc f7 aa 05 bc
       -0.07913687 0.0020790177 -0.015334483 -0.008158437
000020 b9 d6 3e be 7d 8f 67 bd 5d 8a 16 3e f2 09 59 bc
       -0.18636598 -0.056533325 0.14701219 -0.013247
000030 0d d7 80 3d 6d dc fb bd fd 82 a6 3d a9 fd c5 bd
       0.06291018 -0.12297902 0.08130453 -0.096675225
000040 61 6d 4f 3b 9b fa aa bd b6 f3 ad bd 53 e6 19 3c
       0.0031650888 -0.083485804 -0.0849375 0.0093932925
000050 bc 9e f7 bd 0e 97 32 ba ee 54 bd bc d0 e9 67 bc
       -0.12090823 -0.000681267 -0.023111787 -0.014154866
000060 9e 56 1e bd ab 59 1b 3c 50 36 c7 bd b3 23 9c bd
       -0.038656823 0.009481828 -0.09727156 -0.076239966
000070 3b 47 74 bd 03 73 47 bd e3 f3 8d bd 10 3e 34 3c
       -0.059638243 -0.048693668 -0.06931283 0.011001125
000080 3b 97 01 bd 53 fe ba 3b 3a ee 0f bd d4 2a 87 3b
       -0.031638365 0.0057065873 -0.0351393 0.0041249786
000090 f9 0e 82 3d 20 26 02 bd c1 c5 9f bd 62 b7 d0 39
       0.06350512 -0.03177464 -0.078013904 0.00039809482
0000a0 4d 5f 36 be 9c 40 47 3c 39 c7 68 3d 8f 83 0d 3d
       -0.17809792 0.0121614 0.05683062 0.034549292
0000b0 be 8d 2a 3d 9e 6e b3 bd 99 0f 27 bc 1c a8 ad bd
       0.041639082 -0.08761333 -0.01019659 -0.0847933
0000c0 a5 be 1e 3d 22 4d bb 3d 5f d6 7e bd df 3b 01 3d
       0.03875603 0.09145571 -0.06221616 0.03155124
0000d0 4b 82 7d 3d 83 f6 6e bd 34 4a e4 bc df 53 3d 3d
       0.061891835 -0.05834056 -0.027867414 0.046222564
0000e0 22 f7 80 3c 98 50 d3 3c 5e bd f1 bd 0b 27 18 bd
       0.015742842 0.025795266 -0.11803697 -0.03714661
0000f0 26 37 69 be 40 3a 82 3d 0a 8d 6d bd 40 1c 8a bd
       -0.22774944 0.063587666 -0.057995833 -0.067436695
000100 bb 75 05 3d a2 ba 1e 3c db 68 3e bd 40 2a 64 bd
       0.03258298 0.009688051 -0.046486717 -0.055704355
000110 11 1a 1a 3d 04 3b f3 3c f9 ae f2 bc 7b c3 69 bd
       0.037622515 0.029691227 -0.02962445 -0.05707119
000120 d7 7d a8 bc 34 63 89 3d 36 df ad bc 65 6c f8 bc
       -0.020567818 0.067083746 -0.0212246 -0.030325124
000130 ba f2 00 3d 00 51 46 bd 8b c2 ab bb 2d c1 86 3d
       0.031481482 -0.04841709 -0.005241697 0.06579814
000140 b5 fd 59 bd b5 0c e0 3a 8d cd 01 be 90 e2 27 bd
       -0.05322047 0.0017093631 -0.12676068 -0.04098755
000150 08 fd 86 bd ba e0 cc bd 08 44 4f bd 89 45 46 bb
       -0.06591231 -0.10003801 -0.05060199 -0.0030253849
000160 e5 5c b1 3c c0 c4 06 3e 2f 77 a5 bd b9 20 1b bd
       0.02165074 0.13160992 -0.08079373 -0.037873004
000170 df 1f 94 bd 08 1a 30 bd a5 ba 8b bd 3b 66 a3 3d
       -0.072326414 -0.042993575 -0.06822709 0.07978483
000180 7e c1 9e 3d f9 33 dd bc ca 00 79 bc f0 20 5d 3c
       0.077517495 -0.027002322 -0.015197942 0.013496622
000190 96 6f c9 bd db 62 82 bd 72 1d cd bc ed 8d 06 3d
       -0.098357365 -0.063665114 -0.025038455 0.032850195
0001a0 01 3b 9c bc bc 8e 94 bd 61 fa 61 bd 05 f3 2b bd
       -0.019071104 -0.07253787 -0.05517042 -0.04197981
0001b0 ab e5 b1 bd 3b 50 ad 3d d7 dc 98 3d 0c 84 28 ba
       -0.08686384 0.08462568 0.07463997 -0.0006428368
0001c0 91 bb 25 3d 1b bc dc 3b 5a 54 a3 3d 40 40 e7 3c
       0.04046208 0.006736291 0.07975073 0.028228879
0001d0 0b ae 03 3c ed bd 14 3d 32 7e eb 3c c2 8a a4 bb
       0.008037101 0.03631394 0.028746698 -0.005021424
0001e0 d0 45 d4 bd 8b c5 cd 3c b6 be c3 bd 32 d3 67 bd
       -0.10364878 0.02511861 -0.095578596 -0.056597896
0001f0 2a 0b bb bd 40 4d 60 3d ce cb 9d 3d d6 e7 21 3d
       -0.09132989 0.05476117 0.07704888 0.039527737
000200 e5 4e 21 3d 33 2d 83 bb 2a 04 29 3e f0 fa 1f bd
       0.03938188 -0.004003191 0.16505495 -0.039057672
000210 be 42 26 bc a1 8a c9 bc ef ab c2 3d f1 a9 e8 3d
       -0.0101477485 -0.024602236 0.0950545 0.11360539
000220 ce 74 3d 3b d1 c8 5e bc 91 05 3a 3e 8b b6 98 3c
       0.0028908732 -0.013597683 0.18166186 0.01864173
000230 c4 b4 98 3a b7 91 58 3d 44 e0 1f 3e f2 2d f0 bc
       0.0011650552 0.05287334 0.15612894 -0.029318783
000240 40 53 1b bd 1d a8 f4 bc 02 d7 90 3c e5 86 77 3d
       -0.03792119 -0.029865319 0.017680649 0.06043138
000250 a5 04 98 bb 0b 0f cb 3c c0 7f d0 3c 25 1c c4 3d
       -0.0046392255 0.024787446 0.025451541 0.09575681
000260 a7 d6 7f 3d 41 86 8f bc c8 4d c4 3c c1 a1 f2 3d
       0.062460568 -0.017520072 0.02396287 0.11847258
000270 26 ed 88 bd ce 7e e6 3c 40 05 6e bd 73 e5 3f bd
       -0.066858575 0.028136637 -0.058110476 -0.04684968
000280 c0 33 bd bd cf fc b8 bb 2b 83 9f 3d f9 67 5f 3c
       -0.09238386 -0.0056453715 0.0778869 0.013635629
000290 f3 0d 45 3c 91 1f 85 3b 48 7a e6 bc 5b 8f 4c 3c
       0.0120272515 0.004062601 -0.02813448 0.0124853505
0002a0 3e fe d5 bc 49 6d ad bd 13 9c 92 3c 9d 33 ba 3c
       -0.026122209 -0.0846811 0.017896688 0.02272969
0002b0 0f 0d 95 3d bd 6a 97 bd ab 88 d1 3d fe d5 da ba
       0.07277881 -0.073934056 0.102311455 -0.0016695855
0002c0 c1 0f 58 bd a4 14 08 3c db c4 d3 3d 78 3b d6 3d
       -0.0527494 0.008305702 0.103402816 0.104605615
0002d0 5b c1 7c 3d b3 1d cd 3c 35 eb 07 bd c5 06 4d 3c
       0.061707836 0.025038576 -0.033183295 0.012513821
0002e0 63 6a 4f bd 6a 75 57 3d 91 6f bf 3d 86 bd 3c bd
       -0.050638568 0.05260221 0.093474515 -0.04607918
0002f0 ca 32 a9 bd 8a 91 74 bc 61 30 0b 3c 7d a5 c0 3d
       -0.0826164 -0.014927277 0.008495421 0.094065644
000300 81 2c 4a 3a 21 e4 11 bc 3e 4c 09 3d cc c1 d9 bc
       0.000771232 -0.008904488 0.033519976 -0.026581667
000310 3a c3 6b bb e3 86 61 3a 00 b1 a1 3d 68 3b c8 3d
       -0.0035974518 0.00086031685 0.07895088 0.09776956
000320 df 7e 71 bd f1 93 a4 3d fd 7d 91 3c 39 3e bd 3d
       -0.058958884 0.0803603 0.017760271 0.09240384
000330 bd 04 79 3d 67 c9 2e 3d c9 ec ea 3d 2c 4b 68 bd
       0.060795534 0.04267254 0.114709444 -0.056712314
000340 cc b0 c9 3c b4 7b 29 bd 8c 7c c0 bc 9f 56 f9 bc
       0.024620436 -0.041377738 -0.023496889 -0.030436812
000350 15 be 6b 3d 72 c8 2c 3d a7 f2 de ba 2b a4 78 bd
       0.057554323 0.042183347 -0.0017009572 -0.060703438
000360 6a b4 5a bd 87 86 b6 3d 95 c9 46 bc 57 11 04 bd
       -0.053394713 0.08912378 -0.012133022 -0.0322431
000370 22 74 4d bd 80 9d 89 3d 6d f4 83 3d 22 83 2b bd
       -0.05015958 0.06719494 0.06443105 -0.041873105
000380 e5 75 77 3d 01 1b ad bd 45 67 83 bd 7f e7 1c 3d
       0.060415167 -0.08452416 -0.064161815 0.03830671
000390 f3 bc 83 3d 00 71 93 3d f9 e5 73 bb 20 20 b1 ba
       0.064325236 0.071992874 -0.0037215932 -0.0013513602
0003a0 92 99 3a bd 50 65 66 3d 51 cf 6e 3d d7 da 46 39
       -0.045556612 0.056248963 0.05830318 0.00018964276
0003b0 b2 45 73 bc fb cc 82 3d 45 70 56 3d 00 51 ed bc
       -0.01484816 0.06386753 0.052353162 -0.028969288
0003c0 40 f4 ce ba 54 63 b0 3d 3d fe 36 3d 4c 4c 23 3b
       -0.0015789345 0.08612695 0.044676054 0.0024917303
0003d0 d7 20 85 3b 88 37 8f bc ff 30 b1 3d ca fd 88 3d
       0.0040627527 -0.017482534 0.086519234 0.066890314
0003e0 9d 1e b3 3d 14 30 24 3d 83 e7 aa 3d 73 83 6d bb
       0.087460734 0.040084913 0.083449386 -0.003624168
0003f0 b4 dd c6 bb 4a 3c ef 3c c0 9c df bb cc 14 3b bd
       -0.0060689095 0.029203553 -0.006824106 -0.04567413

lstm.bias_hh_l0 f4 [512]
000000 30 1c 90 3d db 00 85 bd b8 bf ad 3d 2f 55 3c 3b
       0.07036626 -0.06494304 0.08483833 0.0028737297
000010 4e 75 95 bd b1 bd 81 3c a5 c0 c7 3c 61 ef 4e 3d
       -0.07297765 0.015837522 0.024383852 0.05052126
000020 93 c4 ee bd 6a 11 a8 3d ff a0 dd ba 13 a4 51 bd
       -0.11658587 0.082064465 -0.0016908942 -0.051181864
000030 c9 c2 8e 3d a6 14 f8 bd cb 07 05 3d 66 1c de bd
       0.06970746 -0.121133134 0.032478135 -0.1084526
000040 fe 37 17 3d fd 7b 56 bd 1c 4b 54 3d b8 0c 14 bd
       0.036918633 -0.05236434 0.051829442 -0.036144942
000050 c6 da 8f bd 6d 22 4c 3c 07 a5 6c bd dd ce 80 3c
       -0.070241496 0.01245938 -0.05777457 0.01572364
000060 78 c5 c5 bd 58 63 bc bb 3d 74 80 bd 20 cb 5e be
       -0.09656805 -0.0057491474 -0.06272171 -0.21757174
000070 d1 64 ef 3b 40 4f c9 bc 95 ea 8b bd 9a dd c5 bd
       0.0073057194 -0.024573922 -0.06831852 -0.09661408
000080 8e 0d d7 3c a6 bd d9 3c d6 ad 5e 3d e0 51 c1 3c
       0.02625158 0.02657969 0.054365 0.023598611
000090 5f e4 9d bd 1c a5 d7 bd a0 e3 b4 bd 0d b1 30 3b
       -0.07709574 -0.10529539 -0.088324785 0.0026961
0000a0 32 51 30 be fd e7 10 3b d3 d5 94 3d ee 72 8b bd
       -0.17218474 0.0022110932 0.07267346 -0.068090305
0000b0 77 c3 f8 bd 93 01 5b be 24 4c 32 bd 08 7a 94 3d
       -0.12146657 -0.2138732 -0.043529645 0.07249838
0000c0 3c 47 01 bd db a4 9f bd e7 8c 66 3d 15 31 9a 3c
       -0.031562075 -0.077951156 0.05628672 0.018822232
0000d0 f9 62 0e 3d d5 29 64 3d 12 72 85 bd aa 16 0b bd
       0.034762356 0.055703957 -0.06515898 -0.03395716
0000e0 01 8b 5c 3d 2b 89 1b bd 87 3a 5b bd e2 91 ab bd
       0.053843502 -0.03797261 -0.053522613 -0.08377434
0000f0 08 ac 9a bd ed 56 74 bd 6f 63 42 bd 68 40 b5 3d
       -0.075523436 -0.05965321 -0.04745811 0.08850175
000100 81 c6 e6 ba 21 59 e6 bd fd 25 2e be f9 29 91 3c
       -0.0017606766 -0.11247469 -0.17006679 0.01772021
000110 b6 66 b0 bd f2 7b d7 3d ee 46 fa 3c 43 29 3a bd
       -0.086133406 0.105216876 0.0305514 -0.045449506
000120 1e 2f 13 bd b5 79 00 bc de 25 9c bd ff ac 60 bd
       -0.035933606 -0.007841517 -0.0762441 -0.054852482
000130 f1 94 f0 bc 96 37 3f bd c2 65 7c bd 48 13 27 bc
       -0.029367896 -0.04668387 -0.06162048 -0.010197468
000140 ce 7f a7 bc 7f d5 42 3d f5 39 5f bd 86 20 46 3c
       -0.020446684 0.047566887 -0.05449863 0.012092715
000150 3e 67 8b bd 1a a0 3f 3c 97 48 9b bc e3 88 9a bc
       -0.06806801 0.011695886 -0.018955512 -0.0188641
000160 81 2b 6c 3d 42 a1 11 bd a5 cc e3 bd be de c2 3c
       0.057658676 -0.035554178 -0.11123017 0.023787852
000170 c9 65 96 3d 8f ce b9 bd 01 94 62 bd e7 1a 7b 3d
       0.07343633 -0.09072601 -0.05531693 0.061304953
000180 f2 f9 24 3d 0e 76 a8 3d 4c 85 60 3b 69 da 17 3d
       0.04027743 0.08225642 0.0034259139 0.037073527
000190 99 b2 e1 bc 32 28 8d bd 29 d7 09 be 3f bb b4 bc
       -0.027550982 -0.06892432 -0.13460983 -0.022061942
0001a0 e0 18 10 be 0e 66 df bb aa 5b 96 3d d7 e2 18 3c
       -0.14071989 -0.006817586 0.07341702 0.009331427
0001b0 cc 22 8c 3b 40 81 c0 bc 19 cd 59 3a 63 3f 0d bd
       0.004276609 -0.023499131 0.0008308455 -0.03448428
0001c0 df e2 88 bd 03 f9 89 bd 8d f7 8f bd 60 db f4 bd
       -0.06683897 -0.06736948 -0.070296384 -0.11955905
0001d0 c9 da 38 bd a5 72 c6 bc ec 89 ab bd 7f 52 bb 3d
       -0.045130525 -0.024224589 -0.08375916 0.09146594
0001e0 2b 6d 22 bd a1 57 f7 3d 38 98 37 3d 4a d5 b5 bd
       -0.039654892 0.12077261 0.0448229 -0.08878572
0001f0 94 ba 31 3c 09 16 01 bd 50 27 bd bc 35 02 82 3c
       0.010847706 -0.031515155 -0.023090035 0.015870193
000200 57 3e 59 3c f3 9d d0 3d 31 10 c4 3d b6 33 f3 bb
       0.013259492 0.101863764 0.09573401 -0.007421936
000210 08 41 82 3d 0e f7 9c 3c 09 66 4a 3d 91 61 0c 3d
       0.0636006 0.019160774 0.049413715 0.034272734
000220 95 bd 95 3d 3f 90 0c bb ba 72 1e 3e 8d fe 88 3d
       0.073115505 -0.0021448282 0.15473452 0.06689177
000230 fd b0 5b bd b8 0b 2c bc 06 20 6a 3d a0 a2 e0 3d
       -0.053635586 -0.010500841 0.057159446 0.10968518
000240 03 48 87 3d ae 40 53 bb 16 c2 a0 bc ad 5f 08 3e
       0.06605532 -0.0032234597 -0.019623797 0.13317747
000250 b0 ff 6b bd 15 e1 81 bd 57 6e 16 3d 71 91 ca 3d
       -0.05761689 -0.06341759 0.036726322 0.09891022
000260 48 b3 08 3d 2b 44 7c bb a2 c2 d6 3d c9 72 82 3c
       0.0333741 -0.003849278 0.10486342 0.015923874
000270 ac 4e 91 bd 1e 2e 87 3d 95 b9 5f bd 34 8f ac 3d
       -0.070950836 0.06600593 -0.054620344 0.08425751
000280 c1 b6 bf bd 26 18 5d 3c 8b f1 26 3c a0 45 fa bc
       -0.093610294 0.013494527 0.010189424 -0.030550778
000290 ca c5 2e bd e8 51 c1 3d 70 58 f8 3c 9d 60 53 3d
       -0.042669095 0.094394505 0.030315608 0.05160581
0002a0 28 99 5e bd 12 e0 49 3d c1 13 7f bc 24 d6 dd 3d
       -0.05434528 0.049285956 -0.015568675 0.1083186
0002b0 d6 48 91 bd 4f 37 c5 3d 80 e0 6b 3d 35 99 2d bd
       -0.070939705 0.0962969 0.057587147 -0.042382438
0002c0 f8 d0 42 3d 12 80 42 3d e3 5f c4 3d 4d 7b 3d 3c
       0.04756257 0.04748542 0.095886014 0.011565042
0002d0 2a d7 73 3d 3c 05 7c 3c 8d 31 c8 3d d6 f8 3e bc
       0.05953137 0.015382107 0.09775076 -0.011656007
0002e0 5e 87 84 bd 3c fd 4b bd 77 9b 40 3e 6c 10 5e 3d
       -0.06471132 -0.04980205 0.18809305 0.05421488
0002f0 bd c6 10 3d b0 8c 82 3d 6c 39 a1 bb 06 02 48 bd
       0.03534578 0.0637449 -0.0049201753 -0.048830055
000300 b0 53 8a 3c 9d ab 13 bd f8 d5 53 bb 7c ca 8b 3d
       0.016885608 -0.036052335 -0.003232358 0.0682573
000310 da 0e ea 3c 02 d9 8f bd 2f b3 ea 3d 56 4b a8 3d
       0.028571535 -0.07023813 0.11459958 0.08217494
000320 7a d2 7c bd 2c b6 d0 bc 97 b5 23 3d 9f 92 fe bc
       -0.061724164 -0.025477491 0.0399681 -0.031075774
000330 4a 0b 86 bc e2 ea 00 bd 3c 83 c0 3d 95 c4 34 3c
       -0.016362805 -0.031474 0.09400031 0.011033197
000340 97 5a 1f 3d fb f9 94 bd 9e 58 cd 3d e9 5a 12 3d
       0.038904753 -0.072742425 0.10026668 0.03573123
000350 01 24 c5 bd ee d8 35 bb 33 3c d6 3d 82 ce df bc
       -0.09626008 -0.0027747708 0.10460701 -0.02732015
000360 d2 10 18 bb ce fc 08 3e 85 85 8e bd 47 7f e0 bb
       -0.0023203385 0.13377687 -0.069590606 -0.00685111
000370 70 6c 0c 3d 56 19 47 bd 89 d0 21 3d 08 ef b5 bb
       0.0342831 -0.048608147 0.039505515 -0.0055521764
000380 75 bf d3 bc c6 a2 38 bd 16 e0 8d 3d 31 b2 f9 3d
       -0.02584813 -0.045077108 0.069275066 0.121921904
000390 7f fd e7 bc 17 5f 77 3d 2e bc da 3b 57 cb 3f bd
       -0.028319119 0.06039342 0.006675265 -0.04682478
0003a0 d8 22 b7 3d ac 4a ae 3d 81 7a 02 3c bb 02 22 bc
       0.08942193 0.08510336 0.0079637775 -0.009888346
0003b0 94 11 bd 3d 44 9d 58 3c 21 70 10 3d c2 49 4d bd
       0.092318684 0.013221089 0.035263184 -0.05011917
0003c0 55 e8 b9 3d 7c 1b 94 bc 64 8a 85 bc 6c 10 4c bd
       0.09077517 -0.018079512 -0.016301341 -0.04982035
0003d0 98 21 a2 bd 3b e7 87 3d e5 5d a1 3c 8e 73 96 bd
       -0.07916564 0.066359006 0.019698093 -0.07346259
0003e0 d3 e7 34 bd 77 d5 d7 bd 68 fa ea 3d 96 f2 97 3d
       -0.044166397 -0.10538762 0.114735425 0.074193165
0003f0 64 f7 73 bd 4e ba a2 bc 08 1d 29 3d be 2e 16 bc
       -0.059562102 -0.019864228 0.041287452 -0.009166418

fc1.weight f4 [60, 256]
000000 20 d8 79 bd fd 1c 47 3e 2f a9 76 be 50 f2 d2 3d
       -0.06099713 0.19444652 -0.24087976 0.10300124
000010 73 86 4f 3d 0c 1b 54 bc cb fd 71 3d a5 95 5f bd
       0.05066533 -0.012945902 0.059079926 -0.05458607
000020 b2 15 38 3e 65 ca 24 3e 25 5a 72 be 47 03 24 bd
       0.17977026 0.16092832 -0.236672 -0.040042188
000030 d3 47 dd bc 54 2c 4a 3d 61 f6 56 be 79 2b 9c 3e
       -0.027011788 0.04935868 -0.20992424 0.30501917
000040 ff a9 29 3e b9 da bb 3d 13 e6 10 bd 68 5f 9b 3d
       0.16568755 0.091725774 -0.035375666 0.07586557
000050 f2 06 71 3d a7 ba 95 bd 11 73 aa 3d 1d c2 e5 bd
       0.058844514 -0.07310992 0.083227284 -0.11218665
000060 9a ec 77 3d a9 74 8f 3c 43 4e db 3d 7c 7c 6b 3d
       0.060528375 0.017511683 0.107082866 0.057491764
000070 78 a7 06 bd 22 b4 c8 3b 5a d3 07 bd 13 5c 1c 3d
       -0.032874554 0.006124989 -0.033160545 0.038173746
000080 68 91 fb 3d 7f 60 29 3e 6c c7 a9 bd 19 f5 b9 bd
       0.122835934 0.16540717 -0.0828999 -0.09079952
000090 23 ea 63 3d bf 5c b7 3b 34 fe 57 ba 47 d8 20 be
       0.055643212 0.005595773 -0.00082394783 -0.15707503
0000a0 3b 5e 4c 3e 4d 89 92 bd a9 b3 aa bd 1f 45 b0 3c
       0.19957821 -0.07155094 -0.08335049 0.021517335
0000b0 6e d2 87 3c bd 47 1e 3e b6 e9 05 bd 92 55 e5 bc
       0.016579833 0.15457053 -0.032693587 -0.027994905
0000c0 c0 32 f3 bd 3c be 77 bd da 6d 22 3d 0a 0d 83 3d
       -0.11874914 -0.060484156 0.039655544 0.063989714
0000d0 e0 b1 43 3d a7 a9 1d be 74 fe 4f bd 10 aa 6b bd
       0.047777057 -0.15396748 -0.050779775 -0.05753523
0000e0 d0 ba 98 3c a7 01 88 3c 16 f3 17 bd df b9 ff 3c
       0.018643767 0.01660235 -0.03709706 0.03121656
0000f0 a6 94 09 3e 27 5a 20 3e f2 1c fa bc 27 82 03 3e
       0.13435611 0.1565939 -0.03053138 0.12842618
000100 56 fe ec 3d 74 9e c1 bd 5c 1a 40 be c3 76 5c 3d
       0.11571948 -0.09454051 -0.18760055 0.053824198
000110 b5 71 77 3d 6f 56 f0 3d 93 c9 bd bc fe 01 82 3d
       0.060411174 0.11735236 -0.023167407 0.06348036
000120 99 1e eb 3d 19 02 81 3e d8 cf ee bd c8 99 c9 bb
       0.114804454 0.25196913 -0.11660737 -0.0061523654
000130 cb 51 c4 bd 94 46 5c 3d 54 88 33 3b 05 0e cc 3c
       -0.09585913 0.053778246 0.002739449 0.024909029
000140 aa c3 88 bd 93 44 de 3d 58 e0 2d 3c 13 10 c8 3c
       -0.06677945 0.10852923 0.01061257 0.024421727
000150 31 63 01 3e c8 21 ef bd c1 fb 1f 3d f6 ea 29 bd
       0.12635495 -0.11676365 0.03905845 -0.04148384
000160 bf 4e 3b bc 02 90 b4 bc 7d 31 f7 3c 6b f9 7b bd
       -0.011432349 -0.022041325 0.030174965 -0.06151716
000170 ea 45 06 bc 93 b3 d2 3d 8d 7a 96 bd 7c b8 ee 3d
       -0.00819538 0.10288157 -0.073475935 0.11656281
000180 e6 b0 f8 3c 94 dd 4b 3e 44 31 bb bd 90 9c 07 3e
       0.03035779 0.19908744 -0.09140256 0.13243318
000190 56 25 94 3d 96 b5 8e bd bd b2 cb bd 69 1a 25 bd
       0.07233684 -0.069682285 -0.09946201 -0.04030839
0001a0 12 69 d4 bc 3f a5 36 bc 70 af b1 3d 4e 8b d8 bd
       -0.025929008 -0.011147796 0.0867604 -0.10573445
0001b0 54 b1 10 be be 0c 8c 3d 15 32 e6 38 2e 41 7a bd
       -0.14130145 0.06838368 0.00010976583 -0.061097316
0001c0 f0 48 b0 3c 97 31 c5 bb 93 c9 cc bc 4b 51 d0 3c
       0.021519154 -0.0060178745 -0.024998462 0.025429389
0001d0 74 60 db 3d eb f3 2d bd 6b 00 c5 3d 6e 56 8d bd
       0.10711756 -0.042468946 0.0961922 -0.06901251
0001e0 4d c5 d7 3c ac 79 77 3d 2a 41 22 bd 95 70 64 bd
       0.026339198 0.06041877 -0.039612927 -0.05577143
0001f0 b1 5b 96 bd 7d 52 1e 3d dd 6f a0 3b 48 34 72 bd
       -0.073417075 0.038652886 0.0048961476 -0.05913189
000200 e9 36 74 3c db 71 3b 3e ab 4d f5 bd ab c9 de 3c
       0.01490567 0.18305151 -0.119777046 0.027195772
000210 4e ee 3d 3d a0 df ab 3c 82 7a 29 3d c8 3a dc bb
       0.046369843 0.020980656 0.0413766 -0.0067208745
000220 f0 3f e5 3d 4e c3 e3 3d 4f 57 6e be 41 08 62 bd
       0.11193836 0.11121236 -0.23275493 -0.055183653
000230 c5 15 6c 3d 6c 0e f2 3d 52 0e 43 be 6a 25 3c 3e
       0.05763795 0.11819157 -0.19048432 0.18373647
000240 dd ec 40 3e b8 9e 1b 3d 3e db c3 bc 1e bd 08 3e
       0.18840356 0.037993163 -0.023908254 0.13353392
000250 f6 51 7a 3d 4c 43 00 3d 55 b4 c0 3b 9c 89 0c bd
       0.06111332 0.03131418 0.0058808723 -0.034310922
000260 56 87 28 bd 1f 69 97 bd f3 97 e1 3d 02 2d 04 3e
       -0.04114469 -0.07393097 0.1101531 0.12907794
000270 b9 6e 09 be 9f 64 5b bd eb 43 cc bd ab b4 28 bd
       -0.13421144 -0.053562757 -0.09973892 -0.041187923
000280 e1 d9 f5 3c bb bf e3 3d b3 22 45 be 86 f4 19 bd
       0.03001112 0.11120554 -0.19251518 -0.03758671
000290 e2 e8 8e 3c f3 61 a1 3d 99 29 aa bc 06 32 22 be
       0.017445032 0.078800105 -0.020771788 -0.15839395
0002a0 20 81 15 3e 88 ea 39 be ce e2 f6 bd c3 4a 3a 3d
       0.14600039 -0.18155873 -0.12054978 0.045481455
0002b0 cd 2a 83 3c 9d 1e 53 3d 3c 18 17 3d 94 d7 9b 3d
       0.01601162 0.051542867 0.036888346 0.07609478
0002c0 e4 6e 42 bd 4b 85 a0 bd c2 06 9d 3d 52 c5 5c 3d
       -0.047469035 -0.078379236 0.076673046 0.053899117
0002d0 d8 b8 98 bd d4 91 97 be 87 da ad bd df 20 01 be
       -0.07457131 -0.29603446 -0.084889464 -0.12610196
0002e0 60 33 2d 3d 6f 19 64 bc d9 7e dd bd 7f 35 55 3c
       0.042285323 -0.0139220795 -0.1081521 0.013013243
0002f0 ba 47 26 3e f7 b7 b6 3d bb 82 c3 bd d7 de 8c 3b
       0.16238299 0.08921807 -0.09546419 0.0042990255
000300 2c de 6f 3d 57 95 fd bc 5d a7 66 be 5e 55 1f bc
       0.05856149 -0.030955 -0.22524782 -0.009724943
000310 7c 04 cf bb 19 50 b8 3d 65 58 86 3d 15 b3 98 3d
       -0.0063176733 0.089996524 0.06559829 0.07456032
000320 80 61 18 3d cf 6e b0 3d e1 32 a3 bd 37 a1 7b 3d
       0.03720236 0.08614885 -0.07968689 0.061433043
000330 21 71 43 bc 26 ac d7 bc 61 9a 16 bc c2 e0 f9 3d
       -0.0119288275 -0.026327204 -0.00919208 0.12201072
000340 81 4f c8 bc 5f 02 f9 3d a9 e1 e2 3b 3c 3c fb 3d
       -0.024451973 0.121586554 0.0069238734 0.12267348
000350 3c 28 96 3d f1 46 64 bd 8c 5d fa 3d 8f 57 92 bd
       0.07331893 -0.055731717 0.12224874 -0.07145607
000360 cd 5a 98 3d 42 10 04 bd e0 84 a4 3d c4 9f 45 bd
       0.07439194 -0.032242067 0.080331564 -0.048248067
000370 14 c4 93 3c 6a 22 49 3e 7a 11 12 bd 07 c8 eb 3d
       0.018037833 0.19642034 -0.0356612 0.115127616
000380 8b 58 58 3d e9 89 e8 3d 93 61 60 bb f7 bf d2 3c
       0.052818816 0.11354429 -0.0034237846 0.025726302
000390 ac 6b e2 3d ee e2 98 3b 60 21 a0 bd d3 f4 8c 3c
       0.11055693 0.004665724 -0.07818866 0.017206585
0003a0 54 a7 81 3d f0 cb fd bb b2 94 bc 3b b5 15 0f be
       0.063307434 -0.0077452585 0.0057550306 -0.13973124
0003b0 60 fe 12 3c 7a 40 9c 3d 8d 02 c2 3d 26 dd c4 bd
       0.008971781 0.076294854 0.09473143 -0.09612493
0003c0 71 94 5c 3c f2 da bf 3d 64 aa 6f 3d c2 96 03 3d
       0.013463126 0.093679324 0.058512107 0.032126196
0003d0 e4 47 e9 3c 95 a0 25 bd c7 ab fb b8 66 d0 16 be
       0.028476663 -0.040436346 -0.00012000609 -0.14727935
0003e0 11 ce 8e 3d bb 72 36 3d c0 f5 b7 bd 59 49 2c bd
       0.06972898 0.04454301 -0.0898242 -0.042062137
0003f0 ab da 46 bc 44 02 ca 3d bb 0a f6 38 20 e6 d5 bc
       -0.012137095 0.098637134 0.00011732193 -0.026110709

fc1.bias f4 [60]
000000 ca 19 12 3e 5c 6d 3b 3d 68 64 85 3d fe 77 2f 3d
       0.1426765 0.04575859 0.065132916 0.042839043
000010 d4 63 de 3d 0d ce 65 3d bc 91 09 bb f3 da df bd
       0.108588845 0.05610471 -0.0020991405 -0.10930433
000020 14 d2 2e bd f1 f8 50 bd f2 ab 04 be d6 10 89 bd
       -0.042680815 -0.05101866 -0.12956217 -0.06692664
000030 af e9 26 bb 90 af 8e bd af 2f 4e bd e7 79 89 bd
       -0.0025468876 -0.0696708 -0.050338443 -0.06712704
000040 cd d7 ec bd 63 6f 93 3b 01 af 86 bd f3 5d 05 be
       -0.11564598 0.0044993623 -0.06576348 -0.1302412
000050 69 bb 5e bc ca 80 d1 bd 8a a8 a1 bd 1d dd c2 bd
       -0.013594487 -0.10229643 -0.078934744 -0.0951483
000060 c0 ef a1 ba 9f df 28 be b0 d6 2a bd a2 9d 0b be
       -0.0012354776 -0.16491555 -0.04170865 -0.13634351
000070 d4 53 f2 bd 60 ca c8 bd 38 52 0a 3c 28 0e bf bd
       -0.11832395 -0.09804225 0.008442454 -0.09328872
000080 81 d6 55 bb 09 e5 13 bd 13 a3 24 be 44 78 be bd
       -0.0032629075 -0.036107097 -0.16077833 -0.093002826
000090 39 6c 14 3d 5f d5 67 bd dc 3d 3e bd ca 53 37 bd
       0.03623602 -0.05659997 -0.046445712 -0.04475764
0000a0 75 b1 5c bd 65 09 41 bc 02 d7 9d 3b 74 64 a8 bd
       -0.053880174 -0.011782025 0.0048168907 -0.08222285
0000b0 e5 a6 0a bd 56 95 96 bd c3 b3 b8 bd 60 66 ea bc
       -0.03385057 -0.07352702 -0.09018662 -0.02861327
0000c0 2b a0 81 39 df 1f b1 3c 47 f9 9d bb b2 28 9b 3d
       0.00024724132 0.021621643 -0.004820976 0.075761214
0000d0 61 83 0b bd ed b1 3c 3d 76 fd 77 3d 14 93 c1 3b
       -0.03406084 0.04606812 0.060544454 0.0059074257
0000e0 b7 2b fa 3d 57 25 13 3e fb fc dc 3d e1 b3 8c 3e
       0.12215369 0.14369713 0.1079044 0.27480987

fc2.weight f4 [32, 128]
000000 24 8f 35 bc e0 32 61 be c0 35 96 3d 5e 62 b0 3d
       -0.011081491 -0.21992064 0.07334471 0.08612512
000010 37 50 df 3d 91 b0 9e 3b 08 5a b7 3d 22 01 d4 3a
       0.10903972 0.0048428257 0.08952719 0.0016174654
000020 93 83 ef bd 7b 19 90 bd 19 29 3c 3d e5 29 b9 bc
       -0.11695018 -0.0703611 0.04593763 -0.022602985
000030 9e b2 e1 3c 58 20 7d 3c c8 7a b8 bc 65 67 80 bd
       0.027550992 0.015449606 -0.022519484 -0.06269721
000040 bb 67 1e 3d c7 a1 84 3d f9 e6 32 bd bd a4 39 be
       0.038673144 0.06476169 -0.043677304 -0.18129249
000050 44 da 68 3d d7 d6 8a bd ae a2 69 3c 44 89 36 3e
       0.05684878 -0.06779259 0.014259977 0.178258
000060 18 c8 1d bd a5 34 d0 3d 5b b3 2e 3d c4 6c e7 bd
       -0.038520902 0.10166291 0.042651515 -0.11300042
000070 78 2b f1 3d 5f 4b 40 3e 0a 3d 22 3e 19 a8 82 3d
       0.11775869 0.18778752 0.15843597 0.06379718
000080 4f 0f 79 bc 5d 8f fa bd a9 21 86 3d 1d af 9a bd
       -0.015201404 -0.122343756 0.06549389 -0.075529315
000090 7f 9c 71 bd af 67 ce 3d 9c 40 2d 3e e0 0d c6 3c
       -0.058987137 0.1007837 0.16919178 0.024176538
0000a0 f2 f9 9d bc 8c 97 06 3d ee 2b 4e bd 71 78 ea 3d
       -0.019284222 0.03285937 -0.050334863 0.114487536
0000b0 70 8b a8 bd 20 cc 67 bd 4d dc a4 bd 9e 3d 0f be
       -0.082297206 -0.056591153 -0.080498315 -0.13988349
0000c0 11 e9 a4 bd d2 8b 21 bd a4 f9 e9 bd 73 07 a0 3d
       -0.080522664 -0.039439984 -0.11424568 0.07813921
0000d0 c4 9a 03 be 64 75 ec 3d d3 af 97 3d 2e 0f e7 3d
       -0.12852007 0.11545828 0.07406583 0.11282192
0000e0 e1 50 b2 3d d2 2d 76 3e cd aa 19 3c 5d 41 a5 bc
       0.08706833 0.24040917 0.009379101 -0.02017277
0000f0 db 10 fc 3d 9f aa 1b be 75 72 57 3e 0f 43 f5 bd
       0.123079024 -0.15201806 0.21039756 -0.11975681
000100 8c cf ae 3d ec 17 6c 3c 78 48 d4 3d 56 8c 95 bd
       0.0853568 0.01441 0.10365385 -0.073021576
000110 95 1f d1 bd 00 b0 2d 3e 72 61 5a be ee 96 d5 bc
       -0.10211102 0.1696167 -0.21326235 -0.026072945
000120 19 63 91 3d 6f e1 58 3d 31 92 96 bb 37 ac d7 bb
       0.070989795 0.052949365 -0.004595064 -0.006581809
000130 d6 17 f2 bd 90 09 bd 3d 29 f7 b7 3d 65 5d 2e bd
       -0.118209526 0.092303395 0.08982689 -0.042569537
000140 42 2d df 3d 54 84 f6 3d fb 08 8a bb 95 22 10 3e
       0.10897304 0.12036958 -0.0042124963 0.14075692
000150 c0 db ee bd 90 3a ae bd e7 d4 bf 3d dd ab d7 bc
       -0.11663008 -0.08507264 0.0936678 -0.026327068
000160 29 3c e8 3b 1a 0f b0 bd fd fd 2e bd a2 8c 74 bd
       0.00708725 -0.085966304 -0.04272269 -0.05970443
000170 60 07 a1 3d 92 de a3 bd 2b 28 bf bc 28 f5 6b 3d
       0.07862735 -0.08001436 -0.023334583 0.057606846
000180 f5 30 6e 3c a6 33 6f 3d 57 be 50 bc 13 13 fe bd
       0.014538039 0.058398865 -0.012740693 -0.12405982
000190 63 57 83 3d 50 18 92 bd 28 c4 60 bc 3a 7b 8b bd
       0.06413152 -0.071335435 -0.013718642 -0.06810613
0001a0 7b ec fa 3b f7 cd 64 bb d1 d0 ad 3c f4 b9 c0 3d
       0.007657585 -0.0034912804 0.021217735 0.09410468
0001b0 97 d2 f9 3d b9 84 28 bd 57 3f d6 3d f0 81 70 bd
       0.1219837 -0.0411422 0.104613 -0.058717668
0001c0 ae 7c ce bd a4 e8 1d be 10 de 29 3b 40 44 61 3d
       -0.100823745 -0.15420777 0.0025919713 0.05499673
0001d0 2b f6 fd 3d ea a9 f4 3d a3 03 0d 3e 53 f3 25 3d
       0.124004684 0.11946471 0.13770919 0.040515255
0001e0 bb 84 e4 3d 62 52 ae bd d3 3d bc bd 39 bc 85 3a
       0.11158129 -0.08511807 -0.091914795 0.001020319
0001f0 6d 25 4c bd a0 6d f8 3d ef 81 98 bd 14 1f 21 3e
       -0.04984038 0.12130284 -0.07446658 0.15734512
000200 29 22 1f 3e 18 f2 30 3d 31 ff 8c 3c 14 02 ec bd
       0.15540375 0.04319963 0.017211528 -0.11523834
000210 d7 aa e6 bd 06 29 6f 3e a4 a4 ab bd 55 e3 09 be
       -0.11263054 0.23355493 -0.08381012 -0.13465627
000220 9f 5e 10 3e 4e c5 0c 3d 07 78 1c bd 22 d8 b9 3c
       0.14098595 0.034367852 -0.038200404 0.022686068
000230 18 f3 e4 3d 1a c2 f8 bc 36 c2 f9 bc e2 c3 43 3e
       0.11179179 -0.030365992 -0.030488115 0.19117692
000240 32 52 4f 3d f9 e2 b2 bd ea 04 ae 3c 7f e0 22 3e
       0.050615497 -0.08734698 0.021242578 0.15905951
000250 cd 72 85 bd 0d e4 77 3d 08 63 9c ba c1 ae ca bd
       -0.06516037 0.06052022 -0.0011931369 -0.09896613
000260 37 eb d2 3d dc 63 83 bd 52 a3 a0 bd 0a ab f6 3d
       0.1029877 -0.06415531 -0.07843651 0.12044342
000270 6f a1 8f bd d3 f0 65 3b 17 85 60 3b 58 05 24 be
       -0.07013213 0.003508617 0.0034259015 -0.16017663
000280 87 ac 29 bd 81 f9 48 3d 4b d7 ea bd fb f4 9b 3d
       -0.0414243 0.04906607 -0.11466845 0.07615086
000290 3c 15 1e 3d bb 6b 17 be 81 d7 94 bb 34 93 8d 3d
       0.03859447 -0.1478719 -0.0045422916 0.069128424
0002a0 9c 5a eb 3d 11 fc 94 bc 65 aa 09 3e bd 00 ae 3c
       0.11491892 -0.0181866 0.13443907 0.021240586
0002b0 84 ac bf 3d 41 70 a3 3c a0 2b 0e 3e 1d ab 73 3d
       0.093590766 0.019950988 0.13883829 0.05948936
0002c0 a0 c0 2b 3e bf 5d 0a 3e 80 67 b4 3d 05 1d 6c bd
       0.167727 0.13512324 0.088088036 -0.057644863
0002d0 ca 0a 10 3e 67 1c 60 bd 3d 68 42 bd 04 89 bc bc
       0.14066616 -0.054714587 -0.04746269 -0.023014553
0002e0 1a 8b bc bd aa 9b 87 bd 0c bc 39 3e fd 8f 71 bd
       -0.09206219 -0.066214874 0.1813814 -0.05897521
0002f0 ae f3 4a 3b ed 6c ca 3c c2 a7 95 bd 4f 86 f4 3d
       0.0030967998 0.024710143 -0.07307388 0.1193968
000300 c5 fe 93 bc 9b 36 41 bd 6f cf 2a be 09 70 6b 3d
       -0.01806582 -0.047171216 -0.16680692 0.057479892
000310 5e 75 cc 3d 3c 59 32 bc 83 51 da 3d 34 45 24 3e
       0.099833235 -0.010885533 0.106600784 0.16042024
000320 c4 21 c2 bc c9 d7 f7 bc 8a 5b 06 3e fa 30 f5 bd
       -0.023697741 -0.030254262 0.13120857 -0.11972232
000330 50 b7 14 3e 9f 4a 4c bd 8e a9 9b bd e4 cc c1 3c
       0.14523053 -0.04987585 -0.07600699 0.02365727
000340 b4 2c be bd 32 61 04 be af 5a cb bd ed 8f c1 bd
       -0.0928587 -0.12927702 -0.09929406 -0.0945128
000350 e8 cd 8e 3d 76 ec ca 3d 70 01 15 bd bf 0e 11 3e
       0.06972867 0.099083826 -0.036378324 0.14165781
000360 14 79 8f bd 86 34 16 3e 71 f0 72 3d 52 4e b2 3d
       -0.07005516 0.14668474 0.059311334 0.08706345
000370 4a ca 51 bc 38 99 33 3e db 2f 31 ba 74 d1 fa bd
       -0.012804577 0.17538917 -0.0006759145 -0.12246981
000380 76 c0 8f 3c 5a fe f2 3a 64 2e cb 3d 83 61 37 3e
       0.017547827 0.0018538937 0.09920958 0.17908292
000390 8a 83 87 bd f9 6c e6 3d 7d 9e 16 3e c8 ab f3 3d
       -0.06616886 0.11251254 0.14708896 0.11897999
0003a0 a6 1a 06 3d 8b 74 6a 3d 5b 6c e0 bd 28 e0 d4 bc
       0.032740258 0.05724005 -0.10958167 -0.025985792
0003b0 6b 2a d5 bd 48 d2 21 3d 9a 2f 01 3d 74 cd 42 3d
       -0.10408481 0.03950718 0.031539537 0.047559217
0003c0 72 a0 03 39 0c 5b 16 3e 27 e4 eb 3d 36 36 cd bd
       0.00012552904 0.14683169 0.11518126 -0.100201055
0003d0 a8 3f 46 bd 22 09 87 3b 8f 27 c9 bd e0 2c 1f be
       -0.04840055 0.0041209618 -0.09821998 -0.15544462
0003e0 12 ea 1b bb 8e 8f c5 3c 0b d2 8b 3b 47 46 a1 bd
       -0.002379064 0.024116304 0.0042669824 -0.078747325
0003f0 fc 32 dc bc 86 3f 0a bd b0 ad 0e be ab de 9b 3c
       -0.02687978 -0.033751987 -0.13933444 0.019027075

fc2.bias f4 [32]
000000 9b 0f 8d 3d 2f f3 95 3d c3 1d 33 bb 01 19 77 3b
       0.06887742 0.07321774 -0.0027330972 0.0037704112
000010 0b ec a9 3d 52 4e b8 3d 7e 71 b5 3a 08 e4 95 ba
       0.08296975 0.089993134 0.0013843027 -0.0011435756
000020 13 fb 8c 3d 54 0a 5d 3c 82 f5 29 3d 5f b3 77 3d
       0.06883826 0.013491232 0.0414939 0.060473796
000030 47 b5 b5 bc a1 5e 81 3d 47 87 b2 3c a8 aa b6 3d
       -0.022181166 0.06316877 0.02179302 0.08919269
000040 7d 51 97 3d 53 77 91 3d bf 51 b5 3d 95 03 8a 3c
       0.073885895 0.071028374 0.088534825 0.016847411
000050 82 77 a9 bc 77 58 0b 3d 27 6e 8e 3d 71 b4 a2 3c
       -0.020686869 0.034019914 0.06954604 0.019861432
000060 76 6a b3 3c 08 88 66 bc 9d 4b cd 3d 16 e4 64 3d
       0.02190135 -0.014070518 0.10024188 0.055881582
000070 a5 79 48 3d 56 56 c1 3d a6 27 0f 3d 50 63 ba 3c
       0.048944134 0.094402954 0.03494992 0.022752434

fc3.weight f4 [2, 32]
000000 19 25 b9 bd e5 6a 4c 3e cd e7 5c 3e 62 c1 a1 bd
       -0.09040279 0.19962652 0.215728 -0.07898213
000010 03 0e 54 3e 96 ed 55 3e 47 ec 22 be d4 6f 8a 3e
       0.2070847 0.20891413 -0.15910445 0.27038443
000020 18 c0 1b 3e 83 be 62 3e b5 ad 68 3e 8a 6d 82 3e
       0.15209997 0.22142987 0.22722514 0.25474197
000030 fe 4f 87 be e4 8e 5d 3e 15 3e 56 be dd 67 d9 3d
       -0.26428217 0.2163654 -0.2092212 0.106155135
000040 37 5b 08 3d 54 5b 5e 3e d3 85 51 3e 1c 4e 81 bc
       0.033290114 0.21714526 0.20461206 -0.015784316
000050 25 d3 2d be c3 bc 7b bd 5b b9 ae 3d 48 d7 57 be
       -0.16975076 -0.061459314 0.085314475 -0.21078217
000060 c7 77 43 bd c9 0f 78 be 9a 47 8a be 9e 08 41 3e
       -0.04772165 -0.24224772 -0.27007753 0.18850943
000070 79 d2 4c be d6 2a 13 3d df b5 ec 3d b6 d1 58 be
       -0.20002164 0.035929523 0.11558127 -0.21173748
000080 dc 3b 6a 3e e7 48 85 bd 6a ee f5 bd d2 b9 5b 3e
       0.22874397 -0.06508046 -0.120083645 0.21457604
000090 f1 af 81 be fd b0 f2 bd a9 4e 44 3e f7 95 cd bd
       -0.25329545 -0.11850164 0.19170631 -0.10038369
0000a0 b2 53 8a bd 4a 82 b3 bd 53 f4 61 bd a7 a0 8f bd
       -0.06754245 -0.08765085 -0.055164646 -0.07013064
0000b0 ba 35 eb 3d 54 57 d5 bd 54 1a 82 3e b7 29 5f be
       0.11484857 -0.10417047 0.25410712 -0.21793257
0000c0 7e 00 80 be 72 44 75 bd d9 b7 f8 39 ad 0a 83 3e
       -0.25000376 -0.059879728 0.00047439223 0.25594082
0000d0 97 a8 11 3e 6c 7b 68 3e 4a 65 3f be 23 1a 7b 3e
       0.14224468 0.22703332 -0.18690982 0.24521689
0000e0 84 6f 84 3e 13 c2 ce 3d 3d 8b e4 ba e1 a9 0d be
       0.2586633 0.100956105 -0.0017436516 -0.13834335
0000f0 f9 33 e0 3d 17 49 80 be a4 eb 5a be 75 83 5d 3e
       0.10947413 -0.25055763 -0.21378952 0.21632178

fc3.bias f4 [2]
000000 d4 1e 55 be 0a 94 ca bd
       -0.20812541 -0.098915175
