LSTM_Attn/lstm_attn.pt (torch_old, 960986 bytes, 10 tensors)

lstm.weight_ih_l0 f4 [512, 300]
0	0x3ddca704	0.10774043
1	0xbd91a1ce	-0.0711094
2	0xbdc52ea0	-0.09628034
3	0x3d7d6d10	0.06187159
4	0x3dfedd26	0.124445245
5	0x3d8ffe41	0.07030917
6	0x3c2add55	0.010428746
7	0x3c88af5a	0.016685177
8	0x3def7b02	0.11693384
9	0x3d2d2f0b	0.04228119
10	0xbd2371cd	-0.03990345
11	0xbda29c82	-0.07940008
12	0x3e5a06a0	0.2129159
13	0x3d9039ea	0.07042296
14	0x3ce312e0	0.027718961
15	0xbd951c2c	-0.07280764
16	0x3d54b348	0.05192879
17	0x3d48b33c	0.048999056
18	0xbd9db1e7	-0.07699948
19	0x3dacd0c9	0.0843826
20	0xbdf32226	-0.11871748
21	0x3d621b9f	0.055202123
22	0x3dcf244f	0.10114347
23	0x3cf22bc9	0.029561894
24	0x3d38a789	0.04508165
25	0xbd9f3fad	-0.07775817
26	0xbd69fe0a	-0.057127036
27	0xbd8b4c08	-0.06801611
28	0xbd8cfb29	-0.068838425
29	0x3d5f3849	0.054497037
30	0xbca79fa6	-0.020461868
31	0x3b05c656	0.0020412407
32	0xbc9d17c7	-0.019176377
33	0x3dcca9e1	0.09993339
34	0x3d824c7d	0.06362245
35	0xbd36841a	-0.044559576
36	0x3da0bd2e	0.07848583
37	0xbccc80a0	-0.024963677
38	0xbcae5033	-0.021278476
39	0xbcbc1518	-0.022959277
40	0x3d1a672d	0.037696052
41	0x3e0d6dd1	0.13811423
42	0x3e18bfee	0.14916965
43	0x3c223ad0	0.009901717
44	0xbbf8e8bb	-0.007596103
45	0x3d61436b	0.054995935
46	0xbdc9f5c1	-0.09861327
47	0xbc11f1a8	-0.008907713
48	0x3ba87b99	0.005141687
49	0xbc8fd37a	-0.017556895
50	0xbdc89168	-0.09793359
51	0x3dac5c89	0.08416087
52	0x3cb89582	0.022532228
53	0xbb46d347	-0.0030338333
54	0x3ce1b1b6	0.02755056
55	0xbdea10de	-0.114289984
56	0xbd909151	-0.07058967
57	0x3dac8539	0.08423848
58	0xbd7ef4f9	-0.062245343
59	0xbe17436f	-0.14771818
60	0x3d30a1a4	0.043122903
61	0xbdc5e253	-0.096623085
62	0x3d023d0d	0.031796504
63	0x3d9410f3	0.07229795
64	0xbe27563d	-0.16341491
65	0x3c91edef	0.01781365
66	0xbbbbb566	-0.0057284115
67	0xbbc9050e	-0.006134636
68	0xbccbd453	-0.024881518
69	0x3d83aa38	0.06428951
70	0xbe02e349	-0.12782015
71	0x3c1c0d0d	0.009524596
72	0xbda99861	-0.08281017
73	0xbe04c64f	-0.12966274
74	0xbc817c67	-0.01580639
75	0x3cb55c10	0.022138625
76	0xbb5c9b03	-0.003366173
77	0xbdb5a2d2	-0.08868946
78	0xbd6e675f	-0.05820405
79	0xbcf8cf43	-0.030372268
80	0xbbb91aae	-0.0056489324
81	0xbc9388c0	-0.018009543
82	0x3d10389b	0.035210233
83	0xbd0b49ad	-0.03400581
84	0x3da73ec9	0.08166272
85	0xbd8120d3	-0.06305089
86	0xbda8b278	-0.08237165
87	0x3c9f003e	0.019409295
88	0x3e182ea2	0.14861539
89	0x3d741933	0.059594344
90	0x3c992063	0.018692201
91	0xbdb41bcc	-0.08794364
92	0x3d8f88be	0.070085034
93	0xbe136c88	-0.1439687
94	0xbd6050e1	-0.054764632
95	0x3baf0583	0.005341233
96	0x3d1dbf23	0.03851236
97	0x3de885b5	0.113536276
98	0x3d076f45	0.0330651
99	0x3ca74cb8	0.020422325
100	0x3dc73001	0.09725953
101	0xbd8822c8	-0.06647259
102	0x3db1ac7d	0.08675478
103	0xbd83d13e	-0.06436394
104	0x3dbe5935	0.09294359
105	0x3d734fd8	0.059402317
106	0xbd5a3f71	-0.05328316
107	0xbdcc3c00	-0.099723816
108	0x3cf1afd6	0.02950279
109	0xbce427c8	-0.027851
110	0xbbff3c4f	-0.0077891718
111	0xbd65a13f	-0.05606198
112	0xbd0fb349	-0.03508309
113	0x3d273b71	0.040828172
114	0x3c9e3209	0.019310968
115	0x3d8f718f	0.070040815
116	0x3bdd4361	0.006752417
117	0x3dc7d9f2	0.09758367
118	0x3d2b2c98	0.041790575
119	0x3e1a4c2c	0.1506812
120	0xbd102930	-0.03519553
121	0xbdcee31b	-0.10101911
122	0x3a66dacd	0.00088064076
123	0xbdf33a54	-0.118763596
124	0xbd17d756	-0.037070595
125	0xbd04d377	-0.03242823
126	0xbc1b6aa7	-0.009485877
127	0x3dbe8154	0.09302011
128	0xbd9f7615	-0.07786194
129	0x3cc40f5f	0.02393311
130	0xbe22c9ef	-0.15897344
131	0xbcf7ff52	-0.030273113
132	0x3c485c30	0.01222901
133	0x3d2203ec	0.03955452
134	0x3c3265c1	0.010888518
135	0x3dc808d1	0.097673066
136	0x3d92255f	0.07136034
137	0x3e23cbee	0.15995762
138	0x3d31005d	0.043213237
139	0x3dd26f8b	0.102751814
140	0x3d1d80ef	0.03845304
141	0xbdb389b5	-0.087665
142	0xbcc1868d	-0.02362373
143	0x3d478e68	0.048719794
144	0xbd81cb30	-0.06337583
145	0x3e09cf7b	0.13458054
146	0x3d2cbcc8	0.042172223
147	0x3cefcb0b	0.029271623
148	0xbdb43255	-0.087986626
149	0xbdd19828	-0.102340996
150	0x3d0d5f2d	0.034514595
151	0x3d5e82ad	0.05432384
152	0x3e0b0e0a	0.13579574
153	0xbcaf6887	-0.021412147
154	0xbcf52761	-0.029926004
155	0x3d6a082e	0.057136707
156	0x3cf364ae	0.029711094
157	0xbcb4b8c5	-0.022060761
158	0xbcfd8b5a	-0.030950237
159	0xbcd04fbe	-0.025428649
160	0xbe24b2ad	-0.16083784
161	0x3e0d80c4	0.13818651
162	0x3caab9f7	0.020840628
163	0x3d354fc0	0.04426551
164	0xbe029a94	-0.1275428
165	0x3c0076a5	0.007840787
166	0x3d74bc7c	0.059750065
167	0x3a0440a9	0.00050450355
168	0x3d31f564	0.043446913
169	0xbbf2fcff	-0.0074154134
170	0x3d3d3dfd	0.046201695
171	0xbddc6f0b	-0.10763367
172	0x3cc90622	0.024539057
173	0xbced40e1	-0.0289616
174	0xbc40a29f	-0.011757522
175	0x3cb4302d	0.021995628
176	0x3d261472	0.040546842
177	0x3d8c8fdd	0.06863377
178	0xbe1e96cc	-0.15487212
179	0xbdc35f09	-0.09539611
180	0x3d2e243d	0.04251503
181	0xbc0688d6	-0.008211335
182	0xbcb22350	-0.021745354
183	0x3a9bf1aa	0.0011897583
184	0x3df15939	0.11784596
185	0xbac96793	-0.001536595
186	0x3da2a56d	0.07941709
187	0xbdfafb59	-0.12254972
188	0x3d589a86	0.05288174
189	0x3d9d7d3b	0.076899014
190	0x3dc900a0	0.09814572
191	0xbd835d0a	-0.0641423
192	0x3d29a777	0.041419473
193	0xbd52483b	-0.051338416
194	0xbe11e0a4	-0.1424585
195	0x3c53ff31	0.01293926
196	0x3e1b9e79	0.15197171
197	0x3dc6eb37	0.097128324
198	0x3d3f9ba0	0.046779275
199	0xbd536188	-0.051606685
200	0xbdd20cec	-0.10256371
201	0xbddde0ac	-0.108338684
202	0xba831bb7	-0.0010002767
203	0x3ced1cab	0.028944334
204	0xbe1eb251	-0.1549771
205	0xbda4a11b	-0.08038541
206	0x3d01c934	0.031686023
207	0xbd32b5e3	-0.043630492
208	0x3d90fb44	0.07079175
209	0xbd9902c0	-0.07471228
210	0x391b0358	0.00014783198
211	0xbd6d832c	-0.057986423
212	0xbbfc655a	-0.0077025117
213	0x3d944dca	0.072413996
214	0x3da714ec	0.081582874
215	0xbce78b4f	-0.02826467
216	0xbd11a650	-0.035559
217	0xbce7e382	-0.028306726
218	0xbbdf9771	-0.006823473
219	0xbd7008cc	-0.05860214
220	0xbda2a005	-0.079406776
221	0xbe1c4fb3	-0.15264778
222	0x3d48e45f	0.049045917
223	0x3d52a0ce	0.051422887
224	0x3d0e028b	0.034670394
225	0xbb9e464f	-0.004830159
226	0xbdcfefe4	-0.101531774
227	0x3d2f03be	0.04272818
228	0xbd2046fa	-0.03913019
229	0x3cd9c4f2	0.026583169
230	0xbe37b64b	-0.17940633
231	0x3e22fde5	0.15917166
232	0x3df1a44d	0.11798916
233	0xbca2ed8f	-0.019888667
234	0xbb44a92e	-0.0030008066
235	0x3dd48f2a	0.10378869
236	0x3d9a2656	0.07526843
237	0x3c6b82d2	0.014374452
238	0xbd4e3ec6	-0.050352834
239	0x3d539877	0.051659074
240	0xbcb082c9	-0.021546738
241	0x3dda6e0e	0.106655225
242	0xbdffa721	-0.12483049
243	0x3d90ac90	0.07064164
244	0x3d624090	0.055237353
245	0xbd742170	-0.0596022
246	0xbe0eb263	-0.13935237
247	0xbd3c0709	-0.045905147
248	0xbd1066f5	-0.035254437
249	0xbdd142af	-0.10217797
250	0xbd5d69ea	-0.054056086
251	0xbcf5ee79	-0.03002094
252	0x3dcf0e27	0.10110121
253	0xbcb08892	-0.021549497
254	0x3c99ed45	0.018789897
255	0x3d821419	0.063514896

lstm.weight_hh_l0 f4 [512, 128]
0	0x3dacc625	0.084362306
1	0xbc1a3daa	-0.009414116
2	0xbbff9c1a	-0.007800591
3	0x3d670ad6	0.05640682
4	0xbd0702e7	-0.032961752
5	0x3e189f88	0.14904606
6	0x3d99e844	0.07515004
7	0x3d8a92fa	0.06766315
8	0x3cca50f8	0.024696812
9	0xbcf2894e	-0.029606488
10	0xbd5b14f2	-0.053486772
11	0x3dd25db2	0.10271777
12	0xbdd69e91	-0.10479463
13	0xbd89fa7d	-0.0673723
14	0xbc800dbb	-0.015631547
15	0x3c893453	0.016748583
16	0xbc73b0dc	-0.0148737095
17	0xbd23e608	-0.040014297
18	0x3e60cbc5	0.21952732
19	0x3daab277	0.08334821
20	0x3df356a3	0.11881759
21	0xbc91cf65	-0.017799089
22	0xbc36bb4c	-0.0111530535
23	0x3d7bb8c8	0.061455518
24	0x3b97d264	0.004633235
25	0xbd72595e	-0.05916726
26	0xbbb029fd	-0.005376099
27	0xbce4d5d2	-0.027933989
28	0xbd9d32d2	-0.07675709
29	0xbd3181dc	-0.043336734
30	0x3da83117	0.08212488
31	0x3d625422	0.055256017
32	0xbcfd747a	-0.03093933
33	0x3d9b499b	0.075823985
34	0xbca29742	-0.019847516
35	0x3db7f2af	0.08981835
36	0xbe02a927	-0.12759839
37	0x3c8fde0d	0.017561937
38	0xbdc39161	-0.09549213
39	0xbd2e41ee	-0.042543344
40	0x3dd67d01	0.10473061
41	0x3dcda564	0.100413114
42	0xbd061ca0	-0.032742143
43	0x3e3b3e08	0.18285382
44	0xbd4ccfa9	-0.050002728
45	0x3e2ff3c8	0.17182839
46	0x3df3fe1f	0.11913704
47	0x3d35e9f5	0.044412572
48	0x3d93653f	0.071970455
49	0xbce3b4ce	-0.027796175
50	0x3c2ee0ba	0.010673696
51	0xbd3ef5a6	-0.046620987
52	0x3d4ff373	0.05076928
53	0x3deab7ee	0.11460863
54	0xbdfe1577	-0.12406438
55	0x3c22d71f	0.009938984
56	0xbd742e12	-0.05961425
57	0x3d265f2a	0.0406181
58	0x3c7cc311	0.015427367
59	0x3dd645d9	0.10462541
60	0x3d9952af	0.07486474
61	0x3c5e1d24	0.013556752
62	0x3d31a32c	0.043368503
63	0xbd3fa8cb	-0.046791833
64	0xbddf7e68	-0.10912782
65	0x3d801dae	0.06255661
66	0xbc9b7e7a	-0.018981207
67	0xbd22cc1d	-0.03974544
68	0x3d72e210	0.05929762
69	0x3d3f93a1	0.04677165
70	0x3db568ff	0.08857917
71	0xbda87d9f	-0.08227085
72	0x3dbe7bd6	0.093009636
73	0xbcaf271e	-0.021380957
74	0x3d87c37f	0.06629085
75	0x3d0b39c3	0.033990633
76	0x3caa962d	0.020823563
77	0x3cc463ca	0.023973364
78	0x3dd71f2f	0.10503995
79	0x3cb8df11	0.022567304
80	0xbd8a09f5	-0.067401804
81	0xbd2eb062	-0.04264868
82	0x3d4bc8e9	0.04975215
83	0xbcba7f53	-0.022765791
84	0xbd818c4d	-0.063255884
85	0x3d916e3a	0.07101102
86	0x3c45636e	0.012047632
87	0x394e23d0	0.00019659032
88	0x3bf84236	0.0075762523
89	0xbd32382a	-0.043510593
90	0x3d87469b	0.06605264
91	0x3dc2ee73	0.09518137
92	0xbd2f6ac4	-0.04282643
93	0x3dd75b43	0.10515454
94	0xbceaf4a1	-0.028681101
95	0xbc1aa326	-0.009438312
96	0x3d198b70	0.037486494
97	0x3df970c4	0.121797115
98	0x3d94b79b	0.072615825
99	0x3c85d30b	0.016335985
100	0xbd991568	-0.07474786
101	0xbd903cb5	-0.07042829
102	0x3c5abb35	0.013350298
103	0xbd1077e9	-0.035270605
104	0x3c1375b0	0.009000227
105	0x3d20fd5b	0.03930412
106	0xbdcd49c7	-0.100238375
107	0x3d286079	0.04110763
108	0xbe0817a9	-0.13290276
109	0x3c721049	0.0147743905
110	0xbce678c8	-0.028133765
111	0xbdd330ef	-0.10312068
112	0x3d97da06	0.074146315
113	0xbca59b57	-0.020215673
114	0x3d3b5f46	0.045745157
115	0x3b62f5d0	0.003463138
116	0x3d154e31	0.036451522
117	0xbda57fe6	-0.08081035
118	0x3d20adc5	0.03922822
119	0xbd952e45	-0.07284216
120	0x3dd16ac5	0.10225443
121	0xbe0dd339	-0.13850106
122	0x3b696089	0.0035610518
123	0x3d9270f0	0.07150447
124	0xbcd34cff	-0.02579355
125	0xbc393fa2	-0.011306675
126	0xbcba697f	-0.022755383
127	0x3d9b4c76	0.07582943
128	0xbd23e382	-0.04001189
129	0x3c6abf47	0.014327831
130	0xbd8f00ec	-0.06982598
131	0xbd4f82bf	-0.0506618
132	0x3e220729	0.15823044
133	0xbc8f940b	-0.017526647
134	0x3cd70462	0.026247207
135	0x3e0e4a61	0.13895561
136	0xbe276da8	-0.16350424
137	0x3cdaa6ab	0.026690802
138	0x3db34194	0.087527424
139	0x3beffde0	0.0073239654
140	0x3d86a67b	0.065747224
141	0xba823a8e	-0.0009935664
142	0xbdfc1f79	-0.123106904
143	0xbe05d691	-0.13070132
144	0xbb942321	-0.0045207893
145	0xbdaf36f4	-0.08555403
146	0x3db98815	0.09059159
147	0x3d824541	0.063608654
148	0x3cdbac6f	0.026815621
149	0x3df2c0ac	0.118531555
150	0x3cdb4283	0.026765114
151	0xbc0fdf8b	-0.008781324
152	0x3c952196	0.018204492
153	0xbdfd22d6	-0.1236016
154	0x3e38ea2a	0.18058077
155	0xbd5548d4	-0.052071407
156	0xbd34bf28	-0.044127613
157	0xbd1f201f	-0.038848992
158	0xbc8b05a2	-0.01697046
159	0xbd88dab3	-0.066823386
160	0x3da5abe6	0.08089428
161	0x3cbb8604	0.022891052
162	0xbd20a18b	-0.03921656
163	0xbd1d28f0	-0.03836912
164	0xbde03af4	-0.109487444
165	0x3c18fc24	0.009337459
166	0x3d88cd98	0.06679839
167	0x3dc6dd65	0.097101964
168	0x3e080aec	0.13285416
169	0x3d617327	0.05504146
170	0xbd87b4e5	-0.066263
171	0xbd90fbb8	-0.070792615
172	0x3da27a76	0.07933514
173	0x3d30672a	0.043067135
174	0x3cb2fb8e	0.021848466
175	0xbd1a357d	-0.037648667
176	0x3d9d5abb	0.07683321
177	0xbd1e346e	-0.03862422
178	0xbd9a62d3	-0.075383805
179	0xbc9a3033	-0.018821811
180	0x3d88b1c3	0.0667453
181	0xbe09f705	-0.13473137
182	0xbde3e2b6	-0.11127226
183	0x3d0528b3	0.032509517
184	0xbd967e84	-0.0734835
185	0xbd8d8a7a	-0.06911178
186	0xbd7237f1	-0.05913538
187	0x3d55073f	0.052008864
188	0x3d52a4c7	0.051426675
189	0xbd8e4196	-0.06946103
190	0xbcd4e3ad	-0.02598747
191	0xbdcd117c	-0.100131005
192	0xbd33832f	-0.04382628
193	0x3dc7ccf7	0.09755891
194	0xbc8deede	-0.017325815
195	0xbdfbdab0	-0.12297571
196	0x3c804d73	0.01566193
197	0xbcf4611c	-0.029831462
198	0xbda2fd89	-0.07958514
199	0xbe24dc98	-0.16099775
200	0x3e5903e0	0.21192884
201	0xbc9e3f06	-0.019317161
202	0xbd2e5eff	-0.042571064
203	0xbd99583f	-0.07487535
204	0x3ce85249	0.02835955
205	0x3d2e0cee	0.0424928
206	0x3d66e9dc	0.05637537
207	0xbca1cfb8	-0.019752368
208	0xbe0e59a6	-0.13901386
209	0x3d962b5e	0.073324904
210	0x3cad16b6	0.021128993
211	0xbcff3377	-0.03115247
212	0xbd8f5f59	-0.07000608
213	0x3cb5706e	0.022148337
214	0x3d8ec724	0.06971577
215	0x3cb8ac98	0.022543237
216	0x3d4eba27	0.050470497
217	0x3e32513c	0.17413801
218	0xbd5aa0bd	-0.05337595
219	0x3e059415	0.1304477
220	0xbddf4a96	-0.10902898
221	0x3dcd9c26	0.100395486
222	0xbd52405c	-0.05133091
223	0xbe164a95	-0.14676888
224	0xbdeaf7bc	-0.11473033
225	0x3d52cd27	0.05146518
226	0xbccda91d	-0.025105054
227	0x3c313f6b	0.010818343
228	0xbe0e420d	-0.13892384
229	0xbda70348	-0.08154923
230	0xbd359fb3	-0.044341754
231	0x3d8a493c	0.067522496
232	0x3cb4df3b	0.0220791
233	0xbd02da7a	-0.031946637
234	0xbdf07c17	-0.11742418
235	0xbdd8f046	-0.105927035
236	0xbe094277	-0.1340426
237	0x3ce435ed	0.027857745
238	0xbda8a158	-0.08233899
239	0xbe31f14f	-0.17377208
240	0x3d37dd7b	0.044888955
241	0xbdfb74d8	-0.122781456
242	0xbc8ac429	-0.01693924
243	0xbd4a1db4	-0.049344733
244	0xbdaaaaca	-0.08333357
245	0x3df4e1ef	0.11957156
246	0xbd17066a	-0.03687135
247	0xbd87a4d9	-0.06623239
248	0x3caadb16	0.020856421
249	0xbd6ddf69	-0.05807439
250	0xbdb1b294	-0.08676639
251	0x3e1d731a	0.15375939
252	0x3c8116ef	0.015758006
253	0xbd46590d	-0.04842477
254	0xbd7278cc	-0.059197232
255	0xbd254ea8	-0.040358216

lstm.bias_ih_l0 f4 [512]
0	0x3dab7148	0.08371216
1	0xbc5438c1	-0.012952984
2	0xbdc6e4ce	-0.0971161
3	0xbbf43338	-0.007452395
4	0x3d64ffc3	0.055907976
5	0x3c97ff86	0.01855446
6	0xbddd4c4d	-0.10805569
7	0xbce89116	-0.028389495
8	0x3d04d0b2	0.03242559
9	0x3d441448	0.047870904
10	0xbd0f6e46	-0.035017274
11	0x3d7c9526	0.061665677
12	0x3d4e0a5b	0.050302844
13	0xbd40d9d3	-0.047082733
14	0xbd9b04d5	-0.07569281
15	0xbdfd0662	-0.12354733
16	0x3c4339b3	0.011915612
17	0xbc0ab96f	-0.008467062
18	0x3ce4830f	0.027894525
19	0xbd92c55c	-0.071665496
20	0x3bb6342f	0.00556042
21	0xbd10522c	-0.035234615
22	0xbda806a7	-0.08204394
23	0x3c1dda18	0.009634517
24	0xbd8068e9	-0.0627001
25	0x3dc7dfbf	0.09759473
26	0x3d0d1733	0.034445953
27	0x3d320c26	0.043468617
28	0xbd34c836	-0.04413625
29	0x3aac690c	0.0013153865
30	0xbb878874	-0.0041361395
31	0x3ca4d8f1	0.020122977
32	0xbd1e61b3	-0.038667392
33	0xbce79f9e	-0.028274354
34	0xbcf434b7	-0.029810293
35	0x3ca138b9	0.019680368
36	0xbd914dd9	-0.070949264
37	0x3c657ac9	0.014006325
38	0xbcdb08e8	-0.026737645
39	0xbd498172	-0.049195714
40	0x3d0d6f03	0.034529697
41	0x3c667060	0.014064878
42	0xbddab91f	-0.1067984
43	0xbd55aa8c	-0.0521646
44	0xbdb4950f	-0.08817493
45	0x3d86d8dc	0.065843314
46	0x3b32698d	0.0027223558
47	0xbdda3a86	-0.10655694
48	0xbd812c9a	-0.06307335
49	0xbdd41804	-0.10356143
50	0xbc94dc1d	-0.018171364
51	0xbd22a6f9	-0.03971002
52	0xbd6a55fe	-0.057210915
53	0xbc9aa880	-0.018879175
54	0xbca0217d	-0.019547218
55	0xbcd1eb53	-0.025624907
56	0xbd8f5c7c	-0.07000062
57	0x3cb334e1	0.0218758
58	0xbd29ddf9	-0.041471455
59	0x3d3b54f9	0.045735333
60	0xbabe9946	-0.0014541529
61	0x3d62f5b5	0.055410106
62	0x3d24e604	0.040258422
63	0x3d760ecb	0.0600727
64	0xbdb35374	-0.08756152
65	0xbd653a2e	-0.055963688
66	0xbdecbe56	-0.11559741
67	0x3d4da7c1	0.05020881
68	0x3c20523c	0.009785231
69	0xbd8701d9	-0.06592149
70	0xbd2f0590	-0.042729914
71	0x3d014a0b	0.031564754
72	0xbcc0cc6a	-0.023534972
73	0x3d4d355e	0.050099723
74	0x3dc89bfc	0.09795377
75	0xbdd30cba	-0.10305162
76	0x3c1d05fc	0.009583946
77	0x3d1be922	0.03806413
78	0xbd890cff	-0.06691932
79	0xbc8dcf07	-0.017310632
80	0xbc3ae18d	-0.011406315
81	0xbda78518	-0.081796825
82	0xbc1c06a6	-0.0095230695
83	0x3d0cf03c	0.034408793
84	0x3c992762	0.018695537
85	0xbbd68622	-0.0065467516
86	0xbdae5d0f	-0.08513843
87	0xbdb4e9c6	-0.08833651
88	0xbdd40a35	-0.10353509
89	0xbdef9405	-0.11698154
90	0x3bdbf2cf	0.0067122946
91	0x3c6657b4	0.014058996
92	0xbda40770	-0.08009231
93	0xbd8521b4	-0.06500569
94	0xbc9df58e	-0.019282129
95	0x3d2fb978	0.042901486
96	0xbd075cf7	-0.033047643
97	0xbca935fa	-0.02065562
98	0xbe0fbded	-0.14037295
99	0xbd0de560	-0.034642577
100	0xbb9bfbbb	-0.004760233
101	0xbb870b49	-0.0041212183
102	0x3d3a7632	0.045522876
103	0x3d9153f9	0.07096095
104	0xbdc8aee1	-0.097989805
105	0x3ab553b4	0.001383415
106	0xbdc20f51	-0.094755776
107	0x3ddb9203	0.10721209
108	0xbd989a1c	-0.07451269
109	0xbd6f842e	-0.058475666
110	0xbe10ed2b	-0.14152972
111	0xbd709a5b	-0.058740955
112	0x3d91974f	0.07108938
113	0xbd96d76d	-0.07365308
114	0xbd0545ca	-0.03253726
115	0x3cb28bc9	0.02179517
116	0x3b6fd655	0.0036596258
117	0xbdb78f2f	-0.08962857
118	0xbdf6db64	-0.12053564
119	0x3d6336f9	0.055472348
120	0xbd66bbff	-0.05633163
121	0xbbf62e40	-0.0075128376
122	0x3d82ce5b	0.063870154
123	0xbd7a2337	-0.06106874
124	0x3d484b4b	0.04889993
125	0x3d013867	0.03154793
126	0x3d3d6eea	0.046248354
127	0x3b4a888e	0.0030904147
128	0x3dd3cd7b	0.10341927
129	0x3e21f7db	0.15817206
130	0x3d8759cb	0.066089235
131	0x3e1118f2	0.14169672
132	0x3de40461	0.11133648
133	0x3d316044	0.043304697
134	0xbb9e4c4a	-0.0048308717
135	0xbc8cb823	-0.017177647
136	0x3d2d1ed8	0.042265743
137	0x3d70d4c5	0.058796663
138	0x3dd9d845	0.10636953
139	0x3de0ac7e	0.109704
140	0x3d071444	0.03297831
141	0x3e0a8498	0.13527143
142	0x3e09dd41	0.13463308
143	0x3db9da3e	0.090748295
144	0x3d940dd7	0.07229202
145	0x3d933783	0.071883224
146	0xbc3238cb	-0.010877798
147	0x3d682172	0.05667252
148	0x3d94f737	0.07273715
149	0x3d8389c6	0.064227626
150	0xbd19871a	-0.03748236
151	0x3d99cfe9	0.07510359
152	0x3e191962	0.14951089
153	0x3dbcc04c	0.09216365
154	0x3cdd759d	0.027033621
155	0xbdde1786	-0.108443305
156	0x3c23fb82	0.010008695
157	0xbc95a740	-0.018268228
158	0xbcad7620	-0.02117449
159	0x3cea0588	0.02856709
160	0x3d179f9c	0.03701745
161	0x3daf5bb2	0.08562411
162	0x3e231843	0.15927224
163	0x3d77c750	0.060492814
164	0x3e01e32d	0.12684317
165	0x3d8e667c	0.06953141
166	0x3a87b3f1	0.0010353309
167	0x3dd2f52e	0.103006706
168	0x3d241112	0.040055342
169	0x3e2d6243	0.16932015
170	0xbc881aa0	-0.016614258
171	0xbd397388	-0.045276195
172	0xbc75ddde	-0.015006511
173	0xbc54e392	-0.01299371
174	0x3df51f0c	0.11968812
175	0x3d2a92bd	0.041643847
176	0x3b97ddc1	0.0046345894
177	0x3e0547d2	0.13015679
178	0x3c502569	0.012704232
179	0xbcde1d44	-0.027113564
180	0x3cec4433	0.028841114
181	0x3ca38454	0.01996056
182	0x3d8d9027	0.069122605
183	0x3d28a35c	0.041171417
184	0x3d423408	0.047412902
185	0x3cce60fd	0.025192732
186	0x3d53a973	0.05167527
187	0x3d49303f	0.049118277
188	0x3d06f6f9	0.032950375
189	0x3c34fca7	0.011046565
190	0x3dd98e3f	0.106228344
191	0xbd050d38	-0.03248331
192	0x3d5d0019	0.05395517
193	0xbd56d06b	-0.052444857
194	0x3d580e60	0.052748084
195	0x3db7ef40	0.0898118
196	0x3d0971ed	0.033555914
197	0x3df87546	0.12131743
198	0x3d596238	0.053072184
199	0xbcc5aeae	-0.024131145
200	0x3c91ea80	0.017812014
201	0x3da50795	0.08058087
202	0x3bfa00a4	0.007629471
203	0x3dbab371	0.09116257
204	0x3c8f16e4	0.01746697
205	0xbb3f8902	-0.002922595
206	0xbbcb6239	-0.0062067774
207	0x3d9f384d	0.077744104
208	0xbcb0a212	-0.021561656
209	0xbbe409f4	-0.0069591943
210	0x3d8048da	0.06263895
211	0x3d84702a	0.06466706
212	0x3d222783	0.039588463
213	0x3daab54f	0.08335363
214	0x3cd0c01f	0.025482235
215	0x3d98d593	0.07462611
216	0x3d914cb8	0.07094711
217	0x3c236aa5	0.0099741565
218	0x3cda24e9	0.026628928
219	0x3de68300	0.11255455
220	0x3ca2d2c3	0.01987589
221	0x3dd2b3ec	0.102882236
222	0x3de798bd	0.113084294
223	0x3e0026ef	0.12514852
224	0x3db27a27	0.08714705
225	0x3d7e25ca	0.062047757
226	0x3e4e4700	0.20144272
227	0x3d3ecbeb	0.04658119
228	0x3df32d3c	0.11873862
229	0x3e0ec93c	0.13943952
230	0x3e20a4e7	0.15687905
231	0x3c66e370	0.014092311
232	0x3dc423c7	0.095771365
233	0x3e1177d2	0.14205864
234	0xbd431acc	-0.047632977
235	0x3d1ab5c2	0.037770994
236	0x3b23bf5b	0.0024985883
237	0x3df47428	0.119362175
238	0x3daa6a74	0.083210856
239	0x3db7be87	0.08971887
240	0x3b02c44b	0.0019953426
241	0x3e12dd79	0.14342298
242	0x3da88ee6	0.08230381
243	0x3e2173aa	0.15766779
244	0x3d80e523	0.06293704
245	0x3d7882c2	0.060671575
246	0xbc4f854e	-0.01266606
247	0xbd80f38b	-0.06296452
248	0x3e114d5b	0.14189665
249	0x3ce2eace	0.027699854
250	0x3d3e097f	0.046395775
251	0x3e145ebf	0.14489268
252	0x3dba266c	0.0908936
253	0x3e02512c	0.12726277
254	0x3e0c499c	0.13699955
255	0x3d357296	0.04429873

lstm.bias_hh_l0 f4 [512]
0	0x3c950c8d	0.018194461
1	0x3cf5d7cf	0.030010132
2	0xbdee6c69	-0.11641771
3	0xbd30afe2	-0.043136485
4	0xbd8750ba	-0.06607194
5	0xbde393bb	-0.11112162
6	0xbd0a333a	-0.03374026
7	0x3b5b45ba	0.0033458308
8	0xbda5cd81	-0.080958374
9	0xbd68433e	-0.056704752
10	0x3bd08175	0.0063630887
11	0xbd961993	-0.07329097
12	0xbdc92bc1	-0.098227985
13	0x3d9ab358	0.07553738
14	0xbd8a6dcb	-0.067592226
15	0xbe187f13	-0.14892225
16	0xbdb172aa	-0.086644486
17	0xbdcf36e7	-0.10117894
18	0x3d8ac533	0.06775894
19	0x3b634743	0.0034679926
20	0xbda78073	-0.081787966
21	0xbdab67ac	-0.08369383
22	0x3c16352a	0.009167949
23	0xbd2a3fd9	-0.041564796
24	0xbcc0ebb0	-0.023549885
25	0x3c14dd8e	0.009086026
26	0xbdbe708f	-0.092988126
27	0x3d3d109b	0.046158414
28	0xbdb96f0e	-0.09054385
29	0x3b319f32	0.0027102944
30	0x3d8eca50	0.06972182
31	0xbd5ab4a0	-0.053394914
32	0x3d9d5a8b	0.07683285
33	0x3cfe10b1	0.031013818
34	0xbd2e5b89	-0.042567763
35	0xbd4bf64b	-0.04979543
36	0x3c2f60bb	0.010704215
37	0x3d2dc8e5	0.042427916
38	0x3d7f4da4	0.062329903
39	0x3ca72915	0.020405332
40	0x3d25c3fe	0.040470116
41	0x3c11d0ea	0.008899907
42	0x3d23adb3	0.039960574
43	0xbbdf4045	-0.0068130814
44	0x3ceaecf4	0.028677441
45	0x3c94b001	0.018150331
46	0x3d4a859c	0.049443826
47	0x3c9ecf04	0.019385822
48	0x3cacb3f4	0.021081902
49	0xbd72717d	-0.059190262
50	0x3cd7b31f	0.026330529
51	0xbd6df7b8	-0.05809757
52	0x3d5c4e18	0.053785414
53	0x3a1fab6a	0.00060909113
54	0x3c95b261	0.018273534
55	0xbd5bd585	-0.053670425
56	0xbd9e003f	-0.07714891
57	0xbdb57b6c	-0.088614315
58	0x3d0397bd	0.03212713
59	0xbd5ece03	-0.054395687
60	0x3c8a26a2	0.016864125
61	0xbdbedf64	-0.09319952
62	0x3cc24dfd	0.023718828
63	0x3d74069b	0.059576612
64	0xbd41bbde	-0.047298305
65	0xbd114347	-0.03546455
66	0xbd65f168	-0.056138426
67	0xbdcf3d4e	-0.10119115
68	0xbde0e1be	-0.10980557
69	0xbcadfe89	-0.021239536
70	0x3ce4c11a	0.02792411
71	0xbd9cb05d	-0.07650826
72	0x3dacf455	0.0844504
73	0x3cb1781a	0.021663714
74	0x3d2845c1	0.041082148
75	0x3c0de673	0.0086609
76	0x3cf4d9e4	0.029889055
77	0xbd362a79	-0.0444741
78	0x3d26ac15	0.040691454
79	0xbdba46cb	-0.09095534
80	0x3ce439e9	0.027859645
81	0xbd582230	-0.05276698
82	0x3d9f159e	0.07767795
83	0xbd317353	-0.043322872
84	0xbdc63795	-0.0967857
85	0x3cab3141	0.02089751
86	0xbd0c67cb	-0.034278672
87	0xbd5c22b4	-0.053744033
88	0x3d5c3414	0.053760603
89	0xbde77525	-0.113016404
90	0x3da48701	0.080335625
91	0xbe0782af	-0.13233446
92	0xbd10a2f4	-0.035311654
93	0xbdf5ad49	-0.11995942
94	0x3c996cac	0.018728577
95	0x3c0fbea8	0.008773483
96	0x3d0bce38	0.034132212
97	0xbd071c7d	-0.032986153
98	0xbd25c8a4	-0.04047455
99	0x3d0a2814	0.033729628
100	0xbda16d3c	-0.07882163
101	0x3ccb38ea	0.024807412
102	0x3d02163b	0.031759482
103	0xbc87f68f	-0.01659706
104	0xbce47850	-0.0278894
105	0x3d45adc5	0.048261423
106	0x3c07ca7a	0.00828802
107	0x3d5e2179	0.05423114
108	0xbda36616	-0.07978456
109	0x3dac2f62	0.08407475
110	0xbcfd2275	-0.03090022
111	0x3d85fd3c	0.06542441
112	0x3c27dd4f	0.010245635
113	0xbc79f7fc	-0.015256878
114	0xbcd72585	-0.026263008
115	0x3cc21c82	0.023695234
116	0x3d4b58c2	0.049645193
117	0x3cce0309	0.025147932
118	0xbc3f373f	-0.011670887
119	0xbcdea7b3	-0.027179575
120	0x3be5a509	0.007008199
121	0xbdadeb7f	-0.08492183
122	0xbdd73761	-0.105086096
123	0xbdf32153	-0.118715905
124	0x3d461f42	0.048369654
125	0xbda22b76	-0.07918446
126	0xbcb39bad	-0.021924818
127	0x3d44c1e1	0.04803646
128	0x3d84ff2c	0.06493983
129	0x3e0ffd34	0.14061433
130	0x3d5586e2	0.052130587
131	0x3dc6bcd8	0.09703988
132	0x3e595dcb	0.21227185
133	0xbd4f7ed4	-0.050658062
134	0x3d13bb65	0.036067385
135	0x3d4f1ea1	0.05056632
136	0x3ca6676f	0.020312993
137	0x3e15c334	0.14625245
138	0x3e0ec855	0.13943608
139	0x3e03a88d	0.12857266
140	0x3d5a8c5f	0.053356525
141	0x3e0eea1b	0.13956492
142	0x3bca833a	0.006180194
143	0x3df752d8	0.12076348
144	0x3c05f7e4	0.0081767775
145	0x3e1be34a	0.15223423
146	0x3da8f2db	0.08249446
147	0x3e07be9c	0.13256305
148	0x3e036012	0.12829617
149	0x3d9ce8f7	0.07661622
150	0x3c2bbd44	0.010482136
151	0x3da8a0df	0.08233809
152	0x3dcd947b	0.10038086
153	0x3d4aa875	0.04947706
154	0x3cec12cb	0.028817555
155	0xbd84b91f	-0.064806215
156	0x3ccbca53	0.02487675
157	0xbc92d790	-0.017925054
158	0x3c8214ea	0.015879113
159	0x3da06c49	0.07833154
160	0x3e12e4f1	0.14345147
161	0x3e0411e5	0.12897451
162	0x3cb3244e	0.021867897
163	0x3e057246	0.13031873
164	0x3d8c13ad	0.0683969
165	0x3dd8f920	0.10594392
166	0x3db40072	0.087891474
167	0x3e21dade	0.15806147
168	0x3d5f2ef7	0.05448815
169	0x3e0ee0a8	0.13952887
170	0x3d908626	0.07056837
171	0xbd3b834b	-0.045779508
172	0x3bc03e87	0.005866829
173	0x3db53e5e	0.08849786
174	0x3d87cf69	0.06631357
175	0xbce72b64	-0.028218932
176	0x3d9cc05c	0.07653877
177	0x3e3552b5	0.17707331
178	0xbcecfec1	-0.02893007
179	0x3c636f01	0.013881446
180	0x3e2fd6f9	0.1717185
181	0x3e052312	0.1300166
182	0x3d92f0d9	0.07174844
183	0x3dc49b03	0.09599879
184	0x3cf30f2c	0.02967032
185	0xbd277745	-0.04088523
186	0xbcb4bb82	-0.022062067
187	0x3e110e4c	0.1416561
188	0x3db82000	0.089904785
189	0x3df3d216	0.11905305
190	0xbcf13a13	-0.029446637
191	0xbd2debc5	-0.042461175
192	0x3dcb28ae	0.099198684
193	0xbd4cfa2f	-0.05004328
194	0x3ddf5bda	0.10906191
195	0x3da2f40c	0.079567045
196	0x3d89c033	0.06726112
197	0x3d5e41a8	0.054261833
198	0x3dcb634f	0.09931051
199	0x3d4cefb9	0.050033305
200	0x3d90e338	0.070745885
201	0x3cae82db	0.021302631
202	0x3e108dce	0.14116594
203	0x3df6abc8	0.120444834
204	0xbcd6b96d	-0.026211465
205	0x3c3601d2	0.011108832
206	0x3d692a45	0.056925077
207	0x3c1ce0a1	0.00957504
208	0x3da3651c	0.079782695
209	0x3d5cb2a4	0.053881302
210	0x3dafd218	0.08584994
211	0x3c029de7	0.007972217
212	0x3d1a3c6f	0.03765529
213	0x3d8cbcf5	0.06871978
214	0x3da30d14	0.07961479
215	0x3b9e85c0	0.0048377216
216	0xbc75562e	-0.01497416
217	0x3d9cfe34	0.07665673
218	0xbd27f723	-0.041007172
219	0x3e0ee8e8	0.13956034
220	0x3dac6a34	0.08418694
221	0x3cc6255f	0.024187742
222	0x3d2a2e1b	0.041547876
223	0x3e053076	0.13006768
224	0x3e3140ea	0.17309919
225	0x3e0fbf52	0.14037827
226	0x3ddc021f	0.10742592
227	0xbd79f1a0	-0.061021447
228	0xbd2f3307	-0.042773273
229	0x3d24e39d	0.04025613
230	0x3d6df716	0.058096968
231	0x3d4b643c	0.049656138
232	0x3decb7a5	0.11558465
233	0x3e35296a	0.1769158
234	0x3d0ef16a	0.0348982
235	0x3df8ddf3	0.121517085
236	0x3e04a370	0.12952971
237	0x3c2f9190	0.010715857
238	0x3e63b9d9	0.22238864
239	0x3da11bff	0.07866668
240	0x3d6612d5	0.056170303
241	0x3dc24970	0.09486663
242	0x3e194a6c	0.14969796
243	0x3e241bc7	0.16026221
244	0x3db6c57e	0.089243874
245	0x3dee94ea	0.11649497
246	0x3d97b6bd	0.074079014
247	0x3d48dbe1	0.049037818
248	0x3dd4dd0a	0.10393722
249	0xbbda9e6d	-0.006671718
250	0xbc6eb24b	-0.014568876
251	0x3e0f8b9a	0.14018098
252	0x3cd8fce7	0.02648778
253	0xbc9d62d4	-0.019212164
254	0x3d41576a	0.047202505
255	0x3c5c517d	0.013447163

fc1.weight f4 [60, 256]
0	0xbde4f5d0	-0.111796975
1	0x3d52f46c	0.05150263
2	0x3d1d8505	0.038456935
3	0x3e060f92	0.13091877
4	0x3d938b31	0.07204283
5	0x3de80044	0.11328176
6	0x3da3737e	0.07981013
7	0xbcf7f1c0	-0.030266643
8	0xbbefd6a0	-0.0073192865
9	0x3d05685f	0.03257024
10	0x3dc2c075	0.095093645
11	0xbd160f09	-0.036635432
12	0xbd3e4c04	-0.046459213
13	0xbc52c2dd	-0.012863842
14	0x3d7f0cee	0.06226819
15	0x3d668767	0.056281473
16	0x3df52996	0.119708225
17	0x3bb63ce5	0.0055614584
18	0x3d9ffce5	0.07811908
19	0x3dad1e54	0.0845305
20	0xbd384d85	-0.044995803
21	0xbd478f65	-0.048720736
22	0x3b8fb5a8	0.004385669
23	0x3ca1a2fb	0.019731035
24	0x3d627667	0.0552887
25	0x3dc7705d	0.097382285
26	0x3b48110f	0.0030527746
27	0x3ead584d	0.3385643
28	0xbdcd823e	-0.10034607
29	0x3d4bbe05	0.049741764
30	0x3c36ca92	0.011156695
31	0xbdeac977	-0.114642076
32	0x3d5acc4d	0.053417493
33	0x3c783fab	0.015151898
34	0xbd84dada	-0.06487055
35	0x3e0301e2	0.12793687
36	0x3cddf1c5	0.027092824
37	0x3cbf9107	0.023384584
38	0x3d031758	0.032004684
39	0x3da42e57	0.08016651
40	0x3d41a935	0.04728051
41	0x3be4abea	0.0069785016
42	0xbd067013	-0.032821726
43	0xbcb83686	-0.022486936
44	0xbd8a8af9	-0.06764788
45	0xbc8a6b4c	-0.016896866
46	0x3d0b1a6a	0.033960737
47	0x3d6f3813	0.058403086
48	0xbd725829	-0.059166107
49	0xbd2d7f9e	-0.042358033
50	0x3d5d46dd	0.05402266
51	0xbd389eeb	-0.04507343
52	0xbbbb3967	-0.00571363
53	0x3d93e2f7	0.072210245
54	0x3c8e4bdc	0.017370157
55	0xbcf50f52	-0.029914532
56	0x3b97babe	0.0046304157
57	0x3df8871d	0.12135146
58	0xbcc0a287	-0.023515
59	0x3d85a709	0.06526
60	0x3e16db0d	0.14731999
61	0xbd96538e	-0.073401555
62	0x3d7ccdda	0.061719753
63	0x3d98d0b7	0.07461684
64	0x3caa8a1c	0.020817809
65	0x3dce5269	0.10074312
66	0x3d47b304	0.048754707
67	0xbd1aa068	-0.03775063
68	0x3c93ff65	0.018066118
69	0x3d673d91	0.0564552
70	0x3d87f640	0.06638765
71	0xbcf91d09	-0.030409353
72	0x39c7f7c9	0.00038140852
73	0x3cc10ef9	0.02356671
74	0xbd907d61	-0.07055164
75	0x3a062413	0.000511707
76	0xbcc01a5a	-0.023450065
77	0xbd9e3b2c	-0.0772613
78	0x3df17bab	0.11791166
79	0x3db40568	0.08790094
80	0xbcc64368	-0.024202064
81	0x3d13c6c9	0.03607825
82	0x3ccfbe77	0.025359375
83	0x3d269d79	0.04067752
84	0x3daf9ad0	0.0857445
85	0xbd75c977	-0.060006585
86	0x3d8c4dce	0.068507776
87	0xbd448a8a	-0.047983684
88	0xbb220997	-0.0024724954
89	0xbd362beb	-0.044475477
90	0xbb979fa3	-0.0046271845
91	0xbc2bbf2e	-0.0104825925
92	0xbd46440b	-0.048404735
93	0x3c979ec1	0.018508317
94	0xbc1bee50	-0.009517267
95	0xbc6d8ec0	-0.014499366
96	0xbc398040	-0.011322081
97	0x3d7706f7	0.060309377
98	0xbc40c6a3	-0.011766109
99	0x3cad9261	0.021187963
100	0xbe34f27c	-0.17670625
101	0x3ced4147	0.02896179
102	0x3c30fe8f	0.010802879
103	0x3c873043	0.016502505
104	0xbdc6247c	-0.096749276
105	0x3ca6b581	0.02035022
106	0xbb7fea7b	-0.0039049673
107	0x3da55f2b	0.080747925
108	0xbdb23d74	-0.087031275
109	0xbd2c5040	-0.04206872
110	0xbd0ad8ff	-0.03389835
111	0x3dca20e3	0.09869554
112	0xbcdc7410	-0.026910812
113	0xbcdf680b	-0.027271291
114	0x3c0eb381	0.008709789
115	0x3dff5abe	0.124684796
116	0xbd8d5b68	-0.069022
117	0x3da92920	0.08259797
118	0x3d8642ce	0.06555711
119	0x3db0f642	0.0864072
120	0xbad72daf	-0.0016416813
121	0xbc12fd09	-0.008971461
122	0x3d27f3bc	0.041003928
123	0x3dada406	0.084785506
124	0x3d0bef68	0.034163862
125	0xbd3956fa	-0.045248963
126	0x3d60cc5c	0.054882392
127	0x3d6d48d6	0.05793079
128	0xbdd79f84	-0.10528472
129	0x3dee1f99	0.116271205
130	0x3d1a33f9	0.03764722
131	0x3db3668d	0.087597944
132	0x3dca1ca0	0.09868741
133	0x3cf50652	0.02991024
134	0x3c89021d	0.01672464
135	0xbcdd8714	-0.02704195
136	0xbc8a9c82	-0.016920332
137	0xbd63deb4	-0.055632308
138	0x3da80297	0.08203619
139	0x3c721673	0.01477586
140	0x3c724575	0.014787068
141	0x3c07b362	0.008282514
142	0xba766438	-0.0009399089
143	0x3d74a06d	0.059723306
144	0x3d4f4df4	0.05061145
145	0xbd725b63	-0.059169184
146	0x3d0cb8a6	0.034355782
147	0x3d7e707a	0.062118985
148	0xbc15a19f	-0.009132772
149	0xbce2c073	-0.027679658
150	0x3bd774a9	0.0065751863
151	0x3dba5e0b	0.090999685
152	0x3dfbcf59	0.12295408
153	0x3d11e1ee	0.035615854
154	0x3cc3ad6c	0.023886405
155	0x3e8e51c4	0.27796757
156	0xbd98409c	-0.07434198
157	0xbcc27015	-0.023735086
158	0x3c9f502d	0.01944741
159	0xbe1d4ce6	-0.15361366
160	0x3b203ad8	0.0024449136
161	0x3b141f73	0.0022601753
162	0x3cd74751	0.026279123
163	0x3de492ab	0.11160787
164	0x3db67cb1	0.08910502
165	0x3d204a59	0.039133403
166	0x3ce6911f	0.028145371
167	0xbc2c2064	-0.010505769
168	0xbb9a1520	-0.0047022253
169	0xbd4f18bb	-0.050560694
170	0xbded9c7f	-0.11602115
171	0x3d94c6a2	0.07264449
172	0xbd64b5a4	-0.05583729
173	0x3ce9e511	0.02855161
174	0xbc764609	-0.015031346
175	0x3e02c80f	0.12771629
176	0xbd36a0cd	-0.044586945
177	0xbbc2c1ee	-0.0059435284
178	0xbd1c8cec	-0.03822033
179	0x3da5c818	0.080948055
180	0x3c463b4d	0.012099099
181	0x3dd7e922	0.105425134
182	0x3d35ae41	0.044355635
183	0x3ccd9095	0.025093356
184	0xbd4700d7	-0.048584785
185	0xbca138f6	-0.019680481
186	0xbcf10d2d	-0.029425228
187	0xbd7fd4e4	-0.062458888
188	0x3d632158	0.05545172
189	0x3cb84a1c	0.022496276
190	0xbcf13106	-0.029442322
191	0x3ca8b9f5	0.020596484
192	0xbd268242	-0.040651567
193	0x3dd54023	0.10412624
194	0x3d6c243a	0.057651736
195	0xbb11f904	-0.002227367
196	0xbc766848	-0.015039511
197	0x39b24b63	0.00034006973
198	0x3d296424	0.041355267
199	0xbad64b7d	-0.0016349402
200	0x3cc95466	0.024576377
201	0x3d2a0831	0.04151172
202	0x3d184491	0.037174765
203	0x3d07ce9c	0.033156022
204	0x3b09d61a	0.0021032155
205	0x3cc5eb84	0.024160154
206	0x3d6962ba	0.05697892
207	0xbd114a46	-0.035471223
208	0xbcd2e360	-0.025743186
209	0x3d1fc0b7	0.039002147
210	0x3c8c470c	0.017123722
211	0x3dc84cc4	0.09780267
212	0x3c551c6e	0.013007266
213	0xbbf181c8	-0.0073702075
214	0x3c2c2a6c	0.010508161
215	0xbd720cca	-0.059094228
216	0x3d3787c2	0.044807203
217	0xbd259c32	-0.040432163
218	0xbbf1add4	-0.0073754583
219	0x3c40d228	0.011768855
220	0xbcb40e53	-0.021979487
221	0x3c3a3d07	0.011367089
222	0xbd8ac304	-0.067754775
223	0x3d956784	0.07295135
224	0x3d52a627	0.051427986
225	0xbc75a61f	-0.01499322
226	0xbc00731b	-0.007839943
227	0xbce7fb95	-0.028318206
228	0xbe004187	-0.12524997
229	0x3df66dba	0.120326474
230	0x3dae034a	0.08496721
231	0xbcbfc63c	-0.023409955
232	0xbdb4dc85	-0.08831123
233	0x3d97de11	0.07415403
234	0xbcfac4a8	-0.030611351
235	0xbc930b97	-0.017949862
236	0xbdb605f1	-0.08887852
237	0xbd90ff36	-0.070799276
238	0x3c8ffad2	0.017575655
239	0x3d66da21	0.056360368
240	0x3c695640	0.014241755
241	0xbd840bfb	-0.064475976
242	0xb70ec36f	-8.5093625e-06
243	0x3e316609	0.1732408
244	0xbdac1fcb	-0.084045015
245	0x3d85d68d	0.06535063
246	0xbcb7824e	-0.022401001
247	0x3dc44a70	0.0958451
248	0x3dc330a4	0.09530762
249	0x3d1c1a9e	0.03811132
250	0x3e0c9219	0.13727607
251	0x3d793652	0.06084282
252	0xbd25afdb	-0.040450912
253	0xbd8da239	-0.06915707
254	0x3d88d57f	0.06681346
255	0x3e0aeedd	0.13567682

fc1.bias f4 [60]
0	0x3ccf6975	0.02531884
1	0x3da4c603	0.0804558
2	0x3cd66dae	0.026175346
3	0x3c19da34	0.009390403
4	0xbd0f0e53	-0.03492577
5	0xbc1bca03	-0.009508613
6	0xbccead77	-0.025229199
7	0x3dc09feb	0.09405502
8	0x3c980ef6	0.018561821
9	0x3d4880e8	0.04895106
10	0x3c8c1de2	0.017104093
11	0xbc199b96	-0.0093754735
12	0x3c9f3665	0.019435117
13	0xbca8079f	-0.020511447
14	0x3bdbcf32	0.006708049
15	0xb9ea2f27	-0.0004466709
16	0x3bc2f543	0.0059496476
17	0xbc04e5f9	-0.00811147
18	0x3d163ac8	0.036677152
19	0x3cc9d87f	0.024639366
20	0x3d51cb32	0.051219173
21	0xbd2e7ef8	-0.042601556
22	0x3c41bfbb	0.011825497
23	0xbd4797d6	-0.048728786
24	0x3cfe00a9	0.031006174
25	0x3c0abf3b	0.008468444
26	0xbbaf28a8	-0.005345423
27	0x3cf2b7ba	0.029628623
28	0x3d053aba	0.03252671
29	0xba829377	-0.0009962161
30	0xbd2d77ea	-0.042350687
31	0x3be30548	0.00692812
32	0x3d368494	0.04456003
33	0x3d747f76	0.05969187
34	0x3d90275a	0.07038756
35	0xbd45e107	-0.048310306
36	0x3dba0f9e	0.0908501
37	0x3ca610eb	0.020271739
38	0x3d556af7	0.052103963
39	0x3ddc46fd	0.107557274
40	0x3df6439e	0.12024616
41	0x3d9574c1	0.0729766
42	0x39d4cf23	0.0004059012
43	0x3de0bb7f	0.10973262
44	0x3d161477	0.03664061
45	0xbd016077	-0.031586137
46	0x3ba1efb4	0.004941905
47	0x3da8c302	0.0824032
48	0x3d321966	0.043481253
49	0x3d9cf9b8	0.076648176
50	0x3d71076b	0.058844965
51	0x3c52883b	0.012849863
52	0x3d019420	0.031635404
53	0x3dccf0c2	0.100068584
54	0x3dbf7a9b	0.09349557
55	0x3e0b6041	0.13610937
56	0x3da415a3	0.080119394
57	0x3e12d065	0.14337309
58	0x3d3fa3af	0.04678696
59	0x3d15dd5f	0.03658807

fc2.weight f4 [32, 128]
0	0x3da2ca8e	0.079487905
1	0xbd43c642	-0.047796495
2	0x3e027c3d	0.12742706
3	0xbe1bc662	-0.15212396
4	0xbd6e9294	-0.058245257
5	0xbdfdba29	-0.12389023
6	0xbe1ccace	-0.15311739
7	0x3a02c466	0.0004988372
8	0x3d5edecc	0.054411694
9	0xbe2a5116	-0.16632494
10	0x3d4592a6	0.048235558
11	0xbe78c001	-0.24291994
12	0x3db08d38	0.08620685
13	0x3cf24028	0.029571608
14	0xbe0401ce	-0.12891313
15	0xbb2f3be3	-0.0026738576
16	0x3c9cc349	0.019136088
17	0xbd03d1d4	-0.03218253
18	0xbd62ba14	-0.05535324
19	0xbe17eab2	-0.14835623
20	0x3d642f43	0.055709135
21	0xbd65e33e	-0.05612492
22	0x3d84ba5a	0.06480856
23	0xbe0dd055	-0.13849004
24	0x3b964f4e	0.0045870906
25	0x3cd581ac	0.026062809
26	0x3c4e2c35	0.012583782
27	0xbdd4cb76	-0.103903696
28	0x3e08d659	0.13363017
29	0xbd801800	-0.06254578
30	0x3e204616	0.15651736
31	0x3d934ee8	0.071927845
32	0x3c986eb9	0.018607484
33	0x3d78db56	0.06075605
34	0x3d0bedb8	0.034162253
35	0x3d92fcfe	0.07177161
36	0xbd9e7a53	-0.07738175
37	0x3c08383b	0.008314188
38	0xbdf3816d	-0.118899204
39	0x3c0fc1a0	0.008774191
40	0x3da128e2	0.07869126
41	0xbdf01473	-0.117226504
42	0x3dae0e86	0.08498864
43	0x3d0d4b73	0.034495782
44	0xbe58dc75	-0.21177848
45	0x3dea67a1	0.11445547
46	0xbd65eb2d	-0.056132484
47	0xbcc57212	-0.024102245
48	0xbd09089f	-0.033455487
49	0x3d7993a1	0.060931806
50	0x3d1fbf23	0.03900064
51	0x3c81d2d2	0.015847597
52	0xbb9e2f3f	-0.0048274095
53	0x3dc6e523	0.09711673
54	0x3e078077	0.13232599
55	0xbcb5fe67	-0.022216035
56	0xbd87eea5	-0.06637315
57	0xbe50083d	-0.20315643
58	0x3d38d82b	0.04512803
59	0xbdca2691	-0.09870637
60	0x3c48a71b	0.012246872
61	0x3ddacd88	0.10683733
62	0xbdd74e3f	-0.10512971
63	0x3d4a565a	0.049398758
64	0x3dc2444c	0.09485683
65	0x3d14b206	0.03630259
66	0xbd60ec45	-0.054912824
67	0xbe091134	-0.13385469
68	0x3dd09305	0.10184292
69	0xbe073603	-0.13204198
70	0x3cff35e4	0.031153627
71	0x3dbdb6b7	0.09263366
72	0xbe699bb0	-0.22813296
73	0x3d949174	0.072543055
74	0x3ddb61c8	0.1071201
75	0x3c4b3868	0.012403585
76	0x3dabb7fc	0.083847016
77	0xbe6bc4c4	-0.23024279
78	0xbc8dc6be	-0.017306682
79	0xbdcfe5a4	-0.10151222
80	0x3da515be	0.080607876
81	0xbdcf8d4e	-0.101343736
82	0x3ba72df6	0.0051019145
83	0x3dc7ba3b	0.097523175
84	0x3d1f98e2	0.03896416
85	0x3e194b42	0.14970115
86	0xbd21459c	-0.039373025
87	0x3df4d27a	0.11954208
88	0x3da6ac51	0.081383355
89	0xbdb4d353	-0.088293694
90	0xbb7d627b	-0.0038663435
91	0x3d4d5d26	0.05013766
92	0xbb7c5c89	-0.0038507304
93	0x3cf85155	0.03031222
94	0xbbdf21ac	-0.006809434
95	0x3ba3245c	0.0049786996
96	0xbd3b12ff	-0.045672413
97	0xb98ca98b	-0.000268292
98	0x3e25c32f	0.16187738
99	0x3de36276	0.11102764
100	0x3e243d6a	0.16039053
101	0xbd801e8a	-0.06255825
102	0x3c857e19	0.01629548
103	0x3db4adea	0.08822234
104	0xbdb80ab4	-0.089864165
105	0x3d99b73c	0.07505652
106	0x3c72fa2f	0.014830156
107	0xbd33e9bd	-0.043924082
108	0x3c8fc156	0.017548244
109	0x3ccec443	0.02524007
110	0x3dfdfea8	0.124020875
111	0x3dac4710	0.084119916
112	0xba25f74c	-0.00063311006
113	0x3bc5c3aa	0.006035288
114	0xbe38524d	-0.18000145
115	0xbcefa1fc	-0.029252045
116	0x3d0ea7d2	0.034828015
117	0x3b1c8dcf	0.0023888235
118	0xbdd04f53	-0.1017138
119	0x3db5d782	0.088789955
120	0xbdf32db4	-0.118739516
121	0xbcc932f7	-0.024560435
122	0xbd1b512a	-0.0379192
123	0x3d7c613a	0.06161616
124	0x3d9a694b	0.07539614
125	0x3ce446c7	0.02786578
126	0x3dbfe3c0	0.09369612
127	0xbda8d799	-0.08244247
128	0x3e607566	0.21919784
129	0xbd9c6fcd	-0.07638512
130	0xbcbe1366	-0.02320261
131	0x3e0c46f3	0.1369894
132	0xbd4d7343	-0.05015875
133	0x3e03c8fb	0.12869637
134	0x3cd5e5bc	0.026110522
135	0x3e8ce800	0.27520752
136	0xbc5314d4	-0.012883384
137	0x3dc75214	0.09732452
138	0x3e0caaad	0.13736983
139	0x3e99fe86	0.30076998
140	0x3d383414	0.04497154
141	0xbd6195a8	-0.055074364
142	0x3da4affe	0.0804138
143	0x3dbec16c	0.09314236
144	0x3e6a0bf9	0.2285613
145	0xbd62eae4	-0.05539979
146	0x3ddf23cd	0.108955
147	0xbe16b5e2	-0.1471782
148	0x3d4420cc	0.04788284
149	0x3c74a152	0.01493104
150	0x3e4770f1	0.19476677
151	0x3e1a32a9	0.15058388
152	0xbdc51b3c	-0.09624335
153	0x3cb03411	0.021509202
154	0x3d589069	0.052872095
155	0x3de12bfc	0.109947175
156	0xbd94c57d	-0.072642304
157	0xbd19dd35	-0.037564475
158	0x3ddfee88	0.10934168
159	0x3d3aeee0	0.045637965
160	0x3d58d14a	0.05293397
161	0x3d8b802a	0.06811555
162	0x3d6c2a45	0.0576575
163	0x3be7f0de	0.007078274
164	0xbd95e1e4	-0.07318476
165	0x3ca91ea3	0.020644492
166	0x3e021213	0.12702207
167	0xbd796e18	-0.06089601
168	0x3e39fae2	0.1816211
169	0x3d189c32	0.037258334
170	0xbd4daf8f	-0.050216254
171	0x3e14db81	0.14536859
172	0xbdf3b0bd	-0.118989445
173	0x3da43454	0.08017793
174	0xbd721952	-0.05910618
175	0xbde6de2d	-0.112728454
176	0xbe04a25d	-0.12952562
177	0xbe450cb5	-0.19243129
178	0xbe042f64	-0.12908703
179	0x3d6b7dfa	0.057493187
180	0x3e28503c	0.16436857
181	0x3be5bae9	0.007010807
182	0x3e132715	0.14370377
183	0x3dcfc83b	0.10145613
184	0xbdb8f766	-0.090315625
185	0x3d9000ff	0.0703144
186	0xbddf7ff1	-0.10913075
187	0x3ce4c900	0.027927876
188	0xbd23e54e	-0.040013604
189	0x3dfe0c62	0.124047056
190	0xbd946aaa	-0.07246907
191	0x3cf5a064	0.029983707
192	0xbe00acac	-0.12565869
193	0x3d2a63a5	0.041598935
194	0x3de77ee4	0.11303499
195	0xbdd3e775	-0.10346881
196	0xbdd52a67	-0.10408478
197	0xbcd4f254	-0.025994457
198	0x3e3f27ca	0.18667522
199	0xbdace8aa	-0.08442815
200	0x3e1916be	0.14950082
201	0x3df5d22f	0.1200298
202	0x3e214cdb	0.15751974
203	0x3db441d0	0.08801615
204	0x3d106b25	0.03525843
205	0xbe2cfa18	-0.16892278
206	0x3e751843	0.23935036
207	0xbd1a9a1f	-0.037744638
208	0x3b09dddf	0.0021036786
209	0xbdfc5c25	-0.12322263
210	0x3e585ea1	0.21129848
211	0xbdd6e0f4	-0.10492125
212	0xbe362d69	-0.1779076
213	0x3d5edc15	0.054409105
214	0xbd2de9f7	-0.042459454
215	0xbd71d9de	-0.059045665
216	0x3dc6d059	0.09707708
217	0x3cc38211	0.023865731
218	0x3d87c197	0.06628721
219	0x3e6dbf29	0.23217453
220	0xbe519dc2	-0.20470336
221	0x3df7d38c	0.12100896
222	0xbe190c3d	-0.14946075
223	0xbdaa4313	-0.08313575
224	0xbdea8ad9	-0.11452264
225	0xbc8d3084	-0.017235048
226	0xbcd8554b	-0.026407858
227	0x3e0b2077	0.13586603
228	0xbdf52034	-0.11969033
229	0xbdc7acfe	-0.097497925
230	0xbcee2f09	-0.029075162
231	0x3e40bc74	0.18821889
232	0xbe2d2489	-0.16908468
233	0x3e182b8d	0.14860363
234	0xbd918e4d	-0.0710722
235	0x3cb91219	0.022591637
236	0xbe6fd90c	-0.2342264
237	0xbe67e39f	-0.22645424
238	0x3d9f79e2	0.07786919
239	0x3d8be068	0.068299115
240	0xbe085428	-0.13313353
241	0xbe044e49	-0.12920488
242	0x3c1f9157	0.009739242
243	0x3e505b37	0.20347296
244	0xbdf519a8	-0.11967784
245	0xbc6c6462	-0.01442823
246	0x3e567e02	0.20946506
247	0x3c7e40c8	0.015518375
248	0x3da27688	0.07932764
249	0xbe8a8a73	-0.27058753
250	0x3e1e65de	0.15468547
251	0xbc8857a9	-0.016643362
252	0x3c3f9545	0.0116933035
253	0xbcd74b27	-0.026280953
254	0x3e086416	0.1331943
255	0x3e595a46	0.21225843

fc2.bias f4 [32]
0	0x3db9ada2	0.09066321
1	0x3dac958d	0.08426962
2	0x3daf8c19	0.085716434
3	0x3d7dab3e	0.061930887
4	0x3d6c3db0	0.057676017
5	0x3da76abf	0.08174657
6	0x3d8b834e	0.06812154
7	0x3d97dec7	0.07415538
8	0x3df42997	0.11921995
9	0x3d8ed40b	0.06974038
10	0x3e2665ac	0.16249722
11	0x3dcad142	0.09903194
12	0x3e49ed14	0.19719344
13	0x3a70c9ae	0.0009185326
14	0x3df829c8	0.12117344
15	0x3df1f3cf	0.11814081
16	0x3bae1fe3	0.00531386
17	0x3d25f404	0.040515915
18	0x3dd9ca68	0.10634309
19	0x3d6c7e52	0.057737656
20	0x3be0be7b	0.0068586445
21	0x3d305e15	0.043058474
22	0x3e05e772	0.1307657
23	0x3dae5922	0.085130945
24	0x3d282467	0.04105034
25	0x3d9f15ba	0.07767816
26	0x3b4bb81a	0.0031085075
27	0x3e0bd3d9	0.13655032
28	0x3bb3c174	0.005485708
29	0x3d402fd1	0.0469206
30	0x3dba759c	0.091044635
31	0x3d68b753	0.056815457

fc3.weight f4 [4, 32]
0	0xbce036a3	-0.027369803
1	0x3d226687	0.03964856
2	0x3dce2d37	0.10067218
3	0xbe631145	-0.22174557
4	0x3e0193bb	0.12654011
5	0x3e2f4ea3	0.17119841
6	0x3daf2830	0.08552587
7	0x3de6d072	0.112702265
8	0xbe330814	-0.1748355
9	0x3e18d61b	0.14925425
10	0x3db7bc1c	0.08971426
11	0x3e17d7a6	0.14828357
12	0x3e6d39a8	0.23166525
13	0xbd7cc4dd	-0.06171118
14	0xbe3e9d63	-0.18614726
15	0x3daf1eb2	0.085507765
16	0x3e2437dc	0.16036934
17	0x3e8ae51c	0.27127922
18	0xbe1c1835	-0.15243609
19	0x3de7b515	0.113138355
20	0xbe2a3b3a	-0.16624156
21	0xbd8a89c9	-0.06764562
22	0xbe58e656	-0.21181616
23	0xbe000b03	-0.125042
24	0x3dc1abd2	0.094566
25	0x3de30839	0.11085553
26	0xbe2c33b6	-0.16816601
27	0x3e11654c	0.14198798
28	0x3e0fb991	0.14035632
29	0xbe1a3925	-0.15060861
30	0xbdfb24a2	-0.122628465
31	0xbe490bbc	-0.19633383
32	0x3e57a306	0.21058282
33	0x3d8b95c8	0.06815678
34	0x3e4e68d8	0.20157182
35	0x3ddef7b4	0.10887089
36	0xbed554cc	-0.41666257
37	0xbeb24160	-0.34815502
38	0xbec39850	-0.38202143
39	0xbed4b525	-0.41544452
40	0x3e31a86a	0.17349401
41	0x3e4ac838	0.1980294
42	0xbed20a77	-0.4102361
43	0x3e405144	0.18781
44	0xbe87a785	-0.26494995
45	0xbe9bc858	-0.30426288
46	0xbeb20755	-0.3477122
47	0xbee62573	-0.44950446
48	0x3e551321	0.20808078
49	0xbe40e2b4	-0.1883648
50	0x3ccd823b	0.025086513
51	0xbec7a4c3	-0.3899289
52	0xbe4ec44a	-0.20192066
53	0xbeaa19ff	-0.33222958
54	0xbeb81d6c	-0.35959947
55	0x3e4dda31	0.20102765
56	0x3e214a50	0.15751004
57	0xbecd6d66	-0.40122527
58	0xbec6efe6	-0.38854903
59	0x3e458499	0.19288863
60	0x3e5f805b	0.21826307
61	0xbea80386	-0.32815188
62	0x3e1d8a51	0.15384795
63	0x3e77178a	0.24130073
64	0x3e13d547	0.14436828
65	0xbe9b90ae	-0.3038382
66	0x3e1985d4	0.14992458
67	0x3d1f4c12	0.038890906
68	0x3e063b36	0.13108525
69	0xbe06ac47	-0.13151656
70	0xbe5d9b4e	-0.21641275
71	0x3dfc1721	0.12309099
72	0xbdd970cd	-0.10617218
73	0xbe48b6bc	-0.19600958
74	0x3da8f677	0.082501344
75	0xbe929cbf	-0.28635213
76	0xbd66a8ff	-0.05631351
77	0x3e1af1cc	0.151313
78	0x3dff2908	0.12458998
79	0x3e08be92	0.13353947
80	0xbe9c95fa	-0.30583173
81	0xbd3b2aab	-0.04569499
82	0xbe8ed547	-0.27897093
83	0x3e00cb63	0.12577586
84	0x3e68497d	0.22684284
85	0x3e0a399a	0.13498536
86	0x3df7fa1b	0.12108251
87	0x3e25caa2	0.1619058
88	0x3d662d26	0.0561954
89	0x3deb9b26	0.115042016
90	0x3df5c621	0.12000681
91	0xbe8c4e89	-0.27403668
92	0x3ddbb4c5	0.107278384
93	0xbdae5c2b	-0.085136734
94	0x3dad39c2	0.08458282
95	0xbd22f3bd	-0.03978323
96	0xbe7a8b60	-0.2446723
97	0xbe7df132	-0.2479904
98	0xbe5d4286	-0.21607408
99	0xbe8e0d82	-0.2774468
100	0xbe36fc38	-0.17869651
101	0x3e239a42	0.15976813
102	0x3d8d4909	0.06898696
103	0xbe1d0ee8	-0.15337718
104	0x3df26020	0.11834741
105	0x3e13d085	0.14435013
106	0x3dc5578c	0.09635839
107	0xbe67eb5d	-0.22648378
108	0x3e4d4876	0.20047173
109	0x3e1db7e0	0.15402174
110	0x3deaf345	0.11472181
111	0x3e12ce60	0.14336538
112	0xbe34def4	-0.17663175
113	0x3d0bdff0	0.03414911
114	0xbd0bc791	-0.03412587
115	0xbe197199	-0.1498474
116	0x3e678a31	0.2261131
117	0x3e1f01b3	0.15527992
118	0x3e1dcc17	0.15409885
119	0xbdab1eda	-0.08355494
120	0xbeb0ae54	-0.34508002
121	0xbe3a4d5b	-0.18193571
122	0x3dee7693	0.1164371
123	0x3d9530b6	0.072846815
124	0xbe9a64b0	-0.30154943
125	0x3e0138c9	0.12619318
126	0xbe7f591e	-0.2493634
127	0x3e23dbc3	0.16001801

fc3.bias f4 [4]
0	0xbe4ec03e	-0.20190522
1	0xbd98bc7d	-0.07457826
2	0xbe1a54a3	-0.15071349
3	0x3e89b4d1	0.26895764
