LSTM_Attn/lstm_attn.pt (torch_old, 960986 bytes, 10 tensors)

lstm.weight_ih_l0 f4 [512, 300]
000000 76 88 37 bd 3d a8 14 be 76 24 1a 3d 80 ad 10 3e
       -0.044807874 -0.14517303 0.037632428 0.14128685
000010 ce f5 ad bc 6c 5d 01 bd b2 e8 b9 bd 6a f7 52 bd
       -0.021235373 -0.031583235 -0.09077586 -0.051505484
000020 9c c5 04 be cd 2f 92 3d 3f 94 b6 bd 9a a5 36 3b
       -0.12966007 0.071380235 -0.089149944 0.0027869702
000030 de 72 8b 3d 20 5e 27 3e 69 16 61 be ed 9e f6 3a
       0.068090186 0.163445 -0.21981205 0.0018815674
000040 3a d2 53 3d 52 40 1f bd 57 8d 86 be 4b e3 0f be
       0.05171416 -0.0388797 -0.2627971 -0.14051549
000050 72 ac 2c bd bd bb 57 3e 2c 27 d3 3d 64 c5 f2 bc
       -0.042156644 0.2106771 0.10310206 -0.029635139
000060 fe 17 f4 3d 0a c6 7a bd ed 13 a5 3c 6c c7 06 bc
       0.11918639 -0.06122402 0.020151103 -0.008226257
000070 db f0 6e bd 70 36 79 be 4d 5b bc 3c 87 6e ed 3d
       -0.058335166 -0.24337173 0.022992754 0.11593347
000080 89 da 48 3d 87 6d d0 bd 7b d2 53 bd 6b ee 51 bc
       0.049036536 -0.10177141 -0.0517144 -0.012813191
000090 34 fb 61 bd 81 32 62 b9 f8 6e 6b 3e c3 24 f7 3c
       -0.055171207 -0.00021571854 0.2299155 0.030168897
0000a0 e1 3f f7 3d 18 c2 ea 3d 34 88 81 3d 3b 75 bc 3c
       0.12072731 0.11462802 0.06324807 0.023005119
0000b0 17 e3 bc bd 66 59 56 3d 8a 57 be bd bb f6 85 3d
       -0.092230015 0.05233135 -0.092940405 0.06541201
0000c0 33 9f 0e 3c d8 23 da bc db bb 5e bd 54 e3 42 be
       0.008704948 -0.02662842 -0.05437837 -0.19032031
0000d0 0f 59 36 3c d0 48 0a 3e 7b de 85 3a 14 fc 18 be
       0.011129632 0.13504338 0.0010213399 -0.1493991
0000e0 5d 17 e4 3d 78 fa 4c bd 89 f1 a9 bd df 4e 7c be
       0.11137269 -0.050043553 -0.08298022 -0.24639462
0000f0 e8 d5 09 bd 6d cc bf 3d e6 9f 81 3d 88 9d 31 3d
       -0.033651263 0.09365163 0.06329326 0.043363124
000100 81 dd 96 3c 6e 52 81 bd 82 dd a5 bd dc e9 f7 bd
       0.018416168 -0.0631455 -0.0809889 -0.12105152
000110 d3 c4 0e 3d dc 8a 62 be 63 56 8c bd 77 e3 6e 3d
       0.034855675 -0.22123283 -0.068524145 0.058322396
000120 d9 0c 2e bc b2 9a 5e be 90 ed 01 3e 10 06 18 be
       -0.01062318 -0.21738699 0.12688279 -0.14846063
000130 d8 cc 12 be 9f c5 1e be b4 69 5e bd 47 2b 90 3d
       -0.14335954 -0.15505074 -0.054300025 0.070395045
000140 48 be b4 3d bb 9a 9f 3b a1 5d b2 3d c0 b0 9f 3d
       0.08825356 0.00487074 0.087092645 0.07797384
000150 eb fd 24 bd cb 13 40 3e b3 d2 fc 3d ee 98 28 3c
       -0.040281218 0.1875755 0.12344875 0.0102903675
000160 c3 f6 17 be 8e 6f 55 3d 1a dd 33 be 48 6c c3 bd
       -0.14840226 0.05210834 -0.17564812 -0.095421374
000170 57 90 61 bd 5c db 06 be 97 49 d4 3c a5 5b 4e 3b
       -0.055069294 -0.13169616 0.025913997 0.003148773
000180 6c 1a 0d 3d 94 16 92 3d 74 ee 3d bd 4b 92 74 3e
       0.034449026 0.07133213 -0.046369985 0.23883931
000190 12 83 fe bd 37 ec 3d 3e be 6c 71 3c c6 b5 a8 3c
       -0.124273434 0.1854714 0.014735399 0.020594489
0001a0 ca 5a 26 bd ab 24 95 3d ad 07 05 3b cf 67 db 3d
       -0.040613927 0.072823845 0.0020298765 0.10713159
0001b0 bb 19 d7 3c 85 f6 46 3d be 02 64 3a d3 69 90 bb
       0.026257386 0.048574943 0.00086979184 -0.0044071465
0001c0 c5 07 be 3b a4 c6 9a 3c f4 f2 a1 b9 f6 48 66 3e
       0.005799266 0.018893547 -0.00030889327 0.2248877
0001d0 a9 13 86 3d 48 cb 8c 3c cc e8 af bd f1 83 ee 3d
       0.065467186 0.017186776 -0.08589324 0.116462596
0001e0 1f 8c 52 3c f0 f4 ff 3d 75 c3 20 bd c7 f5 b2 3d
       0.01285079 0.1249789 -0.039248902 0.087382846
0001f0 bb 3a d0 3d 81 45 f4 bb 77 81 26 3d 80 9d 32 be
       0.10167452 -0.0074545746 0.04065081 -0.17442894
000200 9f 01 07 be 7c 94 01 be 38 4c bc 3d 88 d0 cb bd
       -0.13184212 -0.12654299 0.09194225 -0.099518836
000210 10 f1 05 be b4 ae 10 3e a0 aa 8e bc 47 92 85 3e
       -0.1308024 0.14129144 -0.017415345 0.26088163
000220 0d 49 23 3d 2c 9f 16 be 4d 39 9f bd ed 17 90 bd
       0.03986459 -0.14709157 -0.07774601 -0.070358135
000230 42 16 22 3c 32 a6 f8 3d ce d3 cf 3d 5c 53 5f 3e
       0.009893002 0.12141074 0.101478204 0.21809143
000240 2a a5 a5 3d 83 ac 79 bd 6e bc a1 3d 28 91 92 3d
       0.08088143 -0.060955536 0.07897268 0.071565926
000250 f5 22 30 3d c3 e4 02 3e 12 cf 04 3d c0 b0 46 3e
       0.043002088 0.12782578 0.03242404 0.19403362
000260 23 98 36 bd 32 59 1b 3e 4a 32 5a be a1 a5 00 3d
       -0.044578683 0.15170744 -0.21308246 0.031407956
000270 9a 92 ae bd e9 7f 37 bd a1 4c d4 3d b4 f4 a2 bb
       -0.08524056 -0.04479972 0.10366178 -0.0049730185
000280 4c 19 e9 3d 75 50 c7 bd 87 7c 12 3d f4 94 80 3d
       0.11381778 -0.09732143 0.03576329 0.062784106
000290 e7 c3 07 3d 6d 62 d8 bd 0f 1c 0d 3e 04 ad 18 bd
       0.03314581 -0.10565648 0.13780235 -0.037274376
0002a0 c2 c4 4e be 1a 8f 7d bd c0 13 55 3e e2 49 34 3d
       -0.20192245 -0.06190405 0.20808315 0.044015773
0002b0 f5 2d 83 3c 62 b9 d6 3d 57 c9 8c bd 5c 09 24 b9
       0.016013125 0.10484578 -0.0687434 -0.00015643745
0002c0 2e ec bf bd 1d 0d ba bd 6f 6d 1f 3c c1 13 25 3c
       -0.093712196 -0.090845324 0.009730681 0.0100755105
0002d0 bd 8f 87 be de 16 a3 3d 1d 7d 3b be 93 2a 6e be
       -0.2647685 0.07963346 -0.18309446 -0.23258428
0002e0 1f ba 16 3d 09 f0 3b 3c d0 3d 99 3b ba 08 93 3c
       0.036798593 0.011470803 0.004676558 0.017948497
0002f0 e2 ea 42 be f9 a9 c5 bb 2c 99 19 be a7 e8 5e be
       -0.19034913 -0.006032225 -0.14999837 -0.21768437
000300 7b b5 60 bb 55 44 9d bd 93 8a c0 bd f6 52 96 3d
       -0.0034287858 -0.07679049 -0.09401431 0.07340042
000310 a6 56 d0 bc c7 f7 c2 3c 24 4b 72 3d b1 d0 9e bd
       -0.025431942 0.02379979 0.05915369 -0.077546485
000320 8d bc 09 be e3 19 53 bd bf db 1e 3e 6b 1c fd 3d
       -0.13450833 -0.05153836 0.15513514 0.12358936
000330 47 d7 9c bd 3d ce 45 bc 4a 8c 67 be a6 ef 28 3d
       -0.076582484 -0.012073097 -0.2261211 0.04124417
000340 2d ec 69 3d db 5c 43 be 08 13 30 be 0e c2 ef bd
       0.05711 -0.1907839 -0.1719476 -0.11706935
000350 05 af e5 bd 78 35 f2 3b a8 82 09 3c 77 0e 5e 3e
       -0.11215023 0.007391628 0.008392967 0.21685205
000360 39 3f bd bc 17 db 1b 3c 9d f4 c2 3d c3 30 40 3d
       -0.023101436 0.009512684 0.095193125 0.046921503
000370 31 46 c3 bd 84 08 c8 bd 9e ad 6c bd 30 06 ef bd
       -0.09534872 -0.09767249 -0.05778276 -0.11671102
000380 a1 74 42 be b9 37 8b bd e7 dd 88 bd d8 83 e7 3d
       -0.18989803 -0.06797738 -0.066829495 0.11304444
000390 71 23 02 be 0d 11 3d bd dd 6f fe 3d e7 a3 0f 3e
       -0.12708832 -0.04615884 0.1242368 0.14027368
0003a0 0d 72 56 3e 08 13 00 3d 06 f4 19 be 44 39 b0 bd
       0.20941944 0.03126815 -0.15034494 -0.086046726
0003b0 e7 2b e5 3d e7 45 78 3d a1 9d d3 bc cf 29 7a bd
       0.11190014 0.06061354 -0.025832 -0.061075028
0003c0 f7 d8 05 bd a3 2f ae bd 13 17 6e 3e 70 60 a0 bd
       -0.032677617 -0.0850518 0.2325099 -0.07830894
0003d0 e9 9e 1c 3d 3b 91 a0 bd e1 50 8b bd 05 b8 b7 3d
       0.038237486 -0.078402005 -0.06802536 0.08970646
0003e0 9c 51 12 be 7f d5 b4 3c 8a d9 81 bd 70 16 17 3e
       -0.14288944 0.02207446 -0.063403204 0.14754653
0003f0 12 8c 5b bd 2d b2 da bb b2 6f 0c 3d f4 56 45 bd
       -0.05360038 -0.0066740722 0.03428621 -0.048178628

lstm.weight_hh_l0 f4 [512, 128]
000000 b2 2d 9b bb 5c be ee bb 75 e2 5e bd f7 11 6e 3d
       -0.004735672 -0.007285876 -0.054415185 0.0581226
000010 66 c0 97 bd 7b 9d 2a bd 44 2d 0a be bb 03 95 3c
       -0.07409744 -0.04165409 -0.1349383 0.018190255
000020 2d 45 67 3d 5f 03 92 3b b1 65 b5 bd b6 de 65 3d
       0.056462456 0.0044559683 -0.08857287 0.056120597
000030 c6 35 61 3b bf 92 fa bc b9 c4 b8 3d 74 ce a2 3a
       0.0034364327 -0.030587552 0.09021897 0.0012421147
000040 5e 63 cc 3d 0b 15 33 3d bb 52 79 3d 90 f0 bf bd
       0.0997989 0.04372124 0.060869914 -0.093720555
000050 ea b7 5d 3e ed e5 7b bc fa 5c 0c 3d d0 9a e3 bd
       0.21652189 -0.015374643 0.034268357 -0.111135125
000060 70 90 85 3d 4d 22 84 bd 5f b2 15 bd d7 65 5a bd
       0.0652169 -0.06451855 -0.03654706 -0.05331978
000070 20 dc ec bd 25 94 52 ba 39 48 92 bd 8e 39 90 bd
       -0.11565423 -0.00080329395 -0.07142682 -0.07042228
000080 cd e2 67 3d 1c 78 1f bd 79 75 02 3e 9b d2 23 bd
       0.05661278 -0.038932905 0.12740125 -0.03999577
000090 45 88 32 3d 75 56 9c bd a3 c2 00 be 8b ec cf 3d
       0.043586988 -0.07633678 -0.12574248 0.10152539
0000a0 fc b2 23 3e 9c 4a 69 bd ff 1a 39 be 9e 05 9f bc
       0.15986246 -0.05695592 -0.18076704 -0.019411858
0000b0 3f 64 d7 3d ef 09 a3 bc 49 99 a1 bc 9e 4b 1f 3c
       0.10517167 -0.019902198 -0.019726412 0.009722618
0000c0 9f 41 c9 bd 81 61 86 bd 06 a2 f3 3b a0 53 db 3d
       -0.09826969 -0.06561566 0.007435086 0.107093096
0000d0 cc 50 6a 3d 2e 5a db bd 39 eb 06 be fa d6 8f 3d
       0.05720596 -0.1071056 -0.13175668 0.070234254
0000e0 30 3a f3 3d d2 e3 af 3c 2a 1b 2a bd f2 db f1 bc
       0.11876333 0.021470938 -0.041529812 -0.029523823
0000f0 9a 99 1d 3d 7e 0c a6 bd 6e 32 0f 3e 84 4e 3d 3d
       0.038476564 -0.081078514 0.13984081 0.046217456
000100 30 50 8a bc ba 18 9a bd 87 37 d8 bd 05 36 15 bc
       -0.01688394 -0.075242475 -0.10557466 -0.009107118
000110 20 d6 4f 3d 04 0e d9 bc cc c5 bf bd 41 6c a4 3d
       0.050741315 -0.026495941 -0.09363899 0.0802846
000120 69 60 75 bd 71 2c 57 3c 02 bd 02 be 89 03 81 bd
       -0.059906397 0.013133154 -0.12767413 -0.062995024
000130 94 2b aa bd 5a fa 80 bc 19 1a c6 bd 18 65 94 bd
       -0.08309093 -0.015744377 -0.096729465 -0.072458446
000140 1a 8a 00 bc 22 87 b0 bd 7b 8b 83 bb fa 1f 81 3d
       -0.007845426 -0.086195245 -0.00401443 0.06304927
000150 f6 ec 01 bd 07 0b b4 bc 60 4b 27 3b 69 9b c3 3d
       -0.031720124 -0.021977914 0.0025527105 0.095511265
000160 00 d0 3e bd 70 7d fc 3d 1e a6 4e bc 60 98 8b bb
       -0.046585083 0.12328613 -0.012612848 -0.004260108
000170 82 87 ee bd 5c 07 1f 3e d9 1e 05 bd 56 61 df bd
       -0.1164694 0.15530151 -0.03250012 -0.10907237
000180 1f e0 15 bd 56 78 a8 bc 15 93 64 3d 2b 4f 0e 3d
       -0.03659069 -0.020565193 0.05580433 0.03474347
000190 19 c3 10 3d 9e ca 60 bd 77 1a 19 3c 8e b9 9e bd
       0.03534231 -0.05488073 0.009344689 -0.077502355
0001a0 f3 8f d5 bd 41 9b c6 bd d4 d2 f4 bd af 4e 21 bd
       -0.10427847 -0.09697581 -0.11954275 -0.03938168
0001b0 06 2b a6 3c 28 b4 a2 3d c5 49 b2 3b 08 82 e9 bd
       0.020284187 0.07944518 0.005440923 -0.114017546
0001c0 c4 c2 6a 3b 47 2d 2d 3d 70 03 c9 bd eb 6f e0 3c
       0.0035821656 0.042279508 -0.09815109 0.027397117
0001d0 6d 05 46 bb f5 d3 11 3c 43 04 df bd ff e3 43 3d
       -0.0030215636 0.008900632 -0.10889485 0.047824856
0001e0 53 82 ba 3d 6c 8b 1b 3d 51 57 90 bc 80 b3 a5 bd
       0.091068886 0.03797476 -0.01761976 -0.080908775
0001f0 4b 1e f8 3b b6 1f 5d 3c 00 8c 9f bc fb 11 bd bd
       0.0075719706 0.01349633 -0.019475937 -0.09231945
000200 d7 45 72 bd 42 10 24 3d 7a f7 5b 3d f9 6d 83 bb
       -0.059148636 0.040054567 0.05370281 -0.0040109125
000210 ee aa b8 bc c5 ea 61 bd 5e f6 2a 3d 7c c8 05 bd
       -0.022542443 -0.055155534 0.04173886 -0.0326619
000220 43 32 19 3c 0c 40 10 bd 80 0b 4a bc 0b 5c a5 bd
       0.009350362 -0.03521733 -0.012331843 -0.080741964
000230 5d eb aa 3c 43 a7 d1 3c 7f d8 b6 3d 71 40 fc 3d
       0.020864183 0.025592452 0.08928012 0.12316979
000240 c1 a9 0a 3e cc f6 e8 3c ac ce 9f 3d f8 81 9e bc
       0.13541318 0.028437994 0.078030914 -0.019349083
000250 fa 93 6a 3d c5 3c 92 bd 18 a7 23 3d 1b a1 04 3d
       0.057270028 -0.07140497 0.039954275 0.032380205
000260 0a 84 ba 3c 8c 69 f3 bd a7 03 0d 3c a0 be 0d 3d
       0.02276804 -0.11885366 0.008606828 0.034605622
000270 45 4f 59 3c 22 ae ca bd 64 4c c4 3c b7 3f 32 bb
       0.013263528 -0.098964944 0.023962207 -0.0027198622
000280 8a 1b c6 3d 71 2f 9b 3d 30 30 10 bc 3f 25 15 3d
       0.096732214 0.07577408 -0.008800551 0.036412474
000290 fa 14 9a bc 44 07 b1 3d 6b ea bb bd d0 e3 a3 3d
       -0.01880883 0.08643964 -0.09175571 0.08002436
0002a0 44 08 1d 3d 44 0a 74 3d bd 9d 5d bc 9b 4d 44 ba
       0.03833796 0.059580103 -0.013526377 -0.0007488371
0002b0 fa 0a af 3d 76 62 51 3c dd c1 04 3e 28 d2 8e 3d
       0.085470155 0.012779823 0.12964578 0.06973678
0002c0 4d b9 f5 bd e2 4b ce 3d 71 06 c8 3d 45 7c 04 3e
       -0.11998234 0.10073067 0.097668536 0.1293803
0002d0 a7 fb 2a bd 00 d5 88 3b 1b a8 c5 bd 63 b0 d7 3d
       -0.0417439 0.004175782 -0.09651204 0.1053169
0002e0 f4 11 85 bd 6b 40 10 be 6c e2 af bd 1f e1 6d bd
       -0.06497565 -0.14087074 -0.085881084 -0.05807602
0002f0 e6 fe 71 3d 5c 5d a5 bc 6d 01 a9 3d df 32 56 bd
       0.05908098 -0.020186119 0.08252225 -0.05229461
000300 c9 bc 66 3e 2d fd 0d bd 69 fc 0c bd 22 d3 c3 bd
       0.22532953 -0.034665275 -0.034420405 -0.09561755
000310 a5 02 d1 bd 2c c6 30 bd 11 6d 85 3d 3d d1 e6 3c
       -0.102055825 -0.04315774 0.065149434 0.028175944
000320 84 3d 63 3d e8 f1 d7 bd 18 e6 15 3d 54 15 f5 bd
       0.055478588 -0.10544187 0.036596388 -0.11966959
000330 bf 52 1e 3d b7 57 c0 bd 52 a1 02 3e b5 af 65 bd
       0.03865313 -0.0939173 0.12756851 -0.05607577
000340 01 ad b5 bc 33 99 76 3c f5 c0 3a bd 5c d7 93 3d
       -0.022177221 0.015051174 -0.045594174 0.07218811
000350 85 5d e0 bc ab 3e 8e bd 54 45 d1 bd d5 fb 89 3b
       -0.027388344 -0.06945547 -0.102183014 0.004210929
000360 ce 28 82 bd a9 d2 fe bb 1c a2 1b 3c 2b 52 8e bd
       -0.06355439 -0.0077765775 0.009499099 -0.06949266
000370 2c 28 d0 bd 40 cd dc bb 4d d3 8d bc 35 27 a1 bd
       -0.10163912 -0.006738335 -0.01731267 -0.07868806
000380 01 84 4c 3d 9b ea 2b bc 61 a7 8a 3d b9 b4 f3 ba
       0.049930576 -0.010492946 0.06770206 -0.0018593288
000390 95 9e 12 be 14 17 87 3d 19 79 03 3d 04 d5 b1 bc
       -0.14318307 0.06596199 0.03209791 -0.02170802
0003a0 09 6c 0e be cf 67 3f bd 6c 6c df bc 35 f9 9a 3d
       -0.139084 -0.04672986 -0.02727338 0.07567064
0003b0 1c 28 1e bb ba be 19 be 6c e7 11 3d 74 f2 f6 bc
       -0.0024132794 -0.15014163 0.03562109 -0.030144908
0003c0 8b 0e ec bd 9e cc 9d 3c 24 8c b4 bd 34 3a a6 bd
       -0.11526211 0.019262608 -0.08815792 -0.0811657
0003d0 8b e9 5a bd aa 14 a1 3d 2a 33 a0 3c be ca db bd
       -0.05344538 0.078652695 0.019555647 -0.107320294
0003e0 3e 06 f6 3d 88 2b 3c bd 7a 95 83 bd a6 f8 a0 3d
       0.12012909 -0.045939952 -0.06424995 0.07859926
0003f0 6e 7d 12 bd 29 af ae 3c 89 6e 9f bc 84 b8 42 bd
       -0.03576415 0.021323757 -0.019461887 -0.04753925

lstm.bias_ih_l0 f4 [512]
000000 a3 b9 8b bd 1c 4e a8 3c 2b 1a be bd 52 71 e9 bd
       -0.06822517 0.020545058 -0.09282335 -0.11398567
000010 83 33 bc bc 17 e5 74 3d 21 d3 e6 3c 40 42 3f bc
       -0.022973781 0.05978879 0.028176846 -0.01167351
000020 40 1a 8b bd 66 4a a6 bd a2 3a 01 be 4a bb 70 bd
       -0.06792116 -0.08119659 -0.12620023 -0.058772363
000030 0d 15 33 3d 3e 68 84 bd 45 17 57 bb 6b da 9c 3c
       0.043721247 -0.06465195 -0.0032820266 0.019147119
000040 8e 00 fe bb 0d 99 38 3d d7 e7 da bd 19 3e d7 bd
       -0.007751531 0.045067836 -0.10688751 -0.10509891
000050 31 ba d8 bb f0 65 a1 bd d5 5e d5 bc f3 5f 0c 3d
       -0.0066139926 -0.07880771 -0.026046196 0.03427119
000060 80 a5 98 b9 98 59 c5 bd 88 b7 ea bc 28 f4 a9 bd
       -0.00029115006 -0.09636229 -0.028651968 -0.08298522
000070 5b 21 d4 bd 4e 00 2f bd db ba fb bd ab 2d 8c bc
       -0.103579246 -0.0427249 -0.12291499 -0.01711162
000080 23 44 3e 3d dd 3c b6 3a c9 51 ec 3c d0 35 93 bc
       0.0464517 0.0013903637 0.028847592 -0.017969996
000090 e7 22 fd bc 5e f0 d6 bc c2 06 22 3d ec 23 f9 bd
       -0.030900432 -0.026237663 0.039557226 -0.12165055
0000a0 3a fb 6f bd d6 c9 eb bc 80 26 7e bd 1f 5a 03 be
       -0.058589198 -0.028782766 -0.062048435 -0.12827347
0000b0 b5 25 83 bd 98 b4 dd 3b a9 97 30 bb 8a 95 0a bd
       -0.064036764 0.006765913 -0.0026945865 -0.033834018
0000c0 33 09 6d bd a7 10 19 3d 4b d2 10 bd 34 9f b9 bd
       -0.0578701 0.037369397 -0.0353568 -0.09063569
0000d0 ae cb 1d 3d 13 8d 72 3d 20 20 88 bd d4 03 9c bc
       0.038524322 0.05921657 -0.06646752 -0.019044794
0000e0 80 3a 4e 3d ca cb ae bd 94 5e aa bd 4c a9 e3 bd
       0.05034876 -0.085349634 -0.083188206 -0.11116275
0000f0 11 9f b3 3b 5a 95 8a bd 9c c3 91 3c 1a 66 1f 3d
       0.0054816087 -0.06766768 0.01779347 0.03891573
000100 7e c3 fd bd 52 a2 44 3c 5b 72 05 be 1e 34 9d bd
       -0.12390803 0.012001591 -0.13031904 -0.07675956
000110 ad bf 82 bd a9 72 a3 bd e4 aa a3 3d c9 0c 5e bb
       -0.063842155 -0.07980854 0.07991579 -0.0033882132
000120 8a 25 7a bd a7 bc 16 3d f9 92 d6 3c 97 72 e2 bd
       -0.061070956 0.036801007 0.026193129 -0.110570125
000130 33 9e bf bd 83 d2 74 bd 64 b0 bc bc 57 49 e2 bc
       -0.09356346 -0.059771072 -0.023033328 -0.027622862
000140 6d 2e c4 bd a2 1b 8a bd 10 2a 37 bd 93 f4 28 3d
       -0.095791675 -0.06743552 -0.04471785 0.04124887
000150 14 c3 1a bd 07 1d b4 bd b1 77 29 bd 24 35 4b 3d
       -0.037783697 -0.08794599 -0.041373912 0.049611226
000160 4f bc 34 3c 44 8c f4 3c b3 d3 2e 3d 8b ff 85 3b
       0.011031224 0.02985204 0.04268236 0.004089301
000170 e2 98 d3 bd f1 b4 5c bd 3a e6 3e 3d e2 7c 15 be
       -0.103318945 -0.053883497 0.04660628 -0.1459842
000180 60 b1 43 3d da 9a 1d 3d b3 ed 3f bd 9e 96 4f bd
       0.04777658 0.038477756 -0.046857547 -0.05068075
000190 00 51 d3 bd f0 fd bb bd 64 d9 30 bd c8 e9 70 bd
       -0.10318184 -0.09179294 -0.04317607 -0.0588167
0001a0 3b 83 c4 bc 83 3b 87 bc 1d fa f9 3c 9f e0 b6 bd
       -0.023988357 -0.01650787 0.030514771 -0.08929562
0001b0 c7 e9 18 3d 21 0e de bd fd 0f 30 ba d1 42 ec 3c
       0.037332322 -0.108425386 -0.00067162496 0.028840454
0001c0 e4 03 71 bb 99 e4 50 bd 1f 4c 08 bd c0 a6 ab bd
       -0.0036776 -0.050999258 -0.03327572 -0.083814144
0001d0 5e b8 b3 bd c3 28 e2 bc a3 34 12 bd 81 14 e0 3c
       -0.087753996 -0.027607327 -0.03569473 0.027353527
0001e0 2a 72 91 bd 2c be 3a bd a8 5d 56 bd ba 72 f5 bd
       -0.07101853 -0.04559152 -0.05233541 -0.11984773
0001f0 a8 e7 f4 bc 60 f3 d6 bd 09 d0 5a 3d f1 c4 8f bc
       -0.029895619 -0.10495639 0.053421054 -0.017549964
000200 69 7a 0f 3d 3c f4 a7 3c c4 15 f9 bc 22 3f c0 3b
       0.03502885 0.020502202 -0.030405886 0.005866901
000210 be 1e 03 3d c7 d2 eb 3d ee 66 00 bd 4b 08 10 3e
       0.03201174 0.11514812 -0.03134816 0.14065664
000220 3d 36 cd 3d 82 1d 1b bd 17 89 02 3e 6e 16 19 bd
       0.10020111 -0.037869938 0.12747608 -0.037374906
000230 d3 5f 8a 3d a9 c8 a9 3d 73 05 03 3e ab 2d a9 3d
       0.06756558 0.08290226 0.12795047 0.082606636
000240 f2 a5 a9 3d b8 ca 13 bc 86 b0 21 3d 56 1a de bc
       0.08283605 -0.0090205 0.039474986 -0.027112167
000250 df 8d 81 3d 81 3e 93 3d e7 99 ae 3d 4c d8 85 3b
       0.06325888 0.07189656 0.08525448 0.0040846225
000260 43 37 55 3d a6 99 0e 3e 6b 4f af 3c a5 33 9a bb
       0.052054655 0.139258 0.021400174 -0.0047058635
000270 a7 c8 67 3d 16 fe 7a 3d 07 5a 07 3e 30 ab 8d bb
       0.05658784 0.06127747 0.13217936 -0.0043233857
000280 20 7a 0e 3e e2 6e 24 3e ce 66 d4 3c 94 a4 83 3d
       0.13913774 0.16057923 0.025927927 0.06427875
000290 ae c6 b8 3d 2e de 47 3d 54 05 39 bc 80 c7 e6 bc
       0.0902227 0.04879587 -0.011292774 -0.0281713
0002a0 25 51 86 3c 66 a5 3a 3e 34 ee c8 bc 07 d8 2e ba
       0.016396115 0.18227157 -0.024527647 -0.0006669764
0002b0 3b 5b 0d 3e 9e a6 d5 3d 4f f6 e4 3c dd 65 37 3e
       0.13804333 0.1043217 0.02794948 0.17909952
0002c0 e2 95 f1 3d f4 d6 ba bc 5a dc 9e 3d 45 5f 5d bb
       0.11796166 -0.022807576 0.077568725 -0.003377871
0002d0 cf 6e 24 bd e2 50 8f 3d 1c 1d 16 3e df 64 1e 3e
       -0.040144738 0.06997849 0.14659542 0.15468167
0002e0 d7 02 10 3e a6 f0 70 3d 5f a8 91 3d de 68 b1 3c
       0.14063583 0.05882325 0.07112192 0.02165645
0002f0 a9 55 ca bd f9 75 3e 3d 04 86 01 bc 14 e4 17 3e
       -0.0987962 0.046499226 -0.007905487 0.14833099
000300 7b 9b 0e 3e 5b fc e4 3c 6e d4 9a 3d a9 6e 02 3e
       0.13926499 0.027952364 0.07560049 0.12737526
000310 d6 1f d9 3c 48 e6 29 3e f8 d6 7b 3c 57 eb a1 3d
       0.026504438 0.16591752 0.015371077 0.07906216
000320 27 27 e0 3d 75 b2 c9 3d 2d 7d 0d 3e 85 35 a5 ba
       0.10944968 0.09848491 0.13817282 -0.0012604451
000330 12 f1 9c 3d c2 27 80 3d 1d 4d 09 3d ce 92 5a bc
       0.07663168 0.06257583 0.033520807 -0.013340665
000340 dd 1a d9 3d da db 91 3d 1b 7f d3 3c 7e 68 c6 3d
       0.10600827 0.071220115 0.025817445 0.09687899
000350 13 c0 47 3e 5f de 48 bc 3f b9 a2 3c e7 6a 82 3d
       0.19506864 -0.012260049 0.019863723 0.06368046
000360 55 f9 17 3d 1f 1b 25 3e b3 d1 c0 3d e3 9b 3f 3d
       0.037103016 0.16123627 0.09414997 0.046779525
000370 ce 08 ff 3d bc e8 14 3d 9b 21 94 3d 69 57 51 bd
       0.12452851 0.036354765 0.07232972 -0.05110875
000380 b4 f2 dd 3b 51 5e 6e 3d 30 0a 91 3c 57 a9 10 3d
       0.006773317 0.058195416 0.017705053 0.035317745
000390 5d 88 b1 bb 62 cf 31 3d a1 0e 15 3e 75 4f 2e 3c
       -0.005417867 0.043410666 0.14556362 0.010639061
0003a0 8e 15 f3 bb a1 81 60 bc a1 0e 18 bd 59 ad fb 3d
       -0.007418341 -0.013702781 -0.037123326 0.12288923
0003b0 f8 1e 72 3c 88 33 73 3d 60 78 12 3e 61 01 56 3d
       0.014777891 0.059375316 0.14303732 0.05224741
0003c0 60 5f 7a 3c a8 12 0a 3d e3 41 9e 3d 27 30 80 3d
       0.015281528 0.0337092 0.07727411 0.06259184
0003d0 3a 39 84 3b 08 73 ab 3d 8d c8 6b bd 0c 87 ac 3d
       0.0040351423 0.0837155 -0.057564307 0.08424196
0003e0 e4 20 d1 3d ea a2 63 bd 98 d8 82 3c 1d 17 5a 3d
       0.102113515 -0.05557529 0.01597242 0.0532447
0003f0 f2 85 42 3d 37 10 ef 3d cc 45 b1 3d a5 54 31 3d
       0.04749102 0.116730146 0.08655891 0.043293614

lstm.bias_hh_l0 f4 [512]
000000 49 c0 b8 3b 8a 19 3f 3d 3d e4 a3 3d f2 cc 0f 3d
       0.0056381566 0.046655215 0.08002517 0.03510756
000010 ca cb 17 be a3 d7 81 bc 8b ee 80 bd 46 d5 1a 3d
       -0.14823833 -0.015849894 -0.062954985 0.03780105
000020 6d b7 2c 3d 1e e6 ea bc a3 bd 78 3c b6 c8 9c bd
       0.042167116 -0.028674182 0.015181932 -0.0765547
000030 3a 96 41 bb b0 18 ae bd 0f 2d df bd 2a b3 b2 3d
       -0.0029539005 -0.085008025 -0.10897266 0.08725579
000040 a1 ff 0c 3d 2c a6 d6 bc b0 da 04 bd 78 92 2d 3d
       0.034423474 -0.026202284 -0.03243512 0.04237601
000050 57 c4 62 bc 75 11 71 bd d7 0f a1 bc 21 55 dc 3d
       -0.013840756 -0.05885454 -0.019660873 0.107584246
000060 8e a1 ea bd 90 0e a8 bd 39 87 b5 bb 34 f8 47 bd
       -0.11456595 -0.082059026 -0.0055398014 -0.04882069
000070 f0 20 ef 3c 96 b3 b1 bd d2 9a d3 bc 9c 93 0d 3d
       0.02919051 -0.086768314 -0.02583066 0.0345646
000080 4e aa 77 3d 66 f5 ce bc 94 e1 9f 3c c1 e3 b5 3c
       0.06046515 -0.0252635 0.019516744 0.022203328
000090 25 ab 23 bc 29 76 b0 bd f6 f5 18 3d 17 9f 03 be
       -0.0099895345 -0.08616287 0.03734394 -0.12853657
0000a0 c3 b1 db 3d 03 7d 0f 3d 99 69 e3 bd 97 66 83 bc
       0.10727265 0.03503133 -0.111041255 -0.01604013
0000b0 c8 61 d0 bd bf 59 ad bd c2 fa cf bd a3 ca 52 3d
       -0.101749 -0.08464383 -0.1015525 0.05146278
0000c0 7b 27 cc bd 75 cd 15 bd bd da 74 3d 58 47 54 3c
       -0.09968468 -0.036572892 0.059778918 0.012956463
0000d0 41 06 db ba ae 9d 1d 3c 7a 7a 67 bc 70 2e 16 bd
       -0.0016710238 0.009620113 -0.014128322 -0.03666538
0000e0 38 f6 9f bd 3d 12 1a bc 68 2a e2 3c a4 a4 05 bc
       -0.078106344 -0.009403762 0.027608112 -0.008156929
0000f0 82 fe 35 3b 24 06 a5 bd 67 46 67 bd 10 ea be bd
       0.0027770107 -0.08057812 -0.056463625 -0.09321988
000100 79 1a f3 bc f3 b0 45 bc 78 7a a1 3b ff 78 79 bd
       -0.02967571 -0.012066114 0.0049279295 -0.060906406
000110 dd cc 42 bc 12 8a 83 bd bb 37 37 3d 76 66 ae 3d
       -0.0118896635 -0.06422819 0.044730883 0.085156366
000120 eb 99 8f bd 31 b2 1c bb 3c 43 99 3d e8 fd 2a 3d
       -0.070117794 -0.0023909921 0.07483527 0.04174605
000130 b6 16 87 3d 6f 1c c5 bb 17 e0 99 bd f5 ce c4 bd
       0.06596129 -0.0060153524 -0.07513445 -0.096097864
000140 19 28 97 bd 1a 47 e6 3c cd 3f 70 3d 20 69 51 bd
       -0.07380695 0.028110076 0.058654595 -0.051125646
000150 0d d0 89 bd 97 ed 7f bd bd 0a 8e 3b 2e 75 14 bd
       -0.06729136 -0.062482443 0.004334776 -0.036244564
000160 3d 78 79 bc 63 55 40 3d c1 33 33 bc 6f f5 8e 3c
       -0.015226421 0.04695643 -0.010937632 0.017451016
000170 7c 4c 3a 3c 2c 50 be bd 2c 88 8e bd fd 71 de bd
       0.011370774 -0.09292635 -0.069595665 -0.10861585
000180 8c fc d8 bc 60 84 a8 bc ae 8f a0 bc d9 16 96 bd
       -0.026487611 -0.020570934 -0.019599762 -0.073285766
000190 0c 8b 6f 3d cf 85 86 bd 29 82 d3 b9 eb 1a 54 bd
       0.058482215 -0.06568491 -0.00040342033 -0.051783483
0001a0 2c 83 bb bd 3f 8d 91 bd f1 87 d9 bd d4 f5 67 bd
       -0.091558784 -0.07107019 -0.10621632 -0.056630924
0001b0 e8 4d 87 bc 51 b4 12 be fd c0 67 bd 03 ee 8b 3c
       -0.01651664 -0.14326598 -0.056580532 0.017081266
0001c0 8e 0f 75 bd 41 2a 41 bd 08 bb bd bd df 1b 2a 3d
       -0.059829287 -0.047159437 -0.09264189 0.041530486
0001d0 a2 cc 53 bc 67 36 36 bc 9e b7 78 bd 68 6a 5d 3d
       -0.012927206 -0.011121369 -0.060721986 0.054056555
0001e0 20 18 ab bd 85 2c e6 bd ef 47 d5 bd 57 66 68 bd
       -0.08354211 -0.1123896 -0.10414111 -0.056738224
0001f0 57 6b bc 3c 9f e3 34 3d 81 05 2c 3d 23 ba 56 bd
       0.023000402 0.04416239 0.041997436 -0.052423608
000200 2b 8f 08 3e 66 92 5d 3d 1b de 51 bd 18 ac 67 bd
       0.13335864 0.054094695 -0.051237207 -0.056560606
000210 ba 6e 85 3d 72 c4 90 bc 57 81 b2 3d fd 99 ed 3d
       0.0651526 -0.017671797 0.08716076 0.116016366
000220 08 00 f9 bc 3a da 45 bc c8 07 cd 3d a4 e9 fa bc
       -0.030395523 -0.012075955 0.1001125 -0.030628987
000230 38 50 e7 3d 41 41 3b 3e 22 5f ec 3d 3e f4 c6 3d
       0.112945974 0.18286611 0.11541583 0.09714554
000240 4f fb 2a 3d 6a 39 48 bc 1b 27 92 3d c4 78 0c 3d
       0.041743573 -0.01222072 0.07136365 0.03429486
000250 cc 70 ef 3d 46 d3 f6 3d bf 08 48 bd 4e 1d 97 3d
       0.11691436 0.12052016 -0.048836466 0.07378636
000260 85 72 1c 3e d8 e6 97 3d 45 5c d4 3d 71 b0 f1 ba
       0.1527806 0.07417077 0.103691615 -0.0018439424
000270 5d 14 fc 3c 20 ee c4 3d 96 31 28 3e b3 60 2c 3d
       0.030771429 0.09615731 0.16425166 0.042084407
000280 07 eb a4 3d 31 a2 1a 3e d4 57 8e 3d dd 02 14 3e
       0.080526404 0.15100934 0.06950346 0.14454217
000290 ed 75 06 3c ac 54 51 3d 9f d0 ea 3d 04 93 0a 3d
       0.008206827 0.05110614 0.114655726 0.03383161
0002a0 07 a3 c4 3c 3a 92 b8 3d dd 76 cb 3d 29 c1 3c 3d
       0.024003519 0.090122655 0.09934781 0.04608265
0002b0 56 02 42 3a c4 d2 dc 3d 52 98 93 3d 2a b0 21 3e
       0.0007400861 0.10782388 0.07206787 0.15789858
0002c0 ab e9 78 3d 72 eb bb bc 4a 4a cf 3d cf 8f 89 3d
       0.06076972 -0.022939418 0.101215914 0.067168824
0002d0 e8 62 9d bb 27 b2 79 3c e3 77 1b 3e 6b 7d d6 3d
       -0.0048030503 0.015240229 0.15182452 0.1047314
0002e0 fc a0 15 3d 45 6b d1 3d 31 24 15 3d ee 00 d1 3d
       0.03653048 0.10225538 0.036411468 0.102052554
0002f0 32 2c 0f 3c b9 08 b9 3d 46 7f 79 3d ef b1 b0 3c
       0.008738564 0.09034867 0.060912393 0.02156922
000300 11 89 b8 3d 25 c7 f9 bc 91 6a 08 3e 61 47 ca 3c
       0.09010518 -0.030490467 0.13321902 0.02469224
000310 0a 41 98 bb 00 70 b7 3c db 8a c9 3c b1 97 31 3e
       -0.004646425 0.022392273 0.024602344 0.17343022
000320 30 bc a6 3d 07 6d e6 3c 61 38 70 3d f2 c6 bc bc
       0.08141363 0.02812816 0.058647517 -0.023044083
000330 b2 89 31 3d 2d ef a4 3d d1 bc 73 ba 22 f2 a0 3d
       0.043344207 0.08053432 -0.000929785 0.07858683
000340 ad 93 50 3d 66 4a 3e 3d 55 8d 63 bd df db 4e 3d
       0.050922085 0.04645767 -0.055554707 0.050502654
000350 6d 98 2b 3d 4d 11 e1 3c 8b 9a eb 3d 57 60 0d 3e
       0.04189341 0.02747407 0.11504086 0.13806282
000360 8f 56 1d bd 60 6a 20 3e 97 4d 53 3c ed 12 ba 3d
       -0.038412627 0.15665579 0.012896917 0.09085641
000370 b7 be 0a 3e 44 83 e2 3d 5b c0 0f 3e 88 53 45 bd
       0.13549314 0.11060193 0.14038222 -0.048175365
000380 64 1d a0 3d 5e 8a ff 3d ef ec 2a 3d fe 8b 8a 3d
       0.07818106 0.12477563 0.041729864 0.06764983
000390 df 19 a8 3d 3c f1 a2 3d b5 66 c0 3d ba 3c b0 3c
       0.082080595 0.07956168 0.0939459 0.021513332
0003a0 a8 34 e4 3d 56 51 dd 3d 5a 69 29 3d 2a 33 cc 3d
       0.11142856 0.10806529 0.041360237 0.09970696
0003b0 69 34 c8 3d 2a e7 b7 3d 63 92 95 bc 77 4d 8d bb
       0.097756214 0.08979638 -0.01825828 -0.004312213
0003c0 ac 02 01 3e 91 b0 f5 bb 1d 65 4e 3d 3c 13 01 3d
       0.12598675 -0.007497855 0.050389398 0.031512484
0003d0 e9 ce 59 3d d8 79 17 3d 96 2c 23 3c 95 d2 e9 3c
       0.05317584 0.036981434 0.009959361 0.028542796
0003e0 3a 79 a7 3d e5 e7 10 bd 10 fa 1f bd 62 bb a7 3d
       0.08177419 -0.0353774 -0.039056838 0.08190037
0003f0 81 a0 4b bd 29 a0 e2 bc d0 94 3c 3e 66 d1 ad 3a
       -0.049713615 -0.027664261 0.18416142 0.0013261258

fc1.weight f4 [60, 256]
000000 af cc d1 bc 9f cb b8 3d 7d e9 23 be b9 99 bd bd
       -0.025610296 0.09023213 -0.16007037 -0.09257836
000010 ec 3d 76 3d bc 5b e0 3c ea fb 6e 3d 0c fa a9 3d
       0.060117647 0.027387492 0.058345713 0.08299646
000020 59 de 3e 3d 13 5d fa 3c 44 39 04 3e 7a b8 97 bc
       0.046598766 0.03056196 0.1291247 -0.018520582
000030 fb e5 5c bd de fa 21 3e 28 27 83 bd d6 9c b9 bd
       -0.053930264 0.15818354 -0.06403953 -0.09063117
000040 25 cc 20 be 77 fc 5b 3c 08 01 99 bd b5 5b 02 bd
       -0.15702875 0.0134268915 -0.074709 -0.03182574
000050 ae 79 51 bd a4 c6 73 3d 5b 8c e6 3d 28 98 be 3d
       -0.051141433 0.05951561 0.112572394 0.09306365
000060 c0 74 5d 3d 14 43 f4 3d f4 bb aa bd 3a 40 84 3d
       0.05406642 0.11926857 -0.083366305 0.06457563
000070 14 64 4c 3c e3 1e ba 3d 99 c6 1c 3d 8d be 5b 3d
       0.012475032 0.090879224 0.038275335 0.05364852
000080 55 5d 1a bc 1c 87 ff 3d df d2 99 3d a5 d3 fe bd
       -0.009421666 0.12476942 0.075109236 -0.12442712
000090 4f f3 0b 3d 6f 28 19 3e de 5d 53 bd 5c de 04 bc
       0.034167584 0.1495683 -0.05160319 -0.008109655
0000a0 36 d0 c2 bb b2 92 87 3d 5c 7d c7 3c e5 82 7b bd
       -0.005945231 0.06619777 0.024351768 -0.061404128
0000b0 78 00 05 bd ba 51 f0 bd 71 83 44 3e 25 1e 05 be
       -0.03247115 -0.11734338 0.19190766 -0.1299978
0000c0 80 7d 0b 3e 23 a4 35 be 08 c8 03 be 46 96 12 bd
       0.13622093 -0.17738394 -0.12869275 -0.035787843
0000d0 30 fc 48 bd 47 62 0e 3e 1a e3 0b 3e d5 48 d9 3c
       -0.04906863 0.13904677 0.13660851 0.026523987
0000e0 20 45 02 be 66 e0 fb 3c 10 a7 87 bc d0 d5 d7 3d
       -0.12721682 0.03074665 -0.016559154 0.105388284
0000f0 08 3a db bc ab b3 d3 3c 4a 3a 1d bd 02 d5 cb bd
       -0.02676107 0.025842508 -0.038385667 -0.099527374
000100 e0 26 3f 3e 0f cb 05 be 78 ce 97 bb b5 04 89 3c
       0.18667173 -0.13065742 -0.0046327673 0.016725877
000110 f3 d8 e9 3a c0 91 b9 bd 9b 86 c0 be 0d 59 d2 3d
       0.0017841145 -0.09061003 -0.37602696 0.10270891
000120 db 37 f3 3c c6 d1 26 3d a1 c1 89 bd 26 b0 04 be
       0.02968972 0.0407274 -0.06726385 -0.1295782
000130 18 4c c8 3d 02 9a 0c 3e 41 9a 2a be 1a a0 d8 3b
       0.09780139 0.13730624 -0.16660406 0.0066108825
000140 3c 7f be bd cf d6 ca bd 90 1e 9f 3c 3f 24 99 3d
       -0.09301612 -0.09904253 0.019423753 0.074776165
000150 0e 49 9d bd e0 ad 1e 3d 85 e1 47 bd b2 9c d4 bd
       -0.0767995 0.03874004 -0.048799057 -0.1038145
000160 be 97 b4 bd 67 03 bb bd 8e 69 b7 3d 6a c8 08 bc
       -0.08818005 -0.09131508 0.0895568 -0.008348564
000170 d9 e9 04 bd 63 50 94 3d dd d8 0d 3d ec 24 e0 bc
       -0.032449577 0.07241895 0.034630645 -0.027361356
000180 94 69 f8 3c 17 3c 11 bd 1c 1f f4 3b cc a3 c4 3c
       0.030323781 -0.035457697 0.0074499976 0.024003886
000190 d1 72 43 be 4d bb 09 bd d6 7d 1b 3e fa 2c a5 bd
       -0.19086768 -0.03362589 0.15184721 -0.08065219
0001a0 c9 a3 05 bd 54 5a 48 3c fb 25 16 3d e8 21 b0 3c
       -0.0326269 0.012228567 0.036657315 0.021500543
0001b0 03 f7 84 3d df bd f6 3c b8 f6 64 bc 42 bd d0 bd
       0.06492426 0.030119834 -0.013974838 -0.10192348
0001c0 40 b6 17 3e a2 b0 ac bc ed e0 ba bd 97 f4 81 bd
       0.14815617 -0.021080319 -0.091249324 -0.0634548
0001d0 20 a5 b4 3d 90 50 71 bc 86 b5 f2 3c f7 07 6f 3d
       0.088205576 -0.01472868 0.029627573 0.058357205
0001e0 d5 42 e5 3d 41 ce f9 bc 67 63 6b 3d f2 19 d6 bd
       0.11194388 -0.030493857 0.057467844 -0.104541674
0001f0 cb 14 c9 bd 8a e2 65 3d d3 a1 e8 3c 67 66 ed bc
       -0.09818419 0.056124248 0.028397476 -0.028979493
000200 12 d4 11 3d b7 59 c1 3d 11 3b 1b be 52 f8 3a bd
       0.035602637 0.0944094 -0.15159251 -0.045646973
000210 36 01 d8 3c fc ba c4 3d 23 be eb 3c 87 5c 93 3d
       0.026367765 0.09605977 0.028777188 0.071953826
000220 d7 73 9e 3c 23 6a ad 3d b7 39 d9 3d e7 e8 a5 bd
       0.019342346 0.084675096 0.10606711 -0.08101063
000230 39 5b f4 bc f7 07 16 3e 1f fc 9c bc 46 5d c0 bd
       -0.029828655 0.14651476 -0.01916319 -0.093927905
000240 33 39 af bd a3 3c 04 bd 93 64 0d bc fd 23 c9 bd
       -0.08555832 -0.03228439 -0.008629936 -0.09821317
000250 c5 d6 8f 3c ab 9f a6 3d a3 4e 6e 3d 99 1b d3 3d
       0.017558465 0.08135923 0.058180463 0.10307998
000260 df bf dd 3c b0 9c b6 3d 53 46 fe bd 22 3b 1d 3d
       0.02706903 0.089166045 -0.12415757 0.03838647
000270 d4 14 18 bc 4a e4 ea 3c d7 d6 ba 3c 49 f7 89 3d
       -0.00928231 0.02867331 0.022807522 0.06736619
000280 36 45 39 bd 0f 26 c8 3c 43 48 0e 3d 94 9e 65 be
       -0.04523202 0.02443221 0.034736883 -0.22423774
000290 39 50 36 bd 21 13 d6 3d 2d e7 df bd 77 45 8d bc
       -0.0445101 0.10452867 -0.10932765 -0.017245037
0002a0 03 46 a3 3d 42 6e 3e 3d 0d 3a bc 3c 00 50 c7 3b
       0.07972338 0.04649187 0.0229769 0.006082535
0002b0 6e 93 c8 3d bb 65 07 be ab 66 16 3e 3f a2 0b be
       0.09793745 -0.13222401 0.14687602 -0.1363611
0002c0 d9 10 8a 3d 6c 3f 37 be 43 f1 27 bd 35 8b 04 be
       0.06741495 -0.17895287 -0.04100157 -0.12943728
0002d0 81 cc ac bc a4 3e 03 3d 96 99 8e 3d cc df f1 3c
       -0.021093609 0.03204216 0.06962888 0.02952566
0002e0 25 91 74 bd 23 c9 8a bd 49 83 e7 bb 3e b4 5f 3d
       -0.059708733 -0.06776645 -0.007065211 0.05461525
0002f0 92 20 88 bd a1 13 81 bd a0 49 05 bd 8d a9 4a bd
       -0.06646837 -0.06302572 -0.032540917 -0.049478102
000300 1a 67 3f 3e 36 a5 f0 bd 87 c3 f4 bb be 96 b2 bc
       0.18691674 -0.117502615 -0.0074695977 -0.021800395
000310 06 ec 88 bc 06 a6 eb bd 5a b3 cb be b7 e3 5c bb
       -0.016714107 -0.11506276 -0.39785272 -0.0033705065
000320 a5 fa 6e bd 36 e8 3a 3d 38 e3 04 3e db 7b 01 bd
       -0.058344502 0.04563161 0.12977302 -0.03161226
000330 86 91 b3 3d d3 3b 43 3c 97 ad a7 bd 17 14 77 3d
       0.08767991 0.011916119 -0.081874065 0.060321894
000340 14 4e 7d bd 8c 29 e1 bd 13 ac 98 bc 05 41 23 3d
       -0.06184204 -0.109942526 -0.018636739 0.03985693
000350 6c 0d 88 3c 01 4b 04 3d 3a bf 15 be bd 1a 7d bd
       0.016607963 0.03229809 -0.14623728 -0.061793078
000360 c1 7b 47 bd 18 2d 4d bd 6d 04 15 3d 54 4a 0c 3c
       -0.048702005 -0.050091833 0.036381174 0.008562643
000370 11 f4 0d bc 3a 6a 9b 3d d9 2c 61 3c bb 76 73 bd
       -0.008664147 0.075886205 0.013743603 -0.059439402
000380 5d 6f 67 3d d2 ca 63 bc 6a 82 10 bd 52 c8 38 bd
       0.05650269 -0.013903337 -0.035280623 -0.045112915
000390 fa 82 1c be 9c 55 b1 bd bf b2 28 3d e1 f4 22 3c
       -0.15284339 -0.08658907 0.04118609 0.009946079
0003a0 33 53 c6 bb 8c c2 49 3d a1 c5 f1 3c d9 b5 c4 3d
       -0.0060523986 0.0492578 0.029513182 0.09604997
0003b0 c9 32 67 3d 23 23 7d 3d d0 56 0e 3d 79 ad 92 bd
       0.056444917 0.061801087 0.03475076 -0.071619935
0003c0 b1 1e 27 3e ce 84 7f 3b 87 12 9b 3c 89 ca ba bd
       0.16320302 0.003898907 0.018929733 -0.09120662
0003d0 0b 4c c4 3d c6 e2 43 3c 5c e6 e0 3d e6 33 f1 3c
       0.095848165 0.0119559225 0.109814376 0.029443692
0003e0 6a b3 5b 3d e1 7a ca 3c c5 ed 68 3d 2d 1d 9d bd
       0.0536379 0.024716796 0.05686738 -0.076715805
0003f0 cc 33 2f bd 3b f3 6d 3c 33 5d 81 bc f8 f3 9e bd
       -0.042774007 0.014523323 -0.015791511 -0.07761377

fc1.bias f4 [60]
000000 ee 16 e4 3d ab 0c 0a bd b0 7a e1 3d 74 41 dc bc
       0.11137186 -0.033703487 0.11009729 -0.02688668
000010 9e 52 aa 3d 1e c4 fb bc 37 7e 0b 3e 9e f5 a0 3d
       0.08316539 -0.030733164 0.13622366 0.07859348
000020 c9 05 ac 3d ac 0d a1 3d 58 5e 9d 3d 71 76 96 3d
       0.08399541 0.07863936 0.0768401 0.0734681
000030 b7 60 b0 3c 6c 17 bf 3d 5b ef 25 bc 22 d8 54 bd
       0.021530492 0.09330639 -0.010127868 -0.051963933
000040 dc cf 55 bd 8f 2b 18 3d 19 9a 86 bc 8d 85 92 bc
       -0.052200183 0.037150916 -0.016430901 -0.017885948
000050 16 64 39 3d 5f ee 78 3d 1b 7b 20 bd 65 10 3c 3d
       0.045261465 0.060774203 -0.039179903 0.045914073
000060 41 e2 6e 3b be be 83 3d f7 96 b9 3d c0 2f 59 bd
       0.0036450776 0.064328656 0.090619974 -0.053024054
000070 0e 6d 83 bc 07 bc 3a bd 56 8b e4 bc d1 bd 1e 3c
       -0.016043212 -0.045589473 -0.027898472 0.00968881
000080 9e 19 69 bd 18 35 42 3d 3e b6 b3 3c 58 7f 9d 3d
       -0.056909196 0.047413915 0.021937486 0.076903045
000090 dc 1e 78 3d 62 d6 02 3b 2c 97 74 3d 64 21 8d 3d
       0.060576305 0.0019964208 0.05971448 0.068911344
0000a0 29 3b 1d 3d 26 71 a3 bd e0 73 04 3c 4f cd a7 3b
       0.038386498 -0.07980566 0.008084267 0.0051209102
0000b0 ab 0d d3 3c 35 15 70 bd ce 5c 7c bd c6 23 c3 bc
       0.025763353 -0.058613975 -0.061611943 -0.023820769
0000c0 ce 90 ab bd a3 38 6b bd 04 16 c0 bd 01 07 c5 bd
       -0.08377229 -0.05742706 -0.09379199 -0.096204765
0000d0 22 e5 c6 3c d4 b6 64 bd 58 65 87 bc f9 89 82 3d
       0.02427918 -0.05583842 -0.016527817 0.063739724
0000e0 ae 4c c7 3d 74 ab 91 3d cf a2 b0 3c 76 c0 14 3c
       0.09731422 0.0711278 0.021562008 0.009079089

fc2.weight f4 [32, 128]
000000 32 d0 7e bd 6d cb 5b 3d c4 4c 47 be 9b 2d bb bd
       -0.06221027 0.0536608 -0.19462878 -0.09139558
000010 80 74 18 bd 20 09 54 bd 9c 5a 17 3e 37 12 5d bd
       -0.037220478 -0.051766515 0.14780658 -0.05397245
000020 2f fe 25 be 5c 72 a9 3d f3 44 d2 3d f6 37 dc 3d
       -0.16210245 0.082737654 0.10267057 0.10752861
000030 d2 57 f3 bd b9 5b 3d bd f4 74 81 bd 47 19 64 bd
       -0.11881985 -0.04623005 -0.06321135 -0.05568817
000040 fa e5 e4 bb 04 6d f0 bd 23 a9 63 be 84 72 5b be
       -0.006985423 -0.11739543 -0.2223249 -0.21430403
000050 a6 62 0b 3e c5 90 1e 3e bc f1 6a bd 2e 55 4a 3d
       0.1361185 0.15484913 -0.057359442 0.04939764
000060 70 c8 c4 3d 97 1b 14 3e 62 28 82 3d 29 92 be 3c
       0.09608543 0.1446365 0.06355359 0.023263054
000070 a2 fd 3e 3e 69 9f 3d 3e fe ab 98 bd c0 25 1c 3d
       0.1865144 0.18517841 -0.0745468 0.03812194
000080 9d 05 3a bd c6 4c 95 3c 4d 15 1a be 32 a8 61 3e
       -0.04541551 0.018225085 -0.15047188 0.22036818
000090 53 06 e0 bd 2d 1c 75 bd 33 bd 82 3c a5 dd f4 bc
       -0.10938706 -0.059841324 0.015959358 -0.029890845
0000a0 52 8c 1f be d1 b3 e4 3d a8 11 4d 3e 48 c1 d1 bd
       -0.15580872 0.1116711 0.20026267 -0.102419436
0000b0 4e 75 e1 bd 45 d7 35 be 5e 79 17 be 1b d6 16 3d
       -0.11008702 -0.177579 -0.14792392 0.03682528
0000c0 50 17 7f bd 98 9c 0c be 49 fd 95 bd 94 51 b2 bd
       -0.062278092 -0.13731611 -0.07323701 -0.08706966
0000d0 d0 4b 11 be 3d 51 53 3d d6 39 66 3e 78 66 a2 bd
       -0.14189076 0.051591147 0.22483 -0.079297006
0000e0 e5 18 91 3b ad ef 56 3d 3f 2d 24 3e e2 f6 19 3e
       0.0044280165 0.052474666 0.16032885 0.15035585
0000f0 1d d6 72 bd 29 6d 1a 3e 27 89 30 be 2f 30 03 be
       -0.059286226 0.15080704 -0.1723982 -0.1281135
000100 08 6d 8b 3a 6b d0 ae 3d d6 c3 53 3b ab 9a 8e bd
       0.0010637352 0.08535846 0.0032312772 -0.06963094
000110 b0 30 28 3d 12 31 81 3b 25 7c 92 3c 95 c1 fc 3d
       0.041062057 0.003942617 0.017881462 0.1234161
000120 43 42 7a bd 8c 01 6e 3e a5 f7 94 3c cc 3e 43 3e
       -0.06109835 0.23242778 0.018184492 0.19066924
000130 8c 26 79 bd 67 10 56 3c 38 84 1d be 4f 4a 74 3e
       -0.060827777 0.013065434 -0.15382469 0.23856471
000140 c4 53 93 bd f6 e2 0c 3e a0 3e 77 3d 96 6e bd 3d
       -0.071937114 0.13758454 0.06036246 0.09249608
000150 3d 2f 95 bd 5c c2 0a bc ec 21 05 3d 16 ed 52 bd
       -0.072844006 -0.00846919 0.032503054 -0.051495634
000160 c5 36 1a be ad 32 b2 bd f5 ed 1c bd a5 df 7e 3a
       -0.15059955 -0.08701072 -0.03831287 0.00097226567
000170 b9 c3 09 3d 9a 53 92 bc f1 cb 8f 3e c2 a2 28 be
       0.03363392 -0.01786213 0.28085282 -0.16468337
000180 f1 1e 88 3d 9f 33 10 be b9 26 af bc 0f f8 a9 3d
       0.066465266 -0.14082192 -0.02138077 0.082992665
000190 38 65 05 bd 7d f4 33 be d3 8b b2 3d 41 70 9b bc
       -0.032567233 -0.17573734 0.087180756 -0.018974425
0001a0 0c e9 7b 3e f9 7e 19 3e 6d 37 ad bd a1 c7 9e bd
       0.24600619 0.14989842 -0.08457837 -0.0775292
0001b0 c3 7c 26 3d c9 d7 76 3c fa c6 16 bc 88 a1 46 3e
       0.040646326 0.015066096 -0.009202713 0.19397557
0001c0 9c 3b b4 3c 27 6d 08 3e 9c e2 87 3d 99 60 b9 3c
       0.02200108 0.13322888 0.06635019 0.02262907
0001d0 ed b9 fb 3d 39 8c 4c 3e 2c ff 4b bd 73 64 a2 3d
       0.12291322 0.19975366 -0.049803898 0.079293154
0001e0 ed 6c 70 bd 39 0c 32 be cd e5 30 be fc 92 1c 3d
       -0.05869763 -0.17387475 -0.17275162 0.038226113
0001f0 e7 61 e6 3c a2 f8 0a be 84 fd 3d 3e 59 51 d1 bc
       0.028122855 -0.13571408 0.1855374 -0.025551485
000200 59 28 f4 3d 68 67 93 3e 90 dc 43 be e6 77 51 3e
       0.11921758 0.2878983 -0.19127107 0.20455894
000210 66 cc 68 3e aa d4 5e 3e be 99 d1 3c af 97 41 3e
       0.22734222 0.21760812 0.025586005 0.18905519
000220 33 56 e0 bd af d7 66 3e dc 91 65 be 0d 25 c2 3c
       -0.10953941 0.22543214 -0.22418922 0.023699308
000230 ab a7 1b be 48 70 33 3e f0 63 7a 3d 21 ef 2e bd
       -0.15200679 0.175233 0.061130464 -0.04270852
000240 87 17 ea 3c bf c6 29 3d 70 90 44 be 7b 01 6b be
       0.028575672 0.041449305 -0.19195724 -0.22949784
000250 02 55 5c 3d 7b 20 8b 3c 5a 6a d3 bd 5f ff 12 bc
       0.053792007 0.016983261 -0.10323019 -0.008972018
000260 47 65 0b 3b 09 5d 81 bc 6c ba 7b bd 10 e9 80 3d
       0.0021270083 -0.015791433 -0.061457083 0.06294453
000270 65 a4 28 3d 60 1e eb bb 61 33 52 3e d1 f3 71 3e
       0.041172404 -0.007175252 0.20527412 0.23628165
000280 41 72 75 3d 8c 19 64 3d db 8a 37 be 8f 4b 1d 3d
       0.059923414 0.055688426 -0.17924063 0.038402136
000290 94 b9 50 3e 8f 0c 2e 3e ae 4e 72 be dc 8c 7d be
       0.20383292 0.16996978 -0.23662826 -0.24760765
0002a0 0e 90 54 3e 3f a2 d6 3d 8d 29 f1 bb 42 c7 c4 bd
       0.20758078 0.10480165 -0.0073596896 -0.09608318
0002b0 0b 59 54 be 9c 7c f3 3d 8c 0c 1a be b0 33 ea bd
       -0.20737092 0.11889002 -0.15043849 -0.1143564
0002c0 5c 43 35 bc 25 3b 80 bc c9 e1 9e 3d 19 2e d9 3d
       -0.011063423 -0.015653202 0.07757909 0.106044956
0002d0 14 96 bb 3d 7c fd ab 3e 60 01 24 bd 09 c1 84 3e
       0.091594845 0.3359183 -0.040040374 0.25928524
0002e0 11 db 94 3d 46 38 96 3d 4a c1 38 be 03 81 b8 3c
       0.07268346 0.07334952 -0.18042484 0.022522455
0002f0 32 29 5f be cc cf 88 be 75 e8 8a bd 56 51 1a be
       -0.21793059 -0.26721036 -0.06782619 -0.1507009
000300 a1 a0 8d 3e 88 13 18 bd 15 ca da b7 6f d7 28 be
       0.27661613 -0.037128 -2.6081727e-05 -0.16488431
000310 5c 60 27 be 5c c9 40 be 78 41 7a bd 39 a8 b4 bb
       -0.16345352 -0.18826813 -0.061097592 -0.0055132178
000320 83 77 30 be 11 e1 b1 bc 26 57 3d 3e 44 ad e0 bc
       -0.1723309 -0.021713765 0.18490276 -0.02742637
000330 ba 0b 48 3e ab 0e 09 3e 6b ca cf 3c 06 56 6d 3d
       0.19535723 0.13384502 0.025365075 0.057943366
000340 4b 36 0a bc e7 50 e3 bd 14 a3 09 3e c5 8a 37 3e
       -0.008435796 -0.11099415 0.13441116 0.1792403
000350 0d 31 cf 3c 54 93 3c 3e 3a af 6b bd 41 97 d4 3d
       0.025291944 0.18415576 -0.057540156 0.10380412
000360 fc 40 0c be 4c 73 6b 3d cb 7e 93 3e 5a bf 66 3d
       -0.13696665 0.057483003 0.28807673 0.05633483
000370 cc f6 60 bd 54 7d df 3d 55 dc e5 bb 57 1e cb bd
       -0.054922864 0.10912576 -0.007014791 -0.09917896
000380 8e 8c fe 3c 17 fc 7a 3e 58 ba ee bc d2 8c df bd
       0.031072881 0.24510227 -0.02914159 -0.10915531
000390 f2 5f a7 bd 68 41 54 3e 2c c6 d8 3b b8 fa 81 bd
       -0.08172597 0.20728076 0.006615421 -0.06346649
0003a0 dc b6 80 bd b7 cb 97 3d cb 1a 55 be 09 52 81 3e
       -0.06284878 0.074119024 -0.20811002 0.252579
0003b0 a5 93 6f 3e 57 30 26 be 4c 00 ad bd 50 55 61 3c
       0.23396166 -0.16229378 -0.08447322 0.01375325
0003c0 d0 0d 0d bd 55 1f 8a 3e 72 43 04 be ec c3 3e be
       -0.034437 0.2697703 -0.12916353 -0.18629426
0003d0 e8 7e 14 3d 7b a7 1b 3e b2 09 eb 3d e4 25 ab 3d
       0.03625384 0.15200607 0.114764586 0.083568364
0003e0 2b 30 ae 3e 32 c9 31 be 55 cb 19 be c7 1d 30 be
       0.34021124 -0.17361906 -0.15018971 -0.17198859
0003f0 9f 2c ac 3d 32 02 a4 3d 14 ac dd 3b 61 7d de bd
       0.08406948 0.08008231 0.006764898 -0.10863758

fc2.bias f4 [32]
000000 60 11 eb 3b e2 37 97 3d b2 eb b2 3d 2f 38 f4 3d
       0.007173702 0.07383706 0.087363616 0.11924779
000010 7a c1 f9 3d 40 ba 23 3c dd e1 9a 3d 38 b4 8e 3d
       0.12195106 0.009993136 0.07562611 0.06967968
000020 60 9a 19 3d ca 74 94 3d 16 87 36 3e 93 f9 42 3d
       0.03750074 0.07248838 0.17824969 0.047601294
000030 b7 fd fc 3d a4 be 2e 3d 5f e7 52 3e 10 f6 a1 3d
       0.1235308 0.042662278 0.20596074 0.07908261
000040 dc 0c 01 3e 08 ca 34 3d b1 36 49 3d f3 69 9f 3d
       0.12602562 0.044137985 0.049124423 0.0778388
000050 50 3c 3e 3e 88 c2 7e 3d f0 1e 21 3e 81 af 38 3d
       0.18577695 0.06219724 0.15734458 0.04508925
000060 2a 9c 9e bc eb 63 47 3d d1 25 d3 3c fc 20 92 3d
       -0.019361574 0.048679274 0.025774868 0.071351975
000070 0a 16 4b 3d 15 1d 1c bc fa a8 37 3e 2a 9f f0 3d
       0.049581565 -0.009528418 0.17935553 0.11749108

fc3.weight f4 [4, 32]
000000 ea cf 08 be 61 87 30 3e bd e2 0d be 42 66 5a 3e
       -0.13360563 0.17239143 -0.13856025 0.21328071
000010 b9 2c 59 3d 3c ae 0b be 7e 2f 72 3d 25 6d 1e 3c
       0.053021166 -0.13640684 0.059127323 0.009669577
000020 6c 7b 30 bd 47 0e 15 3e d7 8c 34 3e 1b ea 74 3e
       -0.043086454 0.14556228 0.17631851 0.23917429
000030 15 77 5a 3e 97 33 b8 bd d3 8d 4c 3d ea b5 2a be
       0.21334489 -0.08994215 0.04993994 -0.16670957
000040 e6 95 09 be 99 cd 23 be b4 bc 2d be 82 a3 bc 3d
       -0.13436088 -0.15996398 -0.16966516 0.09210874
000050 ca 99 7c 3e 27 08 05 be 0c 1d 5e 3e 3a 3a bc bc
       0.24668041 -0.12991391 0.21690768 -0.022976983
000060 25 60 04 be 02 fb d9 3d 8b fa 5d 3e 12 46 36 3e
       -0.12927301 0.10643579 0.21677606 0.17800167
000070 ca 69 33 be 22 8c bc bd 3b 10 59 3e f2 04 35 3e
       -0.17520824 -0.09206416 0.21197598 0.17677668
000080 dc d2 d2 be 0c c2 b5 be 8e a9 a4 be d2 de c5 be
       -0.41176498 -0.3549961 -0.3216061 -0.3864656
000090 b5 39 fb 3d e5 05 b1 be 81 4a 05 3e 4a 02 6b 3e
       0.12266866 -0.3457481 0.13016702 0.22950092
0000a0 2a f7 ac be b0 59 42 3e f3 f1 b5 be 24 a6 61 be
       -0.3378232 0.18979526 -0.35536155 -0.22036034
0000b0 82 d2 9f be f3 7a 99 be 85 f2 d1 be a0 e4 1f 3e
       -0.31215292 -0.29976615 -0.4100534 0.15614557
0000c0 f9 4d c2 be e7 1c 55 be b5 a7 e6 3d 43 ee 0e 3e
       -0.37950113 -0.20811807 0.11262456 0.13958077
0000d0 a6 57 a4 be f1 a5 10 3e 0c 74 be be e5 8f 54 3e
       -0.3209812 0.14125802 -0.37197912 0.20758016
0000e0 ad b7 1c 3e 1a 43 ce be 10 84 8b 3e 42 ef 6b 3e
       0.15304442 -0.4028557 0.27249193 0.23040488
0000f0 e8 6d ed 3d f0 35 06 3e d2 f6 c0 be 21 1f 6a 3e
       0.115932286 0.13106513 -0.3768831 0.22863437
000100 24 90 a4 3d ad 18 40 3e 05 28 07 3e 93 1d 4c 3e
       0.08035305 0.18759413 0.1319886 0.19933157
000110 32 62 95 be 97 e1 2a 3e de 96 64 3d 1a a4 4a 3e
       -0.2917648 0.16687618 0.05580794 0.19789162
000120 a5 51 4a 3e 72 37 9f be d3 c2 c2 bd fd 95 6c 3e
       0.19757707 -0.3109699 -0.09509816 0.23104091
000130 07 dc 42 3e 88 cc da 3d c0 8f c1 3c 0a 3c 1f be
       0.19029246 0.106835425 0.023628116 -0.15550247
000140 bb 78 d0 3d 00 be 38 3e 19 39 3c be 8f c4 82 be
       0.101792775 0.18041229 -0.18381156 -0.25540587
000150 c0 18 70 bd e9 73 d3 3d ee 46 18 bd d1 82 2f 3e
       -0.058617353 0.103248425 -0.03717702 0.17139746
000160 3c 7d c2 bd 14 27 23 3e 63 35 34 be 65 e0 96 be
       -0.09496543 0.15932876 -0.1759849 -0.29468074
000170 f0 a2 b1 3d fd d8 7d be 7d 74 4d bd a7 49 86 be
       0.08673656 -0.24789806 -0.05015992 -0.26228067
000180 f6 e7 da 3d 60 c1 5d bd 34 58 1b 3e 39 bc e1 bd
       0.10688774 -0.054139495 0.15170366 -0.11022229
000190 4c 1b 8b 3d 0e b8 32 3e 7f ad b3 be 57 d0 7c be
       0.06792316 0.17453024 -0.35093305 -0.2468885
0001a0 f5 23 66 3e 98 34 c2 3d ed 70 2d 3e 3e 2c 75 bd
       0.22474654 0.09482688 0.16937609 -0.059856646
0001b0 88 50 28 be 6e 75 d2 3d 55 61 7a 3d 1c f9 bf 3d
       -0.1643697 0.10276304 0.06112798 0.09373686
0001c0 fc 4a f2 3d 3c b2 56 3e 9c f0 5d 3d 89 86 89 be
       0.118307084 0.20966429 0.05418454 -0.26860455
0001d0 fc fc 72 3e 82 75 89 be 41 d9 41 bb 4c 44 7b be
       0.23729318 -0.26847464 -0.0029578956 -0.24537772
0001e0 19 84 ff 3d 72 e1 5a be 23 76 0b be 84 95 a5 3c
       0.124763675 -0.21375063 -0.13619284 0.020212896
0001f0 c3 61 90 be 9e 91 a3 3d 60 cb 51 3e b3 1f 80 be
       -0.28199586 0.07986759 0.20487738 -0.25024185

fc3.bias f4 [4]
000000 7b 02 36 be 2a c6 86 bd 3e 14 7e bd ec d5 bb bc
       -0.17774384 -0.065807655 -0.062031023 -0.022929154
