LSTM_Attn/lstm_attn.pt (torch_old, 960722 bytes, 10 tensors)

lstm.weight_ih_l0 f4 [512, 300]
-0.00048898597 -0.04273195 -0.09695772 0.020191187 0.006851743 0.054668058 -0.047898237 0.060296167
0.0010625826 -0.004133093 0.15524305 0.01766751 -0.09674476 0.08037576 0.007928641 -0.043395367
-0.08982684 -0.071877874 -0.01557107 -0.012411711 0.030692223 0.024304597 0.015567197 -0.05930996
0.07035063 0.0811115 0.012392502 -0.020660093 0.083493985 -0.078401454 -0.013551652 0.0024268178
-0.06194981 -0.094470255 -0.028464017 -0.09891759 0.027785545 -0.0056835446 0.075179204 0.008819917
0.07080692 -0.06046163 0.0804118 -0.15836178 0.19186686 -0.058311485 0.0633878 0.062412363
0.13940161 0.0049148276 -0.049110796 -0.02371989 -0.069361545 -0.075898655 -0.0073782783 0.09475491
-0.023536066 0.031570222 0.07135884 0.0028318057 0.020757323 -0.002216872 -0.07085779 0.07377708
0.005522471 0.079199575 0.011473501 -0.020738633 -0.033444263 -0.002170477 -0.07893741 -0.1296012
0.03977358 -0.055104937 -0.011029093 -0.08508821 -0.0021967888 -0.037556134 0.093242966 0.08317358
0.08046491 -0.09324814 0.11744828 -0.08538216 0.029880077 0.042621605 0.050670028 0.10017836
0.07728413 0.083341785 -0.0007379846 -0.034353476 0.047890533 -0.021478863 -0.13517255 0.058061127
0.10878448 -0.06450121 0.05927831 0.0790579 -0.0071571744 -0.012003739 -0.041565076 -0.016866907
0.05059682 0.16085365 0.08298628 0.021112004 0.00950495 0.058188494 0.0025600647 -0.18884102
0.025585638 0.03496448 0.12173379 0.16308397 0.13468905 0.039479215 0.039911672 0.045407128
-0.021674821 -0.02855301 -0.006649826 0.028696207 -0.05363304 -0.010017824 0.13738579 0.15454249
0.036075663 0.03490025 0.05779356 -0.012269698 -0.0015498708 0.11213358 -0.048406895 -0.039194886
-0.12993683 -0.13522303 0.06229809 0.006373813 -0.09680059 0.05373076 -0.024096318 0.042053737
0.044732254 0.16229497 0.029922163 -0.119575724 0.039697483 -0.027484685 -0.06346337 -0.0682997
-0.08462196 0.08775719 -0.03028137 -0.010050472 0.012664744 0.043094806 0.07526649 0.015873624
0.033727385 -0.06808457 0.017959636 -0.11758592 -0.13030532 -0.17261744 0.072168216 -0.011077288
-0.07309494 -0.07898101 -0.06073381 0.0013507773 0.028264107 -0.09358005 0.0986117 0.08981704
-0.035772674 0.015048126 0.016689856 -0.0012790819 0.01332763 -0.048520546 -0.0070980876 0.02269438
-0.059002545 0.018517159 -0.037464358 -0.05432181 0.042611644 0.13814257 -0.11012886 -0.043981794
-0.014753754 0.119793065 0.0186582 -0.020062808 -0.06803201 0.09475555 0.09384701 0.025922244
0.09181016 0.11041081 0.1135957 0.047085922 0.036195245 -0.09985299 -0.06572345 -0.004725727
-0.038253367 -0.055506837 -0.11527847 0.15634434 -0.05955605 0.01729936 0.037568327 -0.005063394
0.019105984 0.04732072 0.09754424 -0.1497831 0.059437428 -0.046065267 0.09094363 0.03774933
0.10540018 0.12839133 0.022542283 -0.025660187 -0.05414641 -0.030319408 -0.09962163 -0.05509257
0.18260695 -0.072153054 -0.082432486 -0.06580344 -0.080962405 0.08430737 0.015226195 0.08951111
-0.013471795 0.087718785 -0.09943319 0.09722866 -0.015318575 0.046758026 -0.06435717 0.052976426
0.025819896 0.08669553 0.011456921 0.0026145654 -0.12989345 0.0083668195 0.08531818 0.033937935
00000000: 4b2f 00ba b207 2fbd c591 c6bd fd67 a53c
00000010: 9684 e03b 9deb 5f3d f130 44bd 1df9 763d
00000020: 5b46 8b3a e66e 87bb 09f8 1e3e 74bb 903c
00000030: 1e22 c6bd 0c9c a43d 21e7 013c 57bf 31bd
00000040: 22f7 b7bd b534 93bd cd1d 7fbc 7d5a 4bbc
00000050: 426e fb3c 6f1a c73c 8f0d 7f3c 00ef 72bd
00000060: fe13 903d c91d a63d ec09 4b3c 5b3f a9bc
00000070: e5fe aa3d f190 a0bd c007 5ebc 3f0b 1f3b
00000080: 15bf 7dbd 9f79 c1bd 5f2d e9bc 4e95 cabd
00000090: 839e e33c 073d babb 8ef7 993d 6a81 103c
000000a0: 3803 913d 9da6 77bd f1ae a43d 9729 22be
000000b0: bf78 443e 06d8 6ebd 76d1 813d 1ba4 7f3d
000000c0: 4cbf 0e3e 900c a13b 6728 49bd 3750 c2bc
000000d0: 6d0d 8ebd c170 9bbd 7cc5 f1bb dd0e c23d
000000e0: b5ce c0bc c74f 013d 9524 923d d195 393b
000000f0: 430b aa3c f148 11bb e41d 91bd 7018 973d
00000100: d8f5 b43b 6333 a23d 5afb 3b3c 11e4 a9bc
00000110: dafc 08bd 903e 0ebb f0a9 a1bd 2db6 04be
00000120: 9fe9 223d b7b5 61bd 5eb3 34bc ba42 aebd
00000130: 00f8 0fbb 76d4 19bd 2bf6 be3d e956 aa3d
00000140: c9ca a43d e1f8 bebd b988 f03d d8dc aebd
00000150: 10c7 f43c fe93 2e3d 608b 4f3d 502a cd3d
00000160: 2447 9e3d 19af aa3d 4f75 41ba 3bb6 0cbd
00000170: dd28 443d 71f4 afbc ac6a 0abe 81d1 6d3d
00000180: 66ca de3d 3619 84bd d0cd 723d 1ce9 a13d
00000190: bb86 eabb 55ab 44bc 2440 2abd 782c 8abc
000001a0: 9c3e 4f3d d2b6 243e b6f4 a93d 15f3 ac3c
000001b0: a6ba 1b3c 0f57 6e3d c2c6 273b 8a5f 41be
000001c0: f998 d13c ea36 0f3d 914f f93d 7cff 263e
000001d0: edeb 093e f5b4 213d 6c7a 233d d3fc 393d
000001e0: 658f b1bc 01e8 e9bc c9e6 d9bb 4f14 eb3c
000001f0: 52ae 5bbd cd21 24bc dcae 0c3e 6340 1e3e
00000200: 13c4 133d 91f3 0e3d f1b8 6c3d d806 49bc
00000210: 0925 cbba 4aa6 e53d 4f46 46bd d18a 20bd
00000220: 290e 05be e877 0abe 482c 7f3d 6bdb d03b
00000230: 633f c6bd c914 5c3d a465 c5bc 8a40 2c3d
00000240: 2b39 373d a730 263e 531f f53c 1ee4 f4bd
00000250: d499 223d 9027 e1bc 15f9 81bd b7e0 8bbd
00000260: 474e adbd 0bba b33d a310 f8bc bcaa 24bc
00000270: c97f 4f3c 2e84 303d 5125 9a3d 6709 823c
00000280: ba25 0a3d ec6f 8bbd 1620 933c e3d0 f0bd
00000290: c26e 05be a0c2 30be eecc 933d 837d 35bc
000002a0: cdb2 95bd ccc0 a1bd 04c4 78bd 910c b13a
000002b0: 218a e73c e6a6 bfbd eef4 c93d fff1 b73d
000002c0: 5e86 12bd 6a8c 763c 2ab9 883c dea6 a7ba
000002d0: 225c 5a3c 7bbd 46bd 1397 e8bb 90e9 b93c
000002e0: a7ac 71bd 4cb1 973c 3a74 19bd 8c80 5ebd
000002f0: 8c89 2e3d 3f75 0d3e 3d8b e1bd 4126 34bd
00000300: bbb9 71bc 1156 f53d 15d9 983c c25a a4bc
00000310: 5e54 8bbd 330f c23d dc32 c03d e35a d43c
00000320: f706 bc3d 101f e23d dda4 e83d 2bdd 403d
00000330: 7741 143d b97f ccbd 049a 86bd 45da 9abb
00000340: 90af 1cbd 235b 63bd 1e17 ecbd bb18 203e
00000350: 0bf1 73bd 63b7 8d3c 3fe1 193d d4ea a5bb
00000360: 2784 9c3c 5fd3 413d 46c5 c73d be60 19be
00000370: a974 733d efae 3cbd a740 ba3d 0b9f 1a3d
00000380: 0ddc d73d 0479 033e 98aa b83c 5035 d2bc
00000390: a0c8 5dbd 6860 f8bc 6d06 ccbd bfa8 61bd
000003a0: 51fd 3a3e fbc4 93bd 5dd2 a8bd f4c3 86bd
000003b0: 9ecf a5bd 58a9 ac3d 4a77 793c 9a51 b73d
000003c0: ceb8 5cbc e8a5 b33d a1a3 cbbd d21f c73d
000003d0: c3fa 7abc 5885 3f3d b1cd 83bd cffd 583d
000003e0: 3f84 d33c 6d8d b13d cfb5 3b3c 2159 2b3b
000003f0: ca02 05be fc14 093c 4cbb ae3d 8102 0b3d

lstm.weight_hh_l0 f4 [512, 128]
-0.10238178 0.072088145 0.05165133 -0.09117816 -0.063973516 0.0056741475 0.029809248 -0.0029108778
-0.035556756 -0.091399774 -0.074992634 0.036639355 0.07585507 0.061161846 0.070563465 -0.054456197
-0.06717185 -0.028771015 -0.013107209 -0.09638885 -0.08140118 -0.08925014 0.067998074 -0.047075905
0.042950533 -0.08826263 -0.048542395 0.052291695 0.053299088 -0.05300185 0.047793232 0.06608
-0.028568031 0.060464412 0.0067164344 -0.03251753 0.027761016 -0.051489223 -0.06887693 -0.04157384
0.016178628 0.054330714 0.06923943 -0.050856013 -0.078020826 -0.025027085 0.055902127 0.049831178
-0.10014092 0.026515538 0.059547134 0.16366778 -0.08989947 -0.010046136 0.020307256 0.0151672615
-0.042681124 -0.066951126 0.11339024 0.036131762 -0.122538276 0.004326196 0.04432452 -0.111959025
0.004063833 -0.060358018 -0.038909417 -0.08038938 -0.020270735 -0.012315323 0.0019158608 0.055813953
0.018656906 -0.038569156 0.012058757 -0.0700663 0.029001573 -0.07566254 0.006555052 0.037376475
-0.015846655 -0.0043963757 -0.08587585 -0.052783646 -0.04638318 -0.04720274 0.0038319258 0.009180446
0.124392726 -0.0015490985 -0.090197936 -0.00516039 -0.0029132452 0.06849986 -0.068557374 0.033332385
0.01150581 -0.018973848 -0.03838592 0.046655957 -0.078176916 0.07208003 -0.0039261407 -0.008131146
-0.020726683 0.023613382 -0.059754413 -0.117705524 0.15493757 -0.043810386 0.06509461 0.08228586
-0.022612523 -0.07655136 -0.026132932 0.036365215 0.016493993 -0.10973592 -0.078670345 -0.08540173
-0.0647548 -0.080151744 0.042818572 0.016831584 0.06903466 -0.085112475 -0.052734833 0.005868707
-0.08340871 0.03538344 0.017774822 -0.12429396 0.005148227 0.033784255 -0.076219484 -0.07766888
0.011880263 -0.09062024 0.034693517 -0.030056242 -0.0550768 -0.029300945 -0.042925984 0.029662618
0.027937952 -0.026823325 0.046141583 -0.1608731 -0.040363435 -0.044529792 -0.056270614 0.118899435
-0.0030805536 0.03986246 -0.0060027274 0.06911676 -0.04715273 0.074667506 0.07210973 0.0017311315
-0.09750289 -0.049673084 -0.022393903 -0.11153026 -0.04049346 -0.002377954 0.030673034 0.026122013
0.06765309 0.011833913 -0.09498773 0.08306743 0.08377434 -0.076492965 0.03945482 0.08787474
0.07123612 0.06548047 -0.0018061948 0.10352593 0.09057702 0.017509505 -0.15266214 0.021831365
0.033418924 0.0014304885 0.03235084 0.015478137 -0.14647909 0.05184102 -0.011011442 0.02638923
-0.010070528 -0.007965277 0.015991976 -0.062096827 0.043245118 0.026103757 -0.047780097 0.07175069
-0.017593432 -0.01583075 0.03635377 -0.053002656 -0.0018839284 0.09386591 0.017056316 0.07696786
0.05127104 0.08809033 -0.093519 -0.028553417 -0.05821286 -0.011810881 0.0048672995 -0.03599301
-0.042583704 0.04690696 -0.08408959 0.06751705 -0.05058769 -0.12102652 0.028427728 0.094511814
0.0443575 -0.062284857 0.06543142 -0.053260554 -0.05949639 0.029850952 -0.13656394 -0.049023874
-0.03835038 0.04669982 -0.096551344 0.05330946 0.009819878 -0.020439412 0.05432421 0.032726824
0.049971 -0.052543685 0.008254221 0.08744622 -0.0575368 -0.16291842 0.04970326 -0.14788456
-0.03575223 0.026345221 -0.055933572 -0.05806633 0.038288675 -0.036641557 0.046464723 0.061914276
00000000: 8aad d1bd f3a2 933d 5890 533d 9dbb babd
00000010: 8c04 83bd 33ee b93b 8632 f43c 6dc4 3ebb
00000020: f6a3 11bd ce2f bbbd bd95 99bd 2613 163d
00000030: e759 9b3d d884 7a3d 9483 903d 760d 5fbd
00000040: 6591 89bd 31b1 ebbc 9ebf 56bc 8467 c5bd
00000050: a9b5 a6bd c7c8 b6bd 9342 8b3d aad2 40bd
00000060: e6ec 2f3d 0ac3 b4bd 64d4 46bd d12f 563d
00000070: 2550 5a3d 7818 59bd d6c2 433d f354 873d
00000080: 8107 eabc 88a9 773d 8915 dc3b 1a31 05bd
00000090: 126b e33c 5de6 52bd 590f 8dbd 5549 2abd
000000a0: 0b89 843c e289 5e3d 67cd 8d3d 654e 50bd
000000b0: 62c9 9fbd 9a05 cdbc a1f9 643d c71b 4c3d
000000c0: af16 cdbd 1d37 d93c b2e7 733d 8798 273e
000000d0: 371d b8bd 8c98 24bc 675b a63c 1b80 783c
000000e0: 67d2 2ebd ac1d 89bd 2439 e83d e6fe 133d
000000f0: 59f5 fabd c3c2 8d3b a18d 353d c64a e5bd
00000100: e729 853b f839 77bd 7b5f 1fbd 30a3 a4bd
00000110: d00e a6bc 35c6 49bc 9f1d fb3a 2c9d 643d
00000120: 5ed6 983c b1fa 1dbd 1892 453c ec7e 8fbd
00000130: b594 ed3c f6f4 9abd c3cb d63b 1318 193d
00000140: d8d0 81bc 790f 90bb addf afbd aa33 58bd
00000150: 4afc 3dbd a957 41bd 0c21 7b3b 9569 163c
00000160: 9dc1 fe3d 1f0b cbba b2b9 b8bd 7d18 a9bb
00000170: 25ec 3ebb a849 8c3d cf67 8cbd 8a87 083d
00000180: dd82 3c3c 0b6f 9bbc 8e3a 1dbd 511a 3f3d
00000190: 381b a0bd b29e 933d dba6 80bb 8038 05bc
000001a0: 01cb a9bc da70 c13c 0bc1 74bd 980f f1bd
000001b0: f4a7 1e3e 8572 33bd 5350 853d 7d85 a83d
000001c0: e63d b9bc f6c6 9cbd bb14 d6bc b1f3 143d
000001d0: 691e 873c 3abd e0bd eb1d a1bd 1ae7 aebd
000001e0: 2a9e 84bd 9926 a4bd 8762 2f3d 64e2 893c
000001f0: 0b62 8d3d 734f aebd 7b00 58bd 484e c03b
00000200: 30d2 aabd 3aee 103d 819c 913c d58d febd
00000210: 75b2 a83b 5c61 0a3d f618 9cbd dd10 9fbd
00000220: 6fa5 423c 1b97 b9bd ca1a 0e3d 8238 f6bc
00000230: 3698 61bd 8908 f0bc 28d3 2fbd 05ff f23c
00000240: 22de e43c 97bc dbbc f5fe 3c3d ebbb 24be
00000250: 2154 25bd df64 36bd 047c 66bd 8c81 f33d
00000260: 1de3 49bb d246 233d 87b2 c4bb 168d 8d3d
00000270: 3923 41bd 47eb 983d 44ae 933d 22e7 e23a
00000280: 98af c7bd 0176 4bbd 6b73 b7bc fa69 e4bd
00000290: 78dc 25bd 73d7 1bbb 0446 fb3c d5fd d53c
000002a0: b48d 8a3d 07e3 413c ed88 c2bd 421f aa3d
000002b0: e291 ab3d 58a8 9cbd 619b 213d acf7 b33d
000002c0: 3ee4 913d a01a 863d d7bd ecba 6705 d43d
000002d0: 7280 b93d 1870 8f3c 7753 1cbe b1d7 b23c
000002e0: 48e2 083d 3b7f bb3a 5082 043d 0398 7d3c
000002f0: 9dfe 15be 4057 543d 5669 34bc 3a2e d83c
00000300: dbfe 24bc cb80 02bc 9b01 833c 3e59 7ebd
00000310: cb21 313d 8cd7 d53c 10b5 43bd 07f2 923d
00000320: 1a20 90bc 7daf 81bc b1e7 143d 5019 59bd
00000330: 26ee f6ba c53c c03d b0b9 8b3c 53a1 9d3d
00000340: 9501 523d b468 b43d e486 bfbd dbe8 e9bc
00000350: 9c70 6ebd 6d82 41bc de7d 9f3b 686d 13bd
00000360: 406c 2ebd 8321 403d 2a37 acbd 6146 8a3d
00000370: 0a35 4fbd c1dc f7bd 44e1 e83c 698f c13d
00000380: 36b0 353d 681e 7fbd e900 863d bd27 5abd
00000390: 7db2 73bd fc89 f43c 6bd7 0bbe 42cd 48bd
000003a0: 4a15 1dbd 4f48 3f3d b6bc c5bd 055b 5a3d
000003b0: 8ee3 203c 8e70 a7bc 1083 5e3d 900c 063d
000003c0: 64ae 4c3d 0c38 57bd b63c 073c 0117 b33d
000003d0: b5ab 6bbd 16d4 26be a595 4b3d 0d6f 17be
000003e0: ee70 12bd efd1 d73c 9a1a 65bd f6d6 6dbd
000003f0: 96d4 1c3d 7515 16bd cb51 3e3d d399 7d3d

lstm.bias_ih_l0 f4 [512]
-0.014981347 -0.032064036 -0.054944962 -0.22928849 -0.020023543 0.08791045 0.0319084 -0.03378035
-0.07557467 0.0030574393 -0.16038996 0.039015386 0.007366953 -0.011893818 -0.073505245 0.07072928
-0.032088466 0.008244673 -0.09600604 -0.09780379 0.039618608 -0.05933178 -0.091604896 -0.11588574
-0.032803334 -0.0676445 -0.05154384 -0.051536497 0.027246965 0.08927931 0.029827246 0.021173721
-0.07514023 0.0014321974 -0.017010497 0.017201833 0.031493437 0.06364385 -0.005943336 0.081673026
-0.062111154 -0.045900166 0.013547252 -0.0028576131 -0.13556269 -0.03964397 0.027800446 0.023601742
0.0844583 -0.021945864 0.018810716 -0.038383797 -0.09587692 -0.19239691 -0.083814934 -0.015819034
0.019178903 0.07459867 0.027307045 0.050439313 -0.14652576 -0.032541085 -0.061779574 0.043982934
0.10145991 0.0012983417 0.05835674 -0.010506621 -0.009432205 0.06484764 -0.06373115 -0.017477192
-0.046081886 0.035689313 0.029947434 -0.061720937 0.0037986399 -0.0038073214 -0.05227879 -0.072892755
0.058676183 0.061374266 -0.06279945 0.006075806 0.06064498 0.06418402 -0.008729246 -0.09756602
-0.0750446 0.113524236 -0.028236624 -0.07977289 -0.07341104 -0.042519357 -0.06752219 -0.071864575
-0.035032306 -0.05575737 -0.0673448 -0.0008730379 0.013047365 -0.04683582 0.071644865 -0.016574213
-0.058220763 0.030107945 0.09597825 0.03800516 0.03289179 -0.035750218 -0.037347138 -0.0070605543
0.061482828 -0.17697804 -0.060668238 0.0038541097 0.030494774 -0.05879455 -0.024209913 0.0041351086
-0.008911503 -0.059042454 -0.0688132 -0.025450869 0.030906465 0.045563243 -0.049955163 0.015770616
0.078269996 -0.10027636 0.09961224 0.018944653 0.078179665 0.06671235 -0.039216302 0.11469923
0.08296909 -0.06406167 0.12332411 0.10966677 -0.0056215883 -0.020869503 -0.003983235 0.021940187
0.022713836 0.02174763 -0.02279979 0.09273138 0.06117479 -0.026768034 0.055197585 0.014537447
0.06128991 0.06512943 0.029675405 0.057371918 0.045408394 0.05308788 -0.01644136 -0.01577793
0.015291378 -0.054307066 -0.06029012 0.013200352 0.09072186 -0.049191233 -0.010799483 0.09097097
0.021582546 0.08607594 0.041585665 -0.011025449 0.025851311 0.049347013 0.0056319805 -0.01718585
-0.06588404 0.043340344 0.069948144 -0.037833698 0.09828484 -0.0015969592 -0.0845849 0.09657316
0.010928205 0.031249221 -0.030846924 0.034551006 0.094036415 0.07853281 0.074502595 -0.09801953
0.04934172 0.089112334 0.049944215 0.056414504 0.037254244 -0.07712045 0.06079471 -0.03440409
0.0076982933 -0.09683547 0.029062232 -0.01736289 0.064705044 0.09354948 -0.08354583 -0.031112533
0.07466322 -0.021226298 0.10618049 0.065760344 0.08366536 -0.022701235 0.056926426 -0.07360456
-0.011718801 -0.020079749 -0.04515192 -0.006920151 0.087210104 -0.057616886 0.0028572243 0.0133656245
-0.015654318 -0.007917721 0.0988309 0.025796821 -0.047813762 0.09838088 -0.011835286 0.056376684
0.03351286 0.09812883 0.008839422 0.019922698 0.1412284 0.021510428 0.09325817 -0.0254992
-0.02756779 0.073086776 0.05387835 -0.029991407 -0.014705356 0.17101495 0.035746686 0.054014742
-0.062072065 0.038658112 0.100302175 0.09863261 0.00061693834 0.06676554 -0.01824142 0.052802604
00000000: 5374 75bc 9455 03bd f80d 61bd 9aca 6abe
00000010: 6a08 a4bc 650a b43d 62b2 023d 445d 0abd
00000020: e5c6 9abd 525f 483b 443d 24be 99ce 1f3d
00000030: 7b66 f13b 4ade 42bc eb89 96bd 83da 903d
00000040: 326f 03bd aa14 073c d19e c4bd 5a4d c8bd
00000050: 1f47 223d e105 73bd 599b bbbd 8155 edbd
00000060: ca5c 06bd 3389 8abd a21f 53bd ef17 53bd
00000070: 0735 df3c 12d8 b63d 4558 f43c 8374 ad3c
00000080: 1fe3 99bd 92b8 bb3a 9959 8bbc dcea 8c3c
00000090: 43ff 003d b557 823d 51c0 c2bb 3044 a73d
000000a0: 4468 7ebd d001 3cbd 4bf5 5d3c cb46 3bbb
000000b0: f2d0 0abe b761 22bd c3bd e33c 7158 c13c
000000c0: 79f8 ac3d d0c7 b3bc ee18 9a3c 5438 1dbd
000000d0: 1e5b c4bd b203 45be 2aa7 abbd eb96 81bc
000000e0: 131d 9d3c 30c7 983d 06b3 df3c 7499 4e3d
000000f0: d90a 16be cd49 05bd 940c 7dbd 7327 343d
00000100: 37ca cf3d 1e2d aa3a 7a07 6f3d f623 2cbc
00000110: 8989 1abc d7ce 843d 7a85 82bd 542c 8fbc
00000120: 5cc0 3cbd f52e 123d 5254 f53c 18cf 7cbd
00000130: 9af2 783b 4184 79bb 4922 56bd cc48 95bd
00000140: 7056 703d 9563 7b3d ff9c 80bd 8e17 c73b
00000150: df66 783d e972 833d 1d05 0fbc b2d0 c7bd
00000160: fcb0 99bd 657f e83d 7e50 e7bc f85f a3bd
00000170: 8758 96bd c728 2ebd 1349 8abd bc2d 93bd
00000180: 097e 0fbd d761 64bd 12ec 89bd 95dc 64ba
00000190: 9dc4 553c ebd6 3fbd 8bba 923d a5c6 87bc
000001a0: e578 6ebd f0a4 f63c 3f90 c43d 4cab 1b3d
000001b0: 8bb9 063d d26e 12bd 50f9 18bd 395c e7bb
000001c0: 6bd5 7b3d bb39 35be 427f 78bd 3b95 7c3b
000001d0: 2dd0 f93c 8ed2 70bd de53 c6bc ce7f 873b
000001e0: 8d01 12bc 80d6 71bd efed 8cbd 577e d0bc
000001f0: 8e2f fd3c 86a0 3a3d c99d 4cbd 6131 813c
00000200: 054c a03d b15d cdbd 8101 cc3d d131 9b3c
00000210: a91c a03d 7ca0 883d 46a1 20bd 6ee7 ea3d
00000220: b3eb a93d c432 83bd 5a91 fc3d f998 e03d
00000230: 4d35 b8bb 85f6 aabc cc85 82bb e8bb b33c
00000240: 5e12 ba3c 1628 b23c a0c6 babc f3e9 bd3d
00000250: 6b92 7a3d a348 dbbc dd16 623d 792e 6e3c
00000260: 210b 7b3d 9462 853d d619 f33c d1fe 6a3d
00000270: 27fe 393d ad72 593d 08b0 86bc b840 81bc
00000280: b088 7a3c 1671 5ebd c6f2 76bd 4a46 583c
00000290: 62cc b93d bf7c 49bd 51f0 30bc fd4e ba3d
000002a0: e1cd b03c 9548 b03d bb55 2a3d 16a4 34bc
000002b0: 21c6 d33c 1820 4a3d 7a8c b83b 57c9 8cbc
000002c0: 36ee 86bd a585 313d f940 8f3d 82f7 1abd
000002d0: 9049 c93d 0f51 d1ba d93a adbd 26c8 c53d
000002e0: 370c 333c 5efe ff3c b0b2 fcbc 5b85 0d3d
000002f0: 2a96 c03d cfd5 a03d d194 983d 77be c8bd
00000300: 8b1a 4a3d 8780 b63d 4e92 4c3d e512 673d
00000310: e897 183d 54f1 9dbd e003 793d 4eeb 0cbd
00000320: f741 fc3b ad51 c6bd eb13 ee3c 9f3c 8ebc
00000330: 1484 843d df96 bf3d 131a abbd b6df febc
00000340: 08e9 983d c6e2 adbc 2875 d93d 5cad 863d
00000350: bf58 ab3d f1f7 b9bc af2b 693d fdbd 96bd
00000360: 3700 40bc 497e a4bc 38f1 38bd 6fc2 e2bb
00000370: 369b b23d afff 6bbd 4540 3b3b 7efb 5a3c
00000380: 7c3d 80bc 54b9 01bc db67 ca3d db53 d33c
00000390: 5dd8 43bd ea7b c93d cae8 41bc 3deb 663d
000003a0: c844 093d c5f7 c83d 39d3 103c ed34 a33c
000003b0: 2d9e 103e a336 b03c 24fe be3d b3e3 d0bc
000003c0: d9d5 e1bc 85ae 953d 8baf 5c3d 8ab0 f5bc
000003d0: bcee 70bc 8b1e 2f3e 1e6b 123d 903e 5d3d
000003e0: 473f 7ebd f857 1e3d 3a6b cd3d e5ff c93d
000003f0: 08ba 213a 5fbc 883d 086f 95bc 8b47 583d

lstm.bias_hh_l0 f4 [512]
0.011126275 0.013213651 0.033053298 -0.119019374 -0.020547297 -0.016760806 -0.0646767 0.08415606
0.04430671 0.034969464 -0.048426457 -0.02543896 -0.056726933 -0.06474137 -0.018981772 -0.07840946
-0.071838275 -0.0722995 -0.08922773 -0.11835041 0.054982774 0.10592917 -0.04234232 -0.09019514
-0.079850465 0.001852269 -0.04537516 0.07479161 -0.004985352 0.006359759 -0.05765137 -0.03193378
-0.030473035 0.0058073346 0.027692635 -0.039034147 -0.033627134 0.05999621 -0.04474559 -0.036626864
0.005672439 0.029815849 0.101908326 0.04042663 0.0096865315 -0.05380537 0.040573526 -0.1212084
0.0051498692 -0.06964692 0.05586031 0.06002006 -0.06929757 -0.060029563 -0.03773699 0.06674979
0.09084948 0.1536613 -0.07983077 0.026285209 -0.042733923 -0.03756302 0.021545677 0.03867302
0.074162416 0.09692562 -0.05891905 0.07302175 0.01091774 0.038571652 0.016132982 0.08148943
-0.039562117 -0.05626573 0.054174423 0.07789229 -0.016819771 -0.060116954 0.064293124 0.037324253
-0.077110946 -0.009379593 -0.07314651 -0.0106030805 -0.07365606 -0.025907548 0.047415305 -0.0076229284
-0.04681577 0.026667003 0.017351085 0.036549695 -0.07941218 0.015257818 0.050171055 0.013740287
-0.091464646 -0.0312108 -0.0016472256 -0.02234333 0.06989294 -0.042404003 0.017390467 -0.05712336
0.020466495 -0.011455509 0.017332014 -0.057936445 0.020153366 -0.052936744 0.092633635 -0.03049463
-0.062188935 -0.22422962 -0.09641556 0.038440242 -0.055477787 -0.08493796 0.023180429 -0.06612197
-0.04615616 0.09380005 -0.15299626 0.018612206 0.04501533 -0.07603234 -0.014295282 -0.10842211
0.019292057 0.049918935 -0.04313633 -0.053148896 0.0045489185 -0.05173046 -0.00701772 0.027961643
0.044593778 -0.05542744 -0.015600964 0.09382676 -0.065878384 -0.06551236 0.08759788 0.037180796
-0.0077127577 -0.00793627 0.050708544 0.09699521 0.0083438065 -0.018927412 -0.08894341 -0.025372045
-0.0039294926 0.0073195617 0.014538057 0.06736405 -0.022770602 0.04620846 0.06416545 -0.07705171
0.08206508 0.006967135 -0.033455804 0.07600297 -0.057943974 -0.024942704 0.088407055 0.080709316
0.099244915 0.08964211 0.046671815 0.1001358 0.055043142 0.04229001 0.0073319343 -0.052348163
-0.0633124 -0.034959942 -0.048277628 0.08247841 -0.008951461 0.031457294 0.03459078 0.09542167
-0.08827484 0.09886295 0.033723295 -0.035335407 0.01779134 0.0037022526 -0.01191968 -0.06759791
-0.011148413 0.08438013 -0.063083656 0.13718729 -0.06017222 -0.07534727 -0.079051025 0.05326339
-0.0094669135 -0.08467602 0.0070072883 0.045170847 -0.06394003 0.080619834 0.013863441 -0.033751316
0.09420695 0.10745926 -0.029554237 -0.060428917 -0.0033030738 0.01691106 0.009448299 0.060570918
0.028572237 0.0500813 -0.028901897 0.0110836085 -0.049751 0.036733437 0.06364719 -0.053500988
0.021525955 -0.02863814 0.008436037 -0.056077544 -0.025202915 0.04762502 0.12301703 0.09168689
0.07684099 0.026741944 0.011340488 -0.028695425 0.07889248 0.08269366 -0.015134479 -0.100012496
0.017555026 -0.053600863 0.105516344 0.047219496 0.06670702 0.06343955 -0.051976815 -0.04060036
-0.06989427 -0.046257354 0.07476373 -0.01190323 0.046754725 0.046290074 -0.06358041 -0.02992723
00000000: fb4a 363c 127e 583c e562 073d 6ec0 f3bd
00000010: ce52 a8bc f54d 89bc 3875 84bd 035a ac3d
00000020: f47a 353d 243c 0f3d d25a 46bd 5e65 d0bc
00000030: 805a 68bd 2097 84bd a97f 9bbc 2495 a0bd
00000040: f21f 93bd c311 94bd 07bd b6bd b361 f2bd
00000050: 9e35 613d 65f1 d83d 246f 2dbd 3bb8 b8bd
00000060: a488 a3bd d6c7 f23a 4edb 39bd 582c 993d
00000070: 2a5c a3bb 8665 d03b d823 6cbd ffcc 02bd
00000080: 96a2 f9bc 744b be3b aadb e23c 45e2 1fbd
00000090: 9bbc 09bd 96be 753d 2747 37bd 0d06 16bd
000000a0: dedf b93b 5e40 f43c 50b5 d03d 6596 253d
000000b0: 42b4 1e3c 0563 5cbd 6d30 263d 1c3c f8bd
000000c0: 3cc0 a83b 0ba3 8ebd c8cd 643d 98d7 753d
000000d0: e2eb 8dbd 8fe1 75bd 1a92 1abd 1db4 883d
000000e0: 4b0f ba3d 6359 1d3e 517e a3bd 1454 d73c
000000f0: c409 2fbd aedb 19bd 8f80 b03c 9a67 1e3d
00000100: 77e2 973d f180 c63d 1a55 71bd 6d8c 953d
00000110: 52e0 323c 4ffd 1d3d 5129 843c eee3 a63d
00000120: e30b 22bd e576 66bd 00e6 5d3d fe85 9f3d
00000130: 9ec9 89bc 323d 76bd 1dac 833d 51e1 183d
00000140: 58ec 9dbd ddac 19bc d6cd 95bd 8bb8 2dbc
00000150: fdd8 96bd 113c d4bc 8d36 423d c2c9 f9bb
00000160: e5c1 3fbd c274 da3c dd23 8e3c 22b5 153d
00000170: daa2 a2bd edfb 793c 2a80 4d3d f11e 613c
00000180: d151 bbbd cbad ffbc b8e7 d7ba 5c09 b7bc
00000190: 0824 8f3d d2af 2dbd 7476 8e3c 2ffa 69bd
000001a0: 5aa9 a73c e3af 3bbc defb 8d3c c44e 6dbd
000001b0: ac18 a53c 33d4 58bd b4b6 bd3d e0cf f9bc
000001c0: d3b9 7ebd 739c 65be 8575 c5bd 8473 1d3d
000001d0: ad3c 63bd f4f3 adbd e2e4 bd3c f56a 87bd
000001e0: 3e0e 3dbd 3e1a c03d 0dab 1cbe a078 983c
000001f0: ff61 383d d8b6 9bbd c236 6abc 690c debd
00000200: 600a 9e3c cc77 4c3d b8af 30bd a8b2 59bd
00000210: 180f 953b 52e3 53bd e7f4 e5bb d10f e53c
00000220: f7a7 363d e207 63bd 309b 7fbc 3f28 c03d
00000230: 3feb 86bd 582b 86bd 8466 b33d e44a 183d
00000240: 4dbb fcbb 2107 02bc c3b3 4f3d 6da5 c63d
00000250: 76b4 083c a90d 9bbc f627 b6bd 09d9 cfbc
00000260: f9c2 80bb efd8 ef3b 0831 6e3c 2af6 893d
00000270: 6a89 babc 1545 3d3d 2d69 833d 49cd 9dbd
00000280: bd11 a83d 904c e43b f408 09bd 72a7 9b3d
00000290: a956 6dbd a454 ccbc c20e b53d ed4a a53d
000002a0: eb40 cb3d 4896 b73d f22a 3f3d 0014 cd3d
000002b0: eb74 613d 4a38 2d3d b940 f03b 076b 56bd
000002c0: eea9 81bd 2832 0fbd c3be 45bd 71ea a83d
000002d0: 26a9 12bc 5dd9 003d 10af 0d3d 706c c33d
000002e0: 70c9 b4bd a978 ca3d 7021 0a3d dcbb 10bd
000002f0: 25bf 913c 7ea1 723b c34a 43bc c670 8abd
00000300: d5a7 36bc 7dcf ac3d 0132 81bd d37a 0c3e
00000310: 2577 76bd ab4f 9abd 81e5 a1bd b62a 5a3d
00000320: 1d1b 1bbc 9f6a adbd 659d e53b 1105 393d
00000330: fef2 82bd 031c a53d 7c23 633c d23e 0abd
00000340: 93ef c03d 9a13 dc3d ba1b f2bc 5084 77bd
00000350: 6278 58bb 1089 8a3c 0acd 1a3c 3619 783d
00000360: 5310 ea3c 0d22 4d3d acc3 ecbc 0698 353c
00000370: b4c7 4bbd cd75 163d 7559 823d da23 5bbd
00000380: 3357 b03c 889a eabc 4e37 0a3c 91b1 65bd
00000390: 5876 cebc 7412 433d 5af0 fb3d 56c6 bb3d
000003a0: cf5e 9d3d ec11 db3c 74cd 393c ab12 ebbc
000003b0: 6192 a13d 4b5b a93d 9bf6 77bc 5ad3 ccbd
000003c0: 8fcf 8f3c 948c 5bbd f418 d83d 3b69 413d
000003d0: b19d 883d 98ec 813d a4e5 54bd 904c 26bd
000003e0: ba24 8fbd 5a78 3dbd ba1d 993d c405 43bc
000003f0: e281 3f3d a99a 3d3d 7236 82bd f329 f5bc

fc1.weight f4 [60, 256]
-0.04396155 -0.05065086 0.012368057 0.06663634 0.042532023 0.018291874 0.059505817 0.09409888
-0.13937901 -0.23033576 0.084833995 -0.30863455 0.041034337 0.0025343513 -0.13965173 -0.021800788
-0.13979429 -0.036028933 0.053496957 0.107959814 0.0029299539 -0.05369767 -0.0652159 -0.06272414
0.011802627 -0.037402574 0.08993953 0.15814723 0.019095939 -0.18608174 0.037412528 -0.055777118
-0.13619246 0.081728555 -0.08025536 -0.037438687 0.068284936 0.07769514 0.03355409 -0.08218414
0.11154906 0.023560397 0.17243636 -0.014750796 0.0033583476 0.03187089 0.13176328 -0.10883741
-0.11827567 -0.027983319 -0.032861922 -0.09185053 -0.13037819 -0.07326141 0.020869168 -0.123729564
0.011109843 0.12055006 0.07421648 -0.014170924 -0.035100147 0.06367965 -0.014660838 -0.053763855
-0.15040618 -0.070231 0.14153537 0.007623093 -0.009362473 0.001295035 -0.012684467 -0.013365174
0.06729707 0.020057142 0.066095166 0.06494344 -0.077844 0.15710251 0.10885602 -0.07069427
-0.093599215 0.05498538 -0.0010152517 0.16078228 0.036573138 -0.1020317 -0.1155478 -0.06074829
0.01806553 0.12897184 0.07467882 -0.014336096 0.09717919 -0.05394655 0.007590078 -0.00640243
0.07872966 0.066237465 -0.14480971 0.18576007 -0.019050285 0.119756214 -0.011702121 0.025734782
-0.005176973 0.032801308 -0.024245264 0.09501326 -0.046766598 0.07748519 -0.11532723 -0.0704263
0.06341661 -0.07326616 -0.23959185 -0.09233611 0.03237945 0.15322702 0.00096622587 0.031946633
0.09413817 0.042306952 -0.030374309 0.02864547 0.050868094 0.0014212958 0.016105432 -0.025468031
-0.007837695 -0.0114386305 0.09399592 0.0007133752 0.04880787 -0.014433613 0.008713341 0.019313104
-0.05216991 -0.11838617 0.06163918 -0.2602436 0.003977187 0.022658968 -0.16164054 0.042041678
-0.09071021 -0.10122964 0.013121526 0.19118813 -0.035712734 0.02794754 -0.06394601 -0.028680857
-0.03319098 0.003845677 0.1428815 0.126312 0.06334561 -0.17969513 -0.058681957 -0.027156522
-0.041450005 0.08398454 0.03031241 -0.028036773 0.072759874 0.01934181 0.010290445 -0.058589663
0.05270672 0.045193285 0.08167344 -0.1325667 -0.03135726 -0.03835934 0.09374392 -0.06858262
-0.13971585 -0.06686662 -0.005088565 -0.026538316 -0.06718288 -0.06017123 0.020202704 -0.15604347
0.0033488404 0.14093556 -0.004028361 -0.03591528 -0.0028827023 -0.013512435 0.08123993 0.018528925
-0.12426882 -0.007017739 0.047038596 0.047892038 0.06348592 0.03738761 0.031094274 -0.021619484
-0.034441892 0.12712388 0.056691177 0.10284798 -0.052487347 0.14762959 0.15479553 -0.12126371
-0.024443349 -0.022162188 -0.021714546 0.11211586 0.14294253 -0.115648136 -0.13268045 0.07242388
-0.040081337 0.17897005 0.07862373 -0.08386413 0.115204275 -0.048141945 0.019250397 -0.13372324
0.099617876 0.06869766 -0.08080365 0.12421797 -0.22523057 0.040236123 -0.038577568 0.098745726
-0.06336536 -0.015704751 -0.105858706 0.04558407 -0.12150834 0.08202942 -0.15098466 -0.0019192303
0.071137205 -0.056091864 -0.17396845 -0.060152404 0.06311156 0.07172918 -0.08100343 0.0470026
0.13885963 0.09520749 -0.053217094 0.1201815 0.026831122 -0.07350386 0.019270452 -0.11425593
00000000: 0711 34bd 4777 4fbd 64a3 4a3c a278 883d
00000010: 0f36 2e3d d7d8 953c 5fbc 733d eab6 c03d
00000020: 5fb9 0ebe 23dd 6bbe 72bd ad3d 5905 9ebe
00000030: 9f13 283d 5c17 263b dd00 0fbe 9197 b2bc
00000040: 3c26 0fbe 1393 13bd a01f 5b3d 091a dd3d
00000050: 7804 403b 17f2 5bbd ea8f 85bd 8475 80bd
00000060: ce5f 413c 7133 19bd 3732 b83d 59f1 213e
00000070: 166f 9c3c 368c 3ebe e13d 193d 8c76 64bd
00000080: 0976 0bbe 4d61 a73d ec5c a4bd 4f59 19bd
00000090: f9d8 8b3d a11e 9f3d 0370 093d 2950 a8bd
000000a0: d573 e43d bc01 c13c 2893 303e 53ad 71bc
000000b0: b917 5c3b 0d8b 023d f4ec 063e 26e6 debd
000000c0: 843a f2bd 463d e5bc 399a 06bd 211c bcbd
000000d0: dc81 05be 140a 96bd d1f5 aa3c ed65 fdbd
000000e0: 0f06 363c f3e2 f63d cffe 973d 2a2d 68bc
000000f0: 2cc5 0fbd 7a6a 823d 0334 70bc 7d37 5cbd
00000100: 1404 1abe 45d5 8fbd a6ee 103e 24cb f93b
00000110: 0f65 19bc 2abe a93a 83d2 4fbc 9af9 5abc
00000120: 0cd3 893d e04e a43c e75c 873d 1101 853d
00000130: ad6c 9fbd 7bdf 203e e8ef de3d 28c8 90bd
00000140: f2b0 bfbd 5a38 613d 3212 85ba 1ca4 243e
00000150: b7cd 153d fff5 d0bd 53a4 ecbd 33d3 78bd
00000160: 2afe 933c 3211 043e 36f1 983d f2e1 6abc
00000170: e205 c73d 0ff7 5cbd 30b6 f83b 7acb d1bb
00000180: 043d a13d 82a7 873d ff48 14be e337 3e3e
00000190: 580f 9cbc bf42 f53d 41ba 3fbc c0d1 d23c
000001a0: 99a3 a9bb aa5a 063d 019e c6bc 5096 c23d
000001b0: 558e 3fbd 8eb0 9e3d af30 ecbd aa3b 90bd
000001c0: 91e0 813d 920c 96bd 9157 75be b71a bdbd
000001d0: 50a0 043d 8be7 1c3e 524a 7d3a 79da 023d
000001e0: 83cb c03d 0e4a 2d3d 8bd3 f8bc e8a9 ea3c
000001f0: 105b 503d c64a ba3a 8aef 833c 55a2 d0bc
00000200: ad69 00bc 1869 3bbc ef80 c03d cd01 3b3a
00000210: c3ea 473d f67a 6cbc 67c2 0e3c 8436 9e3c
00000220: 1eb0 55bd 7374 f2bd 5d79 7c3d a63e 85be
00000230: 1053 823b 4d9f b93c 1985 25be e533 2c3d
00000240: 46c6 b9bd 7c51 cfbd abfb 563c d2c6 433e
00000250: 8447 12bd 3df2 e43c 20f6 82bd 1ef4 eabc
00000260: 44f3 07bd c107 7c3b 874f 123e ef57 013e
00000270: 58bb 813d 0002 38be 7e5c 70bd 5b77 debc
00000280: 7bc7 29bd 1600 ac3d bb51 f83c 60ad e5bc
00000290: 2103 953d b772 9e3c 4199 283c b7fb 6fbd
000002a0: 00e3 573d 981c 393d 6844 a73d 91bf 07be
000002b0: 7870 00bd af1e 1dbd d0fc bf3d 0b75 8cbd
000002c0: ac11 0fbe 5ef1 88bd fabd a6bb e266 d9bc
000002d0: 2e97 89bd 1c76 76bd 2480 a53c dcc9 1fbe
000002e0: 3878 5b3b 6951 103e 5700 84bb e71b 13bd
000002f0: b8eb 3cbb 4363 5dbc 1f61 a63d f9c9 973c
00000300: a780 febd 10f5 e5bb 8bab 403d 712a 443d
00000310: e804 823d c023 193d 6bb9 fe3c 581b b1bc
00000320: f112 0dbd c32c 023e 0235 683d f6a1 d23d
00000330: f9fc 56bd 362c 173e b882 1e3e 1c59 f8bd
00000340: 6b3d c8bc 7a8d b5bc b4e2 b1bc 009d e53d
00000350: 875f 123e eed8 ecbd 62dd 07be f952 943d
00000360: 542c 24bd ed43 373e 7a05 a13d f5c0 abbd
00000370: 38f0 eb3d 7d30 45bd 02b3 9d3c bfee 08be
00000380: 7504 cc3d 5cb1 8c3d 627c a5bd fe65 fe3d
00000390: d8a2 66be a2ce 243d 8303 1ebd 333b ca3d
000003a0: b3c5 81bd 40a7 80bc 73cc d8bd 5db6 3a3d
000003b0: 5dd9 f8bd 0aff a73d b99b 1abe af8e fbba
000003c0: 62b0 913d 95c0 65bd c924 32be 5e62 76bd
000003d0: a240 813d c0e6 923d 20e5 a5bd cc85 403d
000003e0: 3831 0e3e 25fc c23d 2bfa 59bd b821 f63d
000003f0: f1cc db3c 3189 96bd 11dd 9d3c 03ff e9bd

fc1.bias f4 [60]
0.19368722 0.0841538 0.019277137 0.1194546 0.07218478 0.055135835 -0.026604317 0.029239032
-0.068381734 -0.002573214 -0.011730071 -0.010535095 -0.06850397 0.011932266 -0.09099562 -0.10913611
-0.060155828 -0.035686377 -0.06696758 -0.081844985 -0.053457364 -0.10721085 -0.032249004 -0.10546904
-0.08122558 -0.065789446 -0.17300546 -0.06368851 -0.1452937 -0.06657125 -0.12076233 -0.022512361
-0.084377706 -0.1568752 -0.10586062 -0.021584475 0.0115960445 -0.041020975 0.017004143 -0.020614956
-0.10459872 -0.10133537 -0.06780069 -0.037896235 -0.1260987 -0.057706643 -0.10479157 -0.10240406
-0.02928821 -0.011144881 -0.099566124 -0.050837062 0.01708288 -0.08506744 0.04301687 0.042782612
0.11970009 0.114969596 0.122555174 0.37323824
00000000: f155 463e d458 ac3d 16eb 9d3c 9da4 f43d
00000010: 9dd5 933d 1dd6 613d 4cf1 d9bc b286 ef3c
00000020: b90b 8cbd 5ea3 28bb 7c2f 40bc 649b 2cbc
00000030: cf4b 8cbd 8d7f 433c e95b babd c182 dfbd
00000040: f565 76bd e12b 12bd 4c26 89bd 589e a7bd
00000050: 1cf6 5abd 5d91 dbbd 8817 04bd 2700 d8bd
00000060: 9959 a6bd 9ebc 86bd 5828 31be 1f6f 82bd
00000070: dfc7 14be 8256 88bd 3e52 f7bd d86b b8bc
00000080: 38ce acbd e4a3 20be 74cd d8bd edd1 b0bc
00000090: 56fd 3d3c 9c05 28bd 464c 8b3c b2e0 a8bc
000000a0: db37 d6bd eb88 cfbd 17db 8abd 1539 1bbd
000000b0: 0520 01be cd5d 6cbd f69c d6bd 38b9 d1bd
000000c0: d4ed efbc 0599 36bc 53e9 cbbd 863a 50bd
000000d0: 65f1 8b3c d737 aebd 7532 303d d23c 2f3d
000000e0: 5225 f53d 2e75 eb3d 35fe fa3d 1519 bf3e

fc2.weight f4 [32, 128]
-0.11421476 0.13726668 0.057037923 -0.23775494 0.01864527 -0.03469529 -0.07941564 -0.04217684
0.07260614 -0.05044162 0.1911435 -0.049951747 -0.03909575 0.13236085 0.05752752 0.14919312
0.22429036 -0.09554615 -0.055569485 -0.11009722 0.12951499 0.088278465 0.0041699233 0.15347216
-0.08882437 -0.045384206 -0.01211974 0.04726633 -0.14478359 -0.042603035 0.10427268 0.16940542
-0.060782652 -0.085615955 0.06630677 0.029382909 0.030566312 0.080462694 0.056331243 -0.041666847
0.028400727 0.075178064 -0.05473002 0.09952195 0.04130876 -0.046574038 0.16105185 0.13617647
0.15335745 -0.09758056 -0.034414116 -0.1284971 0.10739965 0.2615543 -0.08808239 0.037673645
-0.09566452 0.0071703773 -0.06560275 -0.09922934 0.06165987 -0.045178693 0.11164306 0.13321695
0.14397238 0.13177374 0.16966479 -0.075027056 0.04714905 -0.04489181 0.01051947 -0.09562685
0.009877106 0.107337184 -0.046256687 -0.05353338 0.011380293 0.12084746 -0.08544886 0.1234323
0.15461248 0.11478231 -0.13008621 0.25608808 0.04588259 0.13675976 -0.08432417 0.10242144
-0.097234055 0.10603273 -0.09073037 0.077816 -0.21506283 -0.025909266 0.2248783 0.058244836
-0.08367077 -0.028123537 0.12822284 0.08764738 0.14302982 0.19400275 -0.004723119 -0.045758653
-0.057658687 -0.07462291 -0.028482953 0.18594903 -0.118467845 -0.11851182 -0.026685836 -0.102274
0.053312622 0.060353402 0.05833923 0.057868887 0.033032857 0.04600469 0.027711732 -0.010394761
0.06484742 -0.0035815146 -0.01283233 0.026532575 0.06481396 0.13233972 -0.14701526 0.06473085
0.109986894 -0.09675137 -0.0940228 0.06410313 -0.10361667 0.00068084797 0.13714741 -0.013648965
-0.1328505 -0.101311445 0.026886432 0.05899215 0.042559024 -0.03266738 -0.122630976 -0.11036008
-0.07754124 -0.031264544 0.088944115 0.014287923 -0.18948981 -0.08842686 0.19179362 -0.098914474
0.017630924 -0.0024469844 0.08880205 -0.108512044 0.07252656 0.0028563074 -0.050694067 -0.036645193
0.029000549 0.051854536 -0.06407299 -0.007825964 0.004744119 0.027715825 0.027219895 0.16409557
-0.06565264 -0.13669431 -0.06756303 0.048509724 -0.084617525 0.14320976 -0.076942146 0.057077553
-0.11753086 -0.003332215 0.07396931 -0.003102079 0.0077861487 -0.044075705 0.089243166 0.03940595
0.10623577 0.034558397 0.11623777 0.06773134 -0.025289468 0.13416815 -0.13730966 -0.08630175
-0.06638048 0.003874634 -0.026192464 0.0832138 -0.010920357 0.051024333 0.010508515 0.042838544
-0.100007266 -0.06266238 -0.013966468 0.09841481 0.13856468 -0.14004691 -0.0016283711 -0.08260916
-0.08858847 -0.0634721 0.10910288 -0.00053317775 -0.1071059 -0.08884206 -0.071620755 -0.08925246
0.02153087 0.012074491 -0.007848979 -0.088538244 0.12972187 0.026437927 -0.0055122115 -0.07458832
0.038062185 0.078916386 -0.035047468 -0.08422537 -0.06412454 -0.13467443 -0.015959138 0.08476062
0.038156517 -0.017532013 0.12868755 -0.013486364 0.052263666 0.10335059 -0.10042612 0.019953648
0.02840566 0.1458035 -0.07761789 0.014921082 0.054090176 -0.017022675 -0.11809165 0.11469708
-0.124295115 -0.030506948 0.06330803 -0.08684117 -0.025028862 0.0027675775 0.0048817415 -0.071663655
00000000: 6ee9 e9bd a38f 0c3e 99a0 693d 0876 73be
00000010: f7bd 983c a61c 0ebd aba4 a2bd 9fc1 2cbd
00000020: 87b2 943d df9b 4ebd 1fbb 433e 349a 4cbd
00000030: dd22 20bd 9a89 073e faa1 6b3d 15c6 183e
00000040: 5fac 653e b3ad c3bd d49c 63bd a77a e1bd
00000050: 949f 043e 57cb b43d daa3 883b ce27 1d3e
00000060: 8de9 b5bd cae4 39bd e091 46bc 579a 413d
00000070: 2642 14be 8580 2ebd ea8c d53d 9d78 2d3e
00000080: 3bf7 78bd 6b57 afbd d8cb 873d 6db4 f03c
00000090: 3466 fa3c a0c9 a43d 97bb 663d dbaa 2abd
000000a0: a4a8 e83c f5f6 993d 962c 60bd 2ad2 cb3d
000000b0: 6033 293d 6bc4 3ebd c7ea 243e d871 0b3e
000000c0: bc09 1d3e 51d8 c7bd d1f5 0cbd be94 03be
000000d0: 59f4 db3d 72ea 853e 8a64 b4bd ae4f 1a3d
000000e0: c3eb c3bd 7cf5 ea3b bc5a 86bd c138 cbbd
000000f0: 0f8f 7c3d 4b0d 39bd 1ea5 e43d 066a 083e
00000100: 7f6d 133e b2ef 063e 9bbc 2d3e c9a7 99bd
00000110: 5d1f 413d 79e0 37bd db59 2c3c 03d8 c3bd
00000120: 96d3 213c 99d3 db3d a777 3dbd d145 5bbd
00000130: 6974 3a3c e07e f73d d0ff aebd 13ca fc3d
00000140: bc52 1e3e fd12 eb3d 5235 05be fa1d 833e
00000150: 62ef 3b3d c00a 0c3e 27b2 acbd 55c2 d13d
00000160: a622 c7bd b027 d93d d8d0 b9bd ff5d 9f3d
00000170: 6e39 5cbe ab3f d4bc 7f46 663e 2392 6e3d
00000180: 955b abbd 5563 e6bc d94c 033e 7880 b33d
00000190: 6976 123e a8a8 463e 65c4 9abb 6d6d 3bbd
000001a0: 842b 6cbd e5d3 98bd 1555 e9bc 6c69 3e3e
000001b0: 459f f2bd 53b6 f2bd 419c dabc 0875 d1bd
000001c0: 565e 5a3d 2135 773d 1ef5 6e3d ed07 6d3d
000001d0: 764d 073d 6a6f 3c3d b703 e33c ca4e 2abc
000001e0: b9ce 843d d8b7 6abb b13e 52bc d85a d93c
000001f0: 2ebd 843d 1084 073e 2b8b 16be 9c91 843d
00000200: cf40 e13d 9525 c6bd 078f c0bd 8048 833d
00000210: fa34 d4bd ef7a 323a 5f70 0c3e e99f 5fbc
00000220: f609 08be 607c cfbd ef40 dc3c c1a1 713d
00000230: 5f52 2e3d 3bce 05bd f325 fbbd 7704 e2bd
00000240: f1cd 9ebd 400f 00bd 5528 b63d e517 6a3c
00000250: 9e09 42be 2419 b5bd 8c65 443e ac93 cabd
00000260: ba6e 903c 965d 20bb d9dd b53d 903b debd
00000270: ce88 943d e330 3b3b 95a4 4fbd 4519 16bd
00000280: 8f92 ed3c 6c65 543d b338 83bd 7938 00bc
00000290: 8e74 9b3b 4c0c e33c 42fc de3c ab08 283e
000002a0: e474 86bd 98f9 0bbe 7c5e 8abd 22b2 463d
000002b0: f44b adbd 94a5 123e d893 9dbd 27ca 693d
000002c0: 05b4 f0bd 4a61 5abb 397d 973d 404c 4bbb
000002d0: f322 ff3b ba88 34bd 1fc5 b63d 2268 213d
000002e0: 2492 d93d 1b8d 0d3d 110e ee3d bbb6 8a3d
000002f0: dc2b cfbc 6063 093e e79a 0cbe f9be b0bd
00000300: 7df2 87bd 92ed 7d3b 9491 d6bc ff6b aa3d
00000310: 4ceb 32bc e4fe 503d e82b 2c3c 7877 2f3d
00000320: 9cd0 ccbd 2255 80bd 9dd3 64bc b48d c93d
00000330: e6e3 0d3e 7568 0fbe 116f d5ba fe2e a9bd
00000340: df6d b5bd a9fd 81bd 5571 df3d f4c4 0bba
00000350: 575a dbbd d3f2 b5bd e7ad 92bd fec9 b6bd
00000360: 8261 b03c 16d4 453c 0199 00bc 8a53 b5bd
00000370: cfd5 043e 5a94 d83c c89f b4bb c3c1 98bd
00000380: 18e7 1b3d ea9e a13d ef8d 0fbd 5a7e acbd
00000390: ba53 83bd 18e8 09be bdbc 82bc fa96 ad3d
000003a0: 024a 1c3d 4c9f 8fbc abc6 033e e9f5 5cbc
000003b0: 6d12 563d 79a9 d33d 36ac cdbd d575 a33c
000003c0: fdb2 e83c 834d 153e 21f6 9ebd 8e77 743c
000003d0: a98d 5d3d 2373 8bbc 09da f1bd 4de6 ea3d
000003e0: 708e febd b5e9 f9bc a4a7 813d c9d9 b1bd
000003f0: 5409 cdbc 3f60 353b 04f7 9f3b 65c4 92bd

fc2.bias f4 [32]
-0.03944106 0.061978593 0.018538807 0.10520963 0.008083273 0.057583783 -0.018090015 0.053847805
0.085301414 0.06435767 0.11707969 -0.016986629 0.07751637 0.06704962 0.09570579 -0.0016021777
0.025173476 0.0476083 0.022298781 0.0312071 0.09189383 0.06423586 0.02218453 0.09301278
0.0060459552 -0.03694749 0.03992447 -0.015788116 0.06688331 -0.005475621 -0.016559565 -0.020007206
00000000: f38c 21bd 44dd 7d3d b2de 973c 2678 d73d
00000010: b46f 043c f9dc 6b3d 8331 94bc 848f 5c3d
00000020: 82b2 ae3d f4cd 833d 7ac7 ef3d 8b27 8bbc
00000030: e7c0 9e3d 5051 893d 6601 c43d 2a00 d2ba
00000040: 9b38 ce3c ec00 433d efab b63c 08a6 ff3c
00000050: d532 bc3d 178e 833d 55bc b53c 7c7d be3d
00000060: 261d c63b 4056 17bd d787 233d 1456 81bc
00000070: 1efa 883d d76c b3bb eda7 87bc 27e6 a3bc

fc3.weight f4 [2, 32]
-0.08118412 0.21444368 -0.057935894 0.08887545 0.11806704 -0.18824515 -0.25542507 0.07875444
0.13355286 0.17208885 0.24078502 -0.09462109 -0.032570634 0.22525035 0.11178459 -0.061460506
-0.13006675 -0.23570459 0.21272263 0.0026048538 0.23065645 0.1254561 0.06245727 -0.18592522
-0.19070819 -0.10187972 0.1896037 0.15860382 0.06891866 0.2402019 -0.1900977 -0.0881969
0.13780275 -0.20582774 0.22721425 -0.29071936 -0.19702297 0.16142437 -0.024351401 -0.16573125
-0.18247157 -0.16005073 -0.0024975413 0.1497283 0.24344508 -0.12475444 -0.26441288 0.18308522
0.13492975 0.15292819 -0.03476606 0.2500501 -0.15301456 -0.2535931 -0.19816306 0.020245649
0.14071032 0.24385083 -0.10055357 -0.17300695 -0.17652893 -0.041671827 0.12453693 0.20831347
00000000: dc43 a6bd 2097 5b3e 304e 6dbd 5504 b63d
00000010: 22cd f13d 56c3 40be 13c7 82be 024a a13d
00000020: 15c2 083e 0f38 303e 5990 763e b4c8 c1bd
00000030: c968 05bd 07a8 663e 52ef e43d 03be 7bbd
00000040: 3830 05be 8b5c 71be f6d3 593e 32b6 2a3b
00000050: 3431 6c3e 9077 003e 32d3 7f3d 2e63 3ebe
00000060: 0249 43be 51a6 d0bd 7927 423e 0a69 223e
00000070: 3a25 8d3d 7df7 753e f9a8 42be 94a0 b4bd
00000080: 2a1c 0d3e 82c4 52be daaa 683e 2bd9 94be
00000090: 64c0 49be 6e4c 253e 977c c7bc 74b5 29be
000000a0: d4d9 3abe 57e4 23be caad 23bb 6052 193e
000000b0: ab49 793e 417f ffbd 2061 87be b17a 3b3e
000000c0: 062b 0a3e 3599 1c3e db66 0ebd 9106 803e
000000d0: d9af 1cbe f4d6 81be 42eb 4abe 34da a53c
000000e0: 5e16 103e 08b4 793e 08ef cdbd bc28 31be
000000f0: 00c4 34be 14b0 2abd 380d ff3d 2050 553e

fc3.bias f4 [2]
0.09007136 0.054976758
00000000: 5577 b83d 4f2f 613d
