CNN/cnn.pt (torch_old, 304634 bytes, 12 tensors)

conv1.weight f4 [3, 1, 5, 5]
000000 8e 3d 09 3e d8 16 54 be 15 de 0e 3e 91 18 16 3d
       0.13402387 -0.20711839 0.13951905 0.036644522
000010 9f 51 e2 3e 31 ba 41 bd 13 bc fc bd f9 f6 06 3e
       0.44202897 -0.047296707 -0.1234056 0.1318015
000020 88 12 46 3d 3c 63 b5 3e 5a 8f 36 3d bb fd fd bd
       0.048357517 0.35427272 0.044570304 -0.12401911
000030 f1 bc d0 3d 69 4e 05 3d 19 6c 76 3e 5f b0 50 3d
       0.10192288 0.03254548 0.24064673 0.05094945
000040 ea bf f7 bd 27 59 63 3d 03 0e 88 3c 90 13 54 3e
       -0.120971516 0.055504944 0.016608244 0.20710588
000050 cd 91 72 3d 8b 57 1e bd 85 25 3e 3e 84 e9 a2 bd
       0.059221078 -0.038657706 0.18569 -0.07954696
000060 60 4a 40 3e b5 0e 60 bc 5c b6 7b 3d 1e af 49 bd
       0.18778372 -0.013675381 0.06145321 -0.04923927
000070 76 2a 2f 3e 7f 51 02 be 3e d3 12 be 39 9c 24 bd
       0.17106041 -0.12726401 -0.14338395 -0.040188048
000080 8b 91 ae bd de df 1d 3d e3 58 89 be 4a 3c 3b be
       -0.08523854 0.038543575 -0.26825628 -0.18284717
000090 ae 21 77 bd 76 bd 24 be 22 c6 96 3d 18 c5 46 be
       -0.060334854 -0.16087899 0.073620096 -0.19411123
0000a0 e0 3e dd 3c 2c 23 49 be 5f d7 91 3c ff e6 bb bd
       0.02700752 -0.19642323 0.017802892 -0.091749184
0000b0 2d fb a6 3b b3 12 67 bd 08 de c4 bc fb 51 1d be
       0.0050958605 -0.056414317 -0.024031654 -0.15363304
0000c0 5d e1 13 3c 0e ea da bd dc f0 45 3d 01 11 98 3e
       0.009025899 -0.10689174 0.048325405 0.29700473
0000d0 46 6a 87 3e bb b2 6b 3c 61 15 19 be ee 7e ec ba
       0.26448268 0.014385874 -0.14949562 -0.0018043199
0000e0 7e 3f 0a 3e bb f6 87 3e 90 8e e7 3c 31 13 13 bd
       0.13500783 0.26555428 0.028266221 -0.035906974
0000f0 3c 10 1f bc 97 4e b2 3d bb 31 98 3e 30 27 a9 bd
       -0.00970846 0.08706396 0.2972544 -0.082594275
000100 9d 6e 86 bd 00 35 f6 3c f2 86 53 3e 96 b1 17 3e
       -0.065640666 0.03005457 0.20656946 0.14813837
000110 a2 21 07 3e ac 3a e2 bd 74 00 0a bc b4 3b 21 3e
       0.13196424 -0.11046347 -0.00842296 0.15745431
000120 cd fc 4d 3e 2d 9d 9f bb 0f 48 8d bd
       0.20115967 -0.0048710317 -0.0689851

conv1.bias f4 [3]
000000 d4 43 aa 3c 5e d5 89 3e d3 d7 77 3e
       0.020784296 0.269206 0.24203424

conv2.weight f4 [3, 3, 3, 3]
000000 fa 26 82 be dd b5 c6 bd f4 92 58 3e 42 9c fe 3b
       -0.25420362 -0.097026564 0.21149808 0.007770092
000010 cc ae f7 bd 2c c6 23 bd 02 31 35 be 2d 18 13 bb
       -0.12093887 -0.039983913 -0.17694476 -0.002244483
000020 44 61 26 3d 52 9e e8 3d 5f 15 5d 3e d5 3a b1 3c
       0.040620103 0.11358322 0.21590184 0.021634499
000030 ea 54 1d 3e d2 73 05 bd 4c 85 66 3d 1e 77 3e 3e
       0.15364423 -0.032581158 0.056279466 0.18600127
000040 ae f8 54 3d 29 fe 29 3c 6b b3 e3 be 50 a6 f3 3d
       0.051994972 0.010375538 -0.44472823 0.11896956
000050 e3 ac bb 3d 83 7e 21 be e2 47 9a 3d 31 79 5e 3d
       0.09163835 -0.15770917 0.07533242 0.054314796
000060 8d 10 28 be b7 71 e8 3d 99 43 06 be a3 af 1e 3e
       -0.16412564 0.113498144 -0.13111724 0.15496688
000070 c8 c6 08 3e 16 52 68 be 9f 77 d6 3d 99 03 35 3d
       0.13357079 -0.22687563 0.10472035 0.044192884
000080 14 36 74 3d 65 18 26 3d d1 c9 c9 3d 10 8a 9d 3c
       0.059621885 0.04055061 0.098529465 0.019230872
000090 36 75 f8 3d bf 1c 55 bd 56 05 8c 3e 63 c1 42 3d
       0.12131731 -0.052029368 0.2734782 0.04754771
0000a0 8b 96 10 be 2f d9 b4 3d cc 06 03 3e 55 32 0c 38
       -0.14119928 0.08830487 0.12795562 3.3425476e-05
0000b0 f6 7d 93 3d 3f e8 19 be 68 3c dd bc 76 de 1b 3c
       0.072017595 -0.15030001 -0.027006343 0.009513488
0000c0 6d 89 4d bd 31 95 49 be 4b cf 13 3d 55 67 46 be
       -0.050179888 -0.19685818 0.03608636 -0.19375356
0000d0 f6 76 8e bd 3c 80 b7 3d 33 3c af 3e e9 4e 40 3e
       -0.06956284 0.08960006 0.34225616 0.18780102
0000e0 42 8d fb bd 74 42 22 3e 59 c7 92 bc fe 22 0d be
       -0.12282802 0.15845662 -0.017917322 -0.1378288
0000f0 f0 d9 02 3d 05 77 a5 3d 15 17 0b bd a0 0f 09 ba
       0.031946123 0.08079342 -0.03395756 -0.00052284636
000100 f5 7f 84 3d 2d dc b9 3d 19 b9 c5 3d 8f f9 fa bd
       0.06469718 0.09075198 0.09654445 -0.12254631
000110 93 05 37 3e 4b 64 97 3d 44 fb cc bd 1a ff 3c 3d
       0.1787322 0.07392176 -0.100088626 0.04614172
000120 85 b0 cf bd 0b a2 47 bd 47 a4 ad 3c 3a 0a d7 bd
       -0.1014109 -0.04873852 0.021196498 -0.104999974
000130 49 c0 1a 3e f5 c5 f4 bd 70 a1 77 3c 80 fa 12 bd
       0.15112413 -0.1195182 0.015114173 -0.035883427
000140 ad 80 97 3d
       0.0739759

conv2.bias f4 [3]
000000 e8 35 04 3e 7a 35 0f bc a4 7b f1 bd
       0.12911189 -0.008740777 -0.11791161

conv3.weight f4 [3, 3, 3, 3]
000000 ae 13 f3 3e 55 94 f6 bd b2 e5 e5 bd 91 38 f7 3d
       0.47475952 -0.12040011 -0.112254515 0.12071336
000010 1b dc 1b bd 98 fe a8 bd 67 95 a9 3e 97 2a c9 3a
       -0.038051706 -0.08251685 0.33121797 0.0015347776
000020 27 47 12 be 36 e7 31 bc 85 2a ac be ff c1 89 3e
       -0.14284955 -0.010858348 -0.3362619 0.2690582
000030 76 bb a8 3b bc 7e 8d be 2d 4e c2 bd ca ac fa 3d
       0.0051493 -0.27635753 -0.09487567 0.12239988
000040 af 93 bf bd c4 89 d6 3d 50 9d b7 3d 04 9e 25 3e
       -0.0935434 0.104754955 0.08965552 0.1617356
000050 c2 7a 00 3e a0 88 3c bd 3f 9c 1e bd b9 a6 3d 3c
       0.12546828 -0.046028733 -0.038723227 0.011575394
000060 74 3e 13 bd b8 45 8a bd 47 07 22 3d e8 e5 2e be
       -0.03594823 -0.06751579 0.03955772 -0.1707989
000070 e3 21 99 3c 19 9d d8 3e af 72 65 3d 2b 88 87 bc
       0.018692916 0.42307356 0.056017574 -0.016544422
000080 a3 84 3b 3e 7f 26 13 be 31 07 39 3e 3d 98 22 3e
       0.18312316 -0.14370154 0.1806915 0.15878387
000090 3e 2a 0d be 64 e6 db 3c 39 75 f5 bd f2 73 11 be
       -0.13785645 0.026843257 -0.11985249 -0.14204386
0000a0 f5 8f c8 3d 6c 3c ee 3d 78 8f a7 bd 8b 1d 0b be
       0.097930826 0.11632618 -0.08181661 -0.13585488
0000b0 2d 18 3f bc b9 a6 bd be 8a 24 32 be 99 17 82 bd
       -0.011663479 -0.37041262 -0.17396751 -0.06352157
0000c0 c7 1e 00 be 9f ae c1 3d e6 32 85 3d 1d b6 c8 bd
       -0.1251174 0.094571345 0.06503849 -0.0980036
0000d0 cc 01 6c bd 56 3d a4 bd b0 da c8 3d b5 6a 22 be
       -0.0576189 -0.080195114 0.09807336 -0.15861018
0000e0 f8 81 c4 bc 55 0d b7 bd c9 1f dc bb 02 7c 5f bd
       -0.023987755 -0.0893809 -0.0067176563 -0.054561622
0000f0 66 58 3c bd ce b8 29 be 98 69 c7 3d 9a 2c 8c 3e
       -0.04598274 -0.16574404 0.09736937 0.27377778
000100 3d c3 e8 3d 95 5a 0d be fd 3a 3e 3e 1c 38 11 3d
       0.11365364 -0.13804086 0.1857719 0.0354539
000110 b2 62 60 bc e1 06 8d 3e 49 a2 bd bc 1f a0 de bc
       -0.013695406 0.2754431 -0.023148673 -0.027175961
000120 38 ac cf 3e 1f 6b 99 3d 1b 62 63 be 5e 6b 98 3d
       0.4056108 0.07491135 -0.22205393 0.07442354
000130 8e d2 e3 3d f8 06 22 be e1 b8 0b 3e 5f ae 82 bd
       0.111241445 -0.15822971 0.13644744 -0.06380915
000140 2e bc 4a bd
       -0.04949587

conv3.bias f4 [3]
000000 7e 8a bf bd f7 ef 1f 3e 5c f3 05 be
       -0.09352587 0.15618883 -0.13081115

fc1.weight f4 [135, 525]
000000 9d 45 35 bd da 01 41 3c a8 b9 8c bd c4 85 80 3d
       -0.04425584 0.011780227 -0.068713486 0.06275514
000010 d3 92 24 3e a7 a4 88 3d d1 07 d8 3c 02 47 03 be
       0.16071634 0.0667203 0.026370915 -0.12820056
000020 86 59 8d bb 76 d0 23 bd 90 a8 ce bc 1a b6 06 3c
       -0.0043136505 -0.039993726 -0.025226861 0.008222127
000030 d2 cb 08 bd d7 d5 86 bd 95 cf 0a be 20 3f fb bd
       -0.033397503 -0.065837555 -0.13555749 -0.122678995
000040 2e 11 65 3c e1 18 66 bc 1b b5 06 bd 0c 72 df 3d
       0.013981147 -0.0140440175 -0.03288756 0.109104246
000050 82 cc be bc 82 cf 5d bd b5 e5 b7 3d 7a b7 0d 3d
       -0.023290876 -0.054152973 0.0897936 0.034598805
000060 24 14 46 3e 68 ca df bd 3b a0 c2 bd 5d 11 b9 3d
       0.1934362 -0.10927278 -0.09503218 0.09036515
000070 32 0d 06 3d fa 11 0a 3d 9f 79 ec bd 25 e5 08 bd
       0.032727428 0.03370855 -0.11546635 -0.033421654
000080 50 ad a4 bd 45 3f e3 3d b2 5a 43 bc a9 f4 b6 ba
       -0.08040869 0.11096052 -0.011923479 -0.0013958412
000090 51 a0 a6 bd 00 e8 bd bc 68 8e 15 bc 8a 4f 17 3d
       -0.08136047 -0.023181915 -0.009128191 0.03694109
0000a0 29 f6 ba 3b 60 3e fa bc 8f 8c 1f bd af 27 8b bd
       0.005705614 -0.03054732 -0.038952406 -0.067946784
0000b0 b1 4c 87 bc 79 3b 8b 3a 75 48 0d bd ed b5 2e bd
       -0.016516061 0.0010622583 -0.03449293 -0.042653967
0000c0 c0 e5 09 bd 8d 28 6a bb d9 12 71 bd e8 28 06 3d
       -0.033666372 -0.0035729737 -0.058855865 0.032753855
0000d0 82 70 a0 bd 05 a8 33 bd a5 d9 81 3d e5 06 1c bb
       -0.07833959 -0.043861408 0.063403405 -0.002380782
0000e0 5e d5 4a bd b9 aa 9f 3d 9a a0 f8 bb 35 53 71 3d
       -0.04951989 0.07796235 -0.0075875046 0.058917243
0000f0 43 32 4f bd 33 87 c2 bd 64 37 3d bc 60 37 4c 3d
       -0.050585043 -0.094984435 -0.011548851 0.049857497
000100 6e f0 f3 3c 41 d0 ae bd fe 1c af 3c ba db c0 bd
       0.029777732 -0.08535815 0.02137613 -0.094169095
000110 8e c9 ca 3d cf 8a 3c 3d 01 52 f1 bc 97 21 2b bd
       0.09901725 0.046030816 -0.029458048 -0.04178008
000120 0b 7b e9 bc ef 27 86 bc cc 94 05 3d 20 7a d7 bc
       -0.028501054 -0.016376464 0.032612607 -0.02630335
000130 05 1f bf 3d 0c 10 8e bd 10 69 77 bc 4d 89 bd bc
       0.093320884 -0.069366544 -0.015100732 -0.02313676
000140 46 61 96 bc 1a 63 83 3c f9 4c ab bd 02 dc 89 bd
       -0.01835693 0.016038466 -0.08364291 -0.06731416
000150 3d df 75 bd 13 b2 97 bd d4 d8 19 bc c6 a9 e1 3b
       -0.06002735 -0.07407012 -0.009390075 0.0068866936
000160 c4 27 8f bb d9 d6 09 3d 65 8c fc 3c db e7 8d 3c
       -0.004368754 0.03365216 0.030828664 0.017322471
000170 2c 6a 86 39 06 4e c7 3c d9 c8 1c 3c 50 87 2c bd
       0.00025637576 0.024329197 0.00956937 -0.04212123
000180 f5 b6 cf bd 4b 63 e8 3c ba 91 cc 3d 10 69 d7 bc
       -0.10142318 0.02836766 0.09988733 -0.026295215
000190 9a 0f 9c bd 44 9d 14 3c 4f 26 a3 3c d4 89 ca 3d
       -0.07620163 0.009070698 0.019915728 0.0988957
0001a0 5f ed da 3b 47 05 19 bb f6 10 f8 3c be 26 58 3c
       0.006681129 -0.0023349093 0.030281525 0.013192831
0001b0 a9 b0 7f 3c 86 65 b3 3d 6f b4 a3 bc c7 26 03 3d
       0.015606084 0.087595984 -0.019983498 0.032019403
0001c0 0b 30 84 bd 81 69 e6 bc 34 11 a1 bd d7 b4 1a bc
       -0.06454476 -0.02812648 -0.07864609 -0.00944253
0001d0 22 e0 30 bd d6 42 4a bc 26 e4 93 bd 39 3b a2 3c
       -0.0431825 -0.0123450365 -0.0722125 0.01980363
0001e0 0a 9a 10 bd 9c bc c8 bb c5 79 ee 3c 77 93 43 3d
       -0.035303153 -0.0061259996 0.029110799 0.047748055
0001f0 ac b8 ff 3b 5a 4c 00 3c ca cf b8 3c fd bf 0f 3c
       0.007803997 0.007830704 0.022560019 0.008773801
000200 ba a6 08 ba 33 33 e7 bb 88 29 14 3c 86 71 bd bc
       -0.00052128325 -0.007055664 0.009043105 -0.023125421
000210 4c 94 36 3d 81 37 4e 3d 0c d1 d1 bd f9 7c 68 bd
       0.04457502 0.0503459 -0.10244951 -0.05675981
000220 44 55 c3 3c 7b 9b 07 3b 6b d0 8c 3d 1d ab 1c bd
       0.023844369 0.0020692039 0.0687569 -0.038249124
000230 8d 75 f7 3b 1e 5d 3d bd 70 c8 4e bd 56 0d bc bd
       0.007551855 -0.04623138 -0.05048412 -0.09182231
000240 99 97 d7 3d 5f 7b 4b 3d b8 29 27 bd ab 33 36 be
       0.10526962 0.049678203 -0.04081127 -0.17793147
000250 81 83 cc bc 7e 6d f1 bd 65 c5 b7 3d f4 6b 5e bd
       -0.02496505 -0.11788462 0.08973197 -0.05430217
000260 ac ab 93 bd 8f d2 59 bc 66 e7 1e 3c dd e3 c2 bc
       -0.07210478 -0.01329483 0.009698724 -0.023790294
000270 bc 1e 76 3d 0d 88 49 3d 7d f1 88 3c 70 e5 a0 bd
       0.060087904 0.049202014 0.016716713 -0.07856262
000280 b0 1a 06 3c 70 16 40 bc 13 ca 7b 3d 46 98 a3 3d
       0.008185074 -0.0117240995 0.06147201 0.07988028
000290 6b 79 11 3c fd e6 e1 3c e4 56 dc bd a7 52 5e 3c
       0.008879046 0.027575964 -0.107587606 0.013569511
0002a0 42 d5 a8 3b f2 f5 9c bd 9f 5d 0e be b8 95 65 3d
       0.0051523754 -0.07664098 -0.13902901 0.056050986
0002b0 ea 77 1b bd a3 87 cf 3c cd 36 23 3d 9d 67 02 be
       -0.037956156 0.025333231 0.039847184 -0.12734838
0002c0 29 04 a4 be 65 ee a5 3d 71 6f 83 bc e8 a2 56 be
       -0.32034424 0.08102111 -0.01604435 -0.20960581
0002d0 98 50 92 3d ed 7f 32 bd 68 97 d7 3d e7 45 48 3c
       0.07144278 -0.04357903 0.10526925 0.012223697
0002e0 a3 a8 53 3c 0f d3 8c 3d 2b 65 27 bd d7 63 26 3c
       0.012918624 0.06876194 -0.040867966 0.01015564
0002f0 9d 00 ca 3d 76 e1 cc bc 52 a2 69 3d 53 ea 08 bd
       0.09863398 -0.025009852 0.057039566 -0.033426594
000300 2b 6a d4 3d 3b 2a 4e 3c 4c 67 bb bd 16 0e 85 bd
       0.103718124 0.012583311 -0.09150562 -0.06496827
000310 7f 8c d2 3d 63 99 8a bc b6 2e c2 bc 1c 1d b1 bc
       0.10280704 -0.016918844 -0.023703914 -0.021620326
000320 f5 f3 a0 bd cc 03 51 bc e8 f5 91 bd 8a 4b c1 bb
       -0.07859031 -0.012757253 -0.07126981 -0.0058988975
000330 3e e3 09 be 4f 90 56 bd b6 7b f3 bd d8 67 8c bd
       -0.13465592 -0.052383717 -0.1188883 -0.06855744
000340 68 89 c3 bc f3 0d c5 bd a5 09 60 bd 6d 65 88 bd
       -0.023869231 -0.09621801 -0.054696698 -0.066599704
000350 1b 2f ea 3c 48 54 0e 3d 09 09 26 be b0 57 a0 3d
       0.028586915 0.034748346 -0.16214384 0.07829225
000360 d8 a4 a9 3d 25 da 94 3d bd 03 ce 3c 20 08 a7 3b
       0.082833946 0.0726817 0.025148267 0.005097404
000370 b0 47 68 3d c1 84 80 bc a2 d6 52 3d 91 ce a9 3d
       0.05670899 -0.015688302 0.05147422 0.082913525
000380 1d 76 3e 3b 66 18 ac bb a1 1a a3 bc d2 26 95 bb
       0.00290621 -0.005251932 -0.019910159 -0.004551747
000390 b6 4a 86 3d 44 77 02 be fe 9c 89 bc 92 ef b5 3d
       0.06557219 -0.12740809 -0.016798493 0.08883585
0003a0 12 2a 37 bd 80 97 39 3c a1 2c 6b 3c a5 26 b1 3b
       -0.044717856 0.011327624 0.014353902 0.005406218
0003b0 54 2d af bd 52 6f 7e bb fa 14 ae 3c 08 01 84 bb
       -0.085535675 -0.0038823676 0.021250237 -0.0040284432
0003c0 69 dc 93 3a 62 da 0d bd f1 97 e2 3c 0e 2b b9 bc
       0.0011280897 -0.034632094 0.027660342 -0.022603538
0003d0 68 77 af bd 85 cc 41 bd ec 66 09 be 21 f5 89 3d
       -0.08567697 -0.047314186 -0.13418168 0.06736208
0003e0 c0 43 a2 3c e4 47 ab bd db bb 71 3c 40 87 51 3c
       0.019807696 -0.083633214 0.014754261 0.012788594
0003f0 f6 3b 46 3d a8 f7 7b bd 7e df 5d 3d 45 20 87 3d
       0.048397027 -0.06151548 0.054168217 0.06597952

fc1.bias f4 [135]
000000 3d 2d 6e 3c 01 8a aa bc 20 bf 91 3c 82 47 20 3d
       0.014537153 -0.020817759 0.01779133 0.039130695
000010 fd a3 fa 3c 38 15 4c bd 90 5c 09 bd 1b d8 2c 3c
       0.030595774 -0.049824923 -0.03353554 0.01054957
000020 ee 22 9b 3b bd ff 3e bd 4c 51 27 3d 6d f1 90 bb
       0.0047343886 -0.04663061 0.040849015 -0.0044233114
000030 91 45 f1 3a ab f3 80 bc 01 11 77 bd 7e 78 9d 3c
       0.0018407573 -0.01574119 -0.06031895 0.019222494
000040 b8 be b7 3c 58 d7 1a bd 9d 4e de 3c f8 35 8f 3c
       0.022429809 -0.037803024 0.027137095 0.017481789
000050 cb ae da 3c 58 8c 3b bc 71 a3 04 3d f6 a0 35 bd
       0.026694676 -0.011447035 0.032382432 -0.044342957
000060 04 e0 45 3c 9e 7a bc bc c5 ad 5d bb 98 1f 2f 3b
       0.012077335 -0.023007687 -0.0033825499 0.0026721712
000070 dc 5e 72 bc 9a 35 f2 3c a2 27 61 bd 8f df 99 3c
       -0.014793124 0.029566575 -0.054969437 0.018783359
000080 03 01 68 3d 5c 63 8e bc d6 23 06 3d 27 25 34 3c
       0.05664159 -0.017381363 0.03274902 0.010995186
000090 3e 05 00 3d 4d 0d 98 3c 83 11 18 bb 41 ae 2b 3d
       0.031255 0.01856103 -0.0023203797 0.04191423
0000a0 6d 16 c0 bc cc 21 b5 3c 99 e1 18 3c 90 44 8c 3c
       -0.023448193 0.022110842 0.00933113 0.017122537
0000b0 f7 ff 0f 3d ac 55 c6 3b a7 0f 62 bd 90 3d 9f bb
       0.035156216 0.0060526934 -0.05519071 -0.0048596337
0000c0 88 cc 3c ba 5b b9 1a 3d 0d 4c f4 bc 5e 88 06 bc
       -0.00072021084 0.037774425 -0.02982142 -0.008211223
0000d0 f8 ee 90 3c 97 c1 96 bc 9b ab 34 bd 6b c4 54 bd
       0.017692074 -0.018402858 -0.04410897 -0.05194513
0000e0 0d 19 14 3d 81 c2 ca bc eb e8 92 bd cb 87 cb 3b
       0.036156703 -0.02475095 -0.07173332 0.006211256
0000f0 b8 d0 24 bd 7b 4a 17 bd 93 03 ba bc 15 b1 4f 3d
       -0.040238112 -0.036936264 -0.022706782 0.050705988
000100 98 4d e4 bc 3c 34 cb 3c 1a dc 0f 3d 47 a5 68 bc
       -0.02786903 0.02480518 0.035122015 -0.014199561
000110 19 43 03 3c 46 52 37 bc 4f 31 91 bc 08 dc eb 3c
       0.008011603 -0.011189049 -0.017723707 0.028791443
000120 36 5a 53 bc 31 0f 30 bd 1b 5e 57 bc 13 66 ae 3c
       -0.012899926 -0.042983238 -0.013144995 0.021288907
000130 93 44 31 3c 88 d2 83 ba 4c 78 0f bd 2e 97 0f bd
       0.010819572 -0.001005725 -0.035026833 -0.035056286
000140 26 fc a0 3c 01 0f de 3c d1 1e c1 3c dd 0d 63 bb
       0.019651484 0.027106764 0.023574265 -0.0034645714
000150 97 e6 55 bd f9 ca bd 3c ac 0b 2d 3c 0b bf 93 3c
       -0.05222186 0.023168074 0.010561865 0.018035432
000160 0b 77 de bc 9b c9 b4 bc 93 91 f0 3c aa 38 1f 3d
       -0.027156373 -0.02206879 0.02936629 0.0388724
000170 1a 76 83 bc 68 0c bd 3a 4d 2d 65 3c 40 ca 2b bd
       -0.016047526 0.0014423253 0.013987851 -0.041940928
000180 c6 02 3d bd 3c d1 cc bc 99 49 81 bc 09 12 3d bd
       -0.046145223 -0.025002114 -0.015782164 -0.046159778
000190 ee 49 51 bd ac 80 c5 ba 81 6f f0 3c 1c d8 a6 bc
       -0.051095895 -0.0015068254 0.029350044 -0.02036672
0001a0 34 6f 01 3d 8c e1 d5 bc d3 b1 40 bc 57 be 39 bd
       0.031600192 -0.026108526 -0.011761147 -0.045347538
0001b0 1b 54 ca 3c 73 18 f8 bb 5a 00 66 bd 8d 05 08 3d
       0.024698308 -0.007571274 -0.05615268 0.03320842
0001c0 25 1d c0 3c fc cc 8e 3c a9 ac 99 bb f1 36 a9 bc
       0.023451397 0.017431729 -0.004689772 -0.02065608
0001d0 5b 67 b5 3c 31 92 57 bc 84 8b 43 bd 5b 00 e2 3c
       0.02214401 -0.013157413 -0.047740474 0.02758806
0001e0 97 5b f5 3c 5b da 55 bd d2 cc 48 bd 7f b9 ec bb
       0.0299509 -0.052210193 -0.049023457 -0.0072242613
0001f0 1e d2 17 bb c8 ab 5f bc f5 b2 1f 3d 14 14 10 3d
       -0.002316601 -0.013651796 0.038989026 0.035175398
000200 1d f5 94 3c c8 b3 7a 3c 73 3a fa 3a 72 20 f5 bc
       0.018183285 0.015301652 0.0019090906 -0.029922698
000210 50 e5 19 bd 1b 4a 98 bb 90 37 4e bc
       -0.037572205 -0.004647506 -0.012586489

fc2.weight f4 [32, 135]
000000 d6 6c 2f 3e 8c 9f 8a bd b4 52 a8 3d 9b 98 2c bd
       0.17131361 -0.067687124 0.08218899 -0.042137723
000010 74 05 8b bd da bc 94 bd 89 5d 91 bd 1e de 5b bd
       -0.067881495 -0.07262583 -0.070979185 -0.053678624
000020 85 b5 f6 bc 26 93 97 bd 07 7e 16 3e 3c e4 d3 bb
       -0.030115852 -0.07401113 0.14696513 -0.0064664166
000030 ed 3e 27 be 1c fe 9e 3d 0f 12 1c 3d 21 90 44 3d
       -0.16332598 0.07763311 0.03810316 0.047989015
000040 35 e9 2f be de ad e9 bb e9 ef 20 bc c3 eb 66 3d
       -0.17178805 -0.0071313223 -0.009822824 0.056377184
000050 b5 d0 19 bd c1 19 10 3b d5 a9 e1 3d 66 7f b7 3d
       -0.037552554 0.0021988007 0.11018721 0.08959846
000060 8c a7 38 3b a0 ce 75 be 36 60 ed bd 57 8c e9 bd
       0.0028176038 -0.24004602 -0.115906164 -0.11403721
000070 2a 8c 25 3b 60 93 cf 3d 7e 9c b3 bd 27 2a fb 3d
       0.0025260546 0.101355314 -0.08770083 0.12263899
000080 c3 30 11 3d 25 b9 3d 3d b8 49 4a bd 7e 36 21 3e
       0.035446893 0.046319146 -0.04938671 0.15743443
000090 a9 89 c4 bc 42 58 95 bc d8 73 66 bd c6 37 07 3d
       -0.023991423 -0.018230561 -0.05626282 0.033012174
0000a0 13 8e 85 3d 92 93 a0 3c e1 d4 79 3d f0 34 41 3c
       0.06521239 0.019601617 0.060994033 0.011792406
0000b0 3e c1 c8 bc 80 60 0f bd 35 59 84 bd 93 9f 82 3e
       -0.024506208 -0.03500414 -0.064623274 0.2551237
0000c0 5c 83 fa bc 39 47 eb bc 03 dc 9f bc 25 57 36 3d
       -0.030580215 -0.028720485 -0.01951409 0.0445167
0000d0 99 ad 92 3d d3 5a fd bc e2 87 23 3e 90 65 1d bd
       0.071620174 -0.030927097 0.15969804 -0.038426936
0000e0 40 d8 e9 bc a2 5f 6c bc b5 7b 1e 3d 38 c9 1c ba
       -0.028545499 -0.0144270975 0.038692195 -0.00059809117
0000f0 8e f5 02 3d c8 39 80 3d bc c9 1e bd ff 6f 4e bd
       0.03197246 0.06261021 -0.038766608 -0.050399777
000100 9a 97 3d bd 8b 17 cb bc 13 a5 9f 3d 07 52 50 3d
       -0.046287157 -0.0247915 0.07795157 0.050859477
000110 35 44 2e be 73 20 8a bd 0f bf 65 3c 7e 2e 0c 3c
       -0.17018206 -0.067444704 0.014022603 0.0085560065
000120 e3 5a 34 3d 25 65 a0 3d 6c fa 32 3d e5 77 83 3d
       0.04403199 0.07831792 0.043695852 0.064193524
000130 96 68 e8 3c d6 38 d3 3c 8f ab 5d bd 4c 99 db bb
       0.028370183 0.025783937 -0.05411869 -0.006701624
000140 80 81 5d 3d c0 60 e8 3d 91 20 08 3e 0c 31 28 3d
       0.05407858 0.113465786 0.13293673 0.0410624
000150 c7 29 47 bd 41 ac 9a bc f7 e2 7a 3b 0b c4 8b bd
       -0.048623826 -0.018880965 0.0038282254 -0.068245016
000160 7d 33 01 3e ed e1 38 be 57 a2 e8 bd fc 5d b1 bd
       0.12617297 -0.18054934 -0.11359089 -0.08660504
000170 ae 85 ed 3c 4e b3 01 3e 2b b0 a0 3b ff d5 a2 3d
       0.028994408 0.12666056 0.0049038134 0.07950973
000180 34 49 8d bc 7b 34 a1 3d e7 45 00 be 31 b3 02 3d
       -0.01724682 0.07871338 -0.12526666 0.03190917
000190 31 b4 9e bd 9d d4 56 3d 7e 0d 35 bd 8c 4e 2e bc
       -0.077492125 0.052448858 -0.04420232 -0.010638844
0001a0 63 a4 7c 3d f1 d4 84 bd b0 a7 e3 3b 5b 7b 94 3d
       0.06168021 -0.06485928 0.00694748 0.07250091
0001b0 c4 91 0d bd d1 fb a7 3c 1f f1 15 bd b8 66 d5 bd
       -0.03456284 0.020505818 -0.036606904 -0.10419983
0001c0 d9 47 b5 3d 8c a5 25 3d 81 9f 38 3d 14 f5 38 39
       0.088515945 0.04044108 0.04507399 0.00017638906
0001d0 4d 32 a8 3d 53 fc 07 3c 1e 09 a0 3c 6d 5f d1 3d
       0.08212719 0.008299905 0.019535597 0.10223279
0001e0 d7 eb 80 bd e1 6d 1e 3d 02 9e 10 bd 37 b9 96 bc
       -0.06294983 0.038679007 -0.035306938 -0.018398864
0001f0 0e 79 2d bc 13 3d 1b ba 04 42 39 3c ed 53 24 3d
       -0.010587944 -0.00059218815 0.011307243 0.0401191
000200 0b 6b 18 3e 35 d0 b2 3c 42 79 7a bd db ee da 3c
       0.14884584 0.021827796 -0.061150797 0.026725223
000210 93 d3 e9 3c a1 b9 c8 bb 86 e1 3d be 0b d9 b3 bc
       0.02854327 -0.0061256443 -0.18543062 -0.02195408
000220 40 91 b5 3a 90 e3 b4 bc 85 03 db 3c ec 21 db 3c
       0.0013852492 -0.022081167 0.026735077 0.026749574
000230 40 43 68 3b 25 a8 53 bd 12 0a 7a 3d ca fa 3a 3d
       0.0035440475 -0.051674027 0.06104476 0.045649327
000240 38 c0 5c bc 64 92 be bc 16 e9 2c bd 31 d2 1c be
       -0.013473563 -0.023263164 -0.042214476 -0.15314557
000250 c5 9f 9a bd 70 ce 32 3c c6 ae c2 bd 0e 4d 39 3d
       -0.07550005 0.010913476 -0.09505992 0.0452395
000260 26 47 8d bd 74 cb 8a 3c 37 d2 13 bd 0e 70 cd bd
       -0.06898336 0.016942717 -0.03608915 -0.10031138
000270 12 b5 6d bd b2 25 be 3c 20 1e 7b bd c0 d0 2b bb
       -0.05803401 0.023211334 -0.061308026 -0.0026216954
000280 57 87 d3 3c 04 59 89 bc f2 9d 1a bd fc 44 97 bd
       0.025821371 -0.016766079 -0.037748285 -0.073862046
000290 20 80 13 bd 05 5b 83 3d fa 48 56 3d 4a d6 c9 ba
       -0.03601086 0.06413845 0.05231569 -0.0015398946
0002a0 a0 8e bd bc f0 ce bb bd c6 30 cb bc 15 5b 33 3b
       -0.023139298 -0.091703296 -0.02480353 0.0027367522
0002b0 4c 40 2d bd 50 19 bc 3c fb c0 ea 3c 99 8e 9f 3d
       -0.042297646 0.022961289 0.028656473 0.0779087
0002c0 1d 94 38 bd 26 44 c9 bd 8d 68 50 3d d0 d4 fa bc
       -0.045063127 -0.098274514 0.050880957 -0.030619055
0002d0 80 f1 44 3b 67 5d 9c 3d dc 05 35 bd 40 3e d8 3b
       0.0030051172 0.076350026 -0.04419504 0.0065992177
0002e0 df a0 8a 3d c0 6f 8c bc dd d4 5c bd ee 87 5c 3d
       0.06768965 -0.01714313 -0.05391394 0.05384057
0002f0 40 da 94 3a fd 5c cf bc e0 e4 9c 3b 6e 07 80 bd
       0.0011356547 -0.025312895 0.004788026 -0.06251417
000300 eb 45 88 3d 00 52 31 3c 66 d3 5b 3d 58 27 c7 bc
       0.06653961 0.010822773 0.053668402 -0.024310753
000310 55 ac 13 3b f4 fb 10 bd d4 e2 16 bd 0a f5 42 3d
       0.0022533138 -0.03539653 -0.036837414 0.04759697
000320 3f 05 3a bd a9 25 5d bd 80 9e 49 3a 72 ec 01 3c
       -0.04541516 -0.053990994 0.000769116 0.007929908
000330 60 02 2d bb 10 2d 6a 3c 4d 1a 61 3d b5 13 ab bc
       -0.002639912 0.01429297 0.054956723 -0.02088342
000340 37 7c ab 3d 0f 36 44 3d e2 80 88 bd 98 00 2f 3c
       0.083733015 0.047903117 -0.066652074 0.010681294
000350 34 a2 38 3d 96 ad 3c 3d 2f 6b 97 3d 40 d9 b0 3a
       0.045076564 0.046063982 0.073934905 0.001349248
000360 f1 07 7f bb 23 b9 3a 3d c7 d9 4f bd 1a 99 0d 3d
       -0.0038914646 0.045586716 -0.050744798 0.034569837
000370 9b 3e 98 3d 8b 89 72 bd c2 a1 89 bd 70 6a 23 bd
       0.07433816 -0.059213202 -0.06720306 -0.03989643
000380 55 05 6f bd 83 af b3 bd 08 ab 39 bd 47 2d a8 bd
       -0.058354694 -0.087737106 -0.045329124 -0.08211761
000390 b3 70 75 3d 0f 2e 68 bc f0 0d a2 bc dc f6 08 bd
       0.05992193 -0.0141711375 -0.019782037 -0.03343855
0003a0 4f 9c 52 3b 0f b1 45 3d 9a de 6c bd 80 d1 46 3a
       0.0032136624 0.04826456 -0.057829477 0.00075843185
0003b0 f7 50 ed 3c 99 59 92 bc ad 5d df 3c 92 14 71 3d
       0.028969271 -0.01786499 0.027266348 0.058857508
0003c0 68 bb dc bc d4 35 a5 bd 20 72 bc bc 23 2b 90 3d
       -0.026944831 -0.080669075 -0.023003638 0.07039478
0003d0 cb 22 a9 3b 97 af 43 bd 62 aa 2c be 77 41 17 bd
       0.0051616183 -0.047774877 -0.16861871 -0.036927667
0003e0 6c f4 8c 3d d6 71 62 3d aa 70 02 be 68 70 12 bd
       0.06882557 0.055284344 -0.1273829 -0.03575173
0003f0 29 77 d1 bd 1d 46 83 bd f0 83 6c bd c7 44 13 3d
       -0.10227806 -0.064098574 -0.057743013 0.035954263

fc2.bias f4 [32]
000000 f4 9b 99 3d 8b fd 0d be 12 4e 66 3d 46 80 61 3d
       0.07500449 -0.1386625 0.056226797 0.05505397
000010 ff 33 e9 3c b3 af 75 bd 2a f0 69 bc 19 c2 5e bd
       0.028467176 -0.059982013 -0.014278451 -0.054384325
000020 2b 5c ba 3d 58 40 ae bc f9 ab 47 3c bd 11 56 3d
       0.09099611 -0.021270916 0.012186998 0.05226301
000030 b5 34 a5 3c 57 4c 87 3d 15 88 d4 bc 8f c8 94 bd
       0.020166734 0.066063575 -0.025943795 -0.07264816
000040 dc 65 84 bd 87 54 61 3d d3 b3 3f 3d 19 d3 a7 bc
       -0.06464741 0.055012252 0.046802353 -0.020486401
000050 9a a0 4f 3d f9 e1 af 3c d6 a8 54 bd 3a 08 b9 bd
       0.05069027 0.021470057 -0.051918827 -0.09034772
000060 7e df b4 3d 55 f7 fb 3c 1e 99 71 3c 66 8c 8b 3d
       0.0883169 0.030757586 0.014745979 0.06813888
000070 d3 2b 3c bd b8 62 cf 3d 1d 2a 8e 3d 5f 68 2b 3d
       -0.04594023 0.10126251 0.06941626 0.041847583

fc3.weight f4 [2, 32]
000000 52 a0 44 be 86 e6 a2 3d d3 7c 2b 3e 87 dc 68 3e
       -0.19201782 0.07954125 0.16746835 0.22740375
000010 85 58 94 be 14 8c 99 bd 76 a0 6f be 8e 8a f5 bd
       -0.28973785 -0.07497421 -0.23401055 -0.11989318
000020 34 2d cd bc 6a 3d 5e 3e 90 d4 7a 3e 63 e2 59 3e
       -0.025045969 0.21703115 0.24495149 0.21277766
000030 bb 0b 42 3c ee 23 2f 3e 45 47 a5 bc 22 24 bd 3d
       0.011843617 0.1710355 -0.020175586 0.092354074
000040 b1 58 9d 3c 39 23 3b be 69 c7 dc 3d d7 57 98 3d
       0.01920733 -0.18275155 0.10780222 0.07438629
000050 99 21 2a 3e d0 6c 6e 3e e9 2b 3a bd 3b d7 c9 bd
       0.16614379 0.23283696 -0.045452032 -0.09855505
000060 4e 38 5b 3e 70 22 8b 3e 8e bf 48 be e8 fe 5e bd
       0.21408197 0.2717471 -0.19604322 -0.054442316
000070 22 fb 6d be da 7c 2d be 8b 1a 4f bd a5 99 5a 3e
       -0.23240331 -0.16942158 -0.050562423 0.21347673
000080 c6 10 27 3e 0b 46 81 3d 08 d6 5d bd 7f e8 28 be
       0.16314992 0.06312188 -0.054159194 -0.1649494
000090 4a 50 02 3e bc db 35 3c 8f 1a 32 3e 8f f3 c2 3d
       0.1272594 0.011099752 0.17392944 0.09519111
0000a0 89 44 55 3e 70 89 24 be da 8c c9 bd 0e 58 c5 bd
       0.20826925 -0.16068053 -0.098413184 -0.09635936
0000b0 bd d3 36 be 04 c7 12 be 81 d3 1a be cb f7 88 3a
       -0.17854209 -0.14333731 -0.15119745 0.0010449825
0000c0 ad 34 6e be 18 0e 45 3e 63 a3 9d bd 8e 4f 69 bb
       -0.23262282 0.19243658 -0.07697179 -0.0035600397
0000d0 75 20 89 bb 0a bd 51 be f9 e9 1c 3e a5 43 c2 bc
       -0.0041847774 -0.20482269 0.15323628 -0.023713896
0000e0 b7 35 49 be 5d 34 db bd d3 a0 58 3e c0 9b 75 3e
       -0.19649397 -0.10703347 0.211551 0.23985195
0000f0 16 43 45 3e 00 04 5a 3d e0 53 34 3e 5d f7 ab bd
       0.19263873 0.05322647 0.17610121 -0.0839679

fc3.bias f4 [2]
000000 cd d7 10 be 23 5e 0d 3d
       -0.14144821 0.034513604
