CNN/cnn.pt (torch_old, 304634 bytes, 12 tensors)

conv1.weight f4 [3, 1, 5, 5]
00000000: d3f6 5cbd d5a9 32be f8b6 7bbd 887a 9ebe
00000010: c31f 8abe 9c19 44bd 684c 70bd 0381 8fbc
00000020: 0606 61be 757c 0cbd dd14 d1bd 9d08 ddbd
00000030: 642a 1b3d 67e6 10be 6f43 0ebe 9bda b1bc
00000040: f096 16be 024c 5cbc e52d 3bbe d4ad 38be
00000050: 2b1f fbbc 9673 74bd 0424 17bd c272 83be
00000060: d15e 42be c4b1 62be c53b 403d 6800 70be
00000070: 468b ea3d fa64 7bbe e89f 57be 0f35 39be
00000080: d746 15be 066e e23c 250f d4bd 4bea 253a
00000090: 9e24 bcbd 304e a0bd 5bbd f13d f3e8 d0bd
000000a0: f3ec 87be 9e82 4dbd bf02 89be 412f 9e3c
000000b0: 08c1 94bd 63b7 d9bc 4791 3b3d ffd1 77be
000000c0: 828c 7b3e df7f 7dbe 61f6 69be 3f86 bd3e
000000d0: e352 f33e a66f 063f 6ea9 4c3e 16c0 a5bd
000000e0: 1b9b 0a3d e2e6 253e 5a36 b83d cfcc 03bd
000000f0: 13f6 d03d ffd3 2f3b f12d 113e e2ef 703d
00000100: a643 91bd 2ab8 82bd 4ff9 903d 9e93 d23d
00000110: 243a bd3d 7954 8bbd 4f81 95bd 1e21 77bd
00000120: 2c14 2e3e 689c 90bb 5903 223e
-0.053946327 -0.17447598 -0.06145379 -0.3095286 -0.26977357 -0.047875986 -0.058666617 -0.017517572
-0.21974954 -0.03429838 -0.102090575 -0.107926585 0.037882224 -0.14150392 -0.13892911 -0.021710685
-0.14706016 -0.013445856 -0.18279226 -0.1803506 -0.03065451 -0.059680544 -0.03689958 -0.2567349
-0.18981482 -0.22138125 0.046932 -0.23437655 0.114523456 -0.24550238 -0.21057093 -0.18086646
-0.14577805 0.027640354 -0.10354451 0.0006329163 -0.09186672 -0.07827413 0.11803695 -0.102006815
-0.26547965 -0.050173394 -0.26759908 0.019309642 -0.0726338 -0.026576703 0.045792844 -0.24201201
0.24565318 -0.2475581 -0.22847892 0.37016484 0.47524175 0.5251411 0.19986507 -0.08093278
0.033839326 0.16201356 0.08994742 -0.032177743 0.10203185 0.002682924 0.14177682 0.05882252
-0.07092981 -0.06382783 0.07078802 0.10282062 0.09239605 -0.06803221 -0.07300054 -0.060334317
0.16999882 -0.0044131763 0.1582159

conv1.bias f4 [3]
00000000: 005e ef3c e5c7 c1bc 9496 f83d
0.029219627 -0.023654887 0.121380955

conv2.weight f4 [3, 3, 3, 3]
00000000: 5f82 ba3d e292 91be a70b edbd f650 95bd
00000010: 95bc 1abe d91f 813b f50b 91bd 3c14 93be
00000020: d40f 353e 167e e93d a145 723d 583f 9d3e
00000030: 7454 e13c 05d2 903d ffef 9f3d 266a 163e
00000040: bcdf fa3c d680 3e3e bc71 80be 0f81 b23e
00000050: 8580 c73e fc91 093d 18b3 adbc 4442 db3d
00000060: 982b c8b9 69cb 1b3e 602a 2ebd 57e0 d6bd
00000070: d7b8 333c 1946 93be 3bbe 09be e767 1abd
00000080: 82f3 053e 12b9 94be 340d 92bc 98df 2abd
00000090: 3801 fe3c 50e5 d13c d220 113e cc39 773b
000000a0: 9134 de3d 7d8a 3cbd 1509 50bd e55b 1a3d
000000b0: 24c1 a83d f95c 923e 5f2e e33e ff6b d7bd
000000c0: 6699 2d3d bd8c 133e fbc6 c43b 8252 423c
000000d0: e1ef a23d 145d d6bd 94e9 153e 239f eb3d
000000e0: 2569 b93e 7a0e 3d3e b0da f53d 8f36 113e
000000f0: 38a5 d93d 1a67 4d3e c4e8 683e d771 ddbe
00000100: 5d5f d93b 587d 453e a71e 3dbe 655b e0bc
00000110: 7b30 053e fb36 96be fbf5 e43d 14b8 513d
00000120: 1059 8abe e0c2 b5bd 4b66 24be cd04 663d
00000130: 67f1 013e 75ee ea3d 174b c63c 26d6 87bd
00000140: eb95 6d3d
0.091068976 -0.28432375 -0.11574488 -0.07290833 -0.15111001 0.003940564 -0.07082359 -0.28726375
0.17681819 0.11401002 0.059148435 0.3071239 0.02750609 0.07071308 0.078094475 0.1468893
0.030624263 0.18603835 -0.25086772 0.3486409 0.3896524 0.033586487 -0.021203563 0.107059985
-0.00038179453 0.15214314 -0.04252088 -0.10492008 0.010969362 -0.28764418 -0.13451473 -0.037696745
0.13081172 -0.29047447 -0.017828561 -0.041717142 0.03100644 0.02562204 0.14172676 0.0037723659
0.1084987 -0.04603051 -0.05078991 0.037685294 0.08239964 0.28586558 0.44371316 -0.105186455
0.04238262 0.14409156 0.0060051656 0.011860492 0.079559095 -0.10466972 0.14639884 0.11504962
0.3621303 0.18462554 0.12004602 0.14180969 0.10627216 0.20058861 0.22745043 -0.43250915
0.0066336826 0.19286096 -0.18468724 -0.02738733 0.13006775 -0.29338822 0.111797296 0.05120094
-0.27021074 -0.0887506 -0.16054647 0.056156922 0.12689744 0.11471263 0.024205728 -0.066326424
0.0580043

conv2.bias f4 [3]
00000000: ebd3 9d3d 471f 0abd 1953 a33d
0.07706436 -0.033721235 0.07974834

conv3.weight f4 [3, 3, 3, 3]
00000000: 17f9 d43d 0ac9 523d f858 8f3b 0bf3 633e
00000010: a011 223e d270 2cbe 4fcb 763e 469c 1abd
00000020: 4814 80bd 9368 4f3d e5fd 8abe 2ff5 0dbe
00000030: 317a d93d c9a4 0ebe a92a 71bd cf9e 31be
00000040: e977 81bc 1f6f b03c cc2e 66bd ecfd 16bd
00000050: 8415 43be b80d c8bd 8c71 87bd 8b76 45be
00000060: 8c12 523e 929d 06bd b2cc 7c3e 00e2 873e
00000070: dbe4 cb3e 1d1a 55bd 7f25 01be 34e3 14be
00000080: 8ea9 b7bd 5020 f63d 730b b83d 8046 c5bd
00000090: 27fc 51bd 40d1 dd3e d238 a4bc 2af7 a2bd
000000a0: 8237 323c 8585 0cbe 18de 81be dea7 323e
000000b0: eff4 9b3d 3553 293d 9417 88be b313 80be
000000c0: b9ba 703d d44e 30be b990 883d a29b d43d
000000d0: 75f9 1dbe 26ea f9bd 84d2 96bd 16d6 893e
000000e0: 2343 123e dcd8 1abe 10ef 793d 01c5 543e
000000f0: 84d2 2b3d 3dcd 843d 1409 f33d 004f aabd
00000100: e06d a13e 26a2 50be b72d df3d 5181 91bc
00000110: 8e64 37bc 2331 3d3d 45fc 41bd d137 473d
00000120: 0dcb e0bd 38eb 1dbe 65c3 aa3c e38e 23be
00000130: 8586 043d 005e 39bb 818d 78be 24f9 5fbc
00000140: 29ab 4aba
0.103990726 0.051461257 0.0043746196 0.22260682 0.15827036 -0.16839913 0.24100994 -0.03774669
-0.06253868 0.05063684 -0.2714683 -0.13863061 0.10619009 -0.13930048 -0.058878575 -0.17345737
-0.015804248 0.021537362 -0.056196973 -0.036863253 -0.19051176 -0.09768242 -0.06613454 -0.19283502
0.20514888 -0.032865115 0.2468746 0.26539612 0.3982304 -0.052026857 -0.1261196 -0.14539796
-0.08967887 0.12017882 0.08986559 -0.096325874 -0.05126586 0.43323708 -0.020046625 -0.07957299
0.010877492 -0.13722809 -0.25364757 0.17446849 0.07615077 0.041339118 -0.2658049 -0.2501503
0.058771823 -0.1721757 0.06668229 0.10381247 -0.15427192 -0.122028634 -0.073643714 0.26921147
0.14283423 -0.15121788 0.061019003 0.20778276 0.04194881 0.064844586 0.11866966 -0.08315849
0.3152914 -0.20374355 0.10897391 -0.017761858 -0.011193408 0.04618944 -0.047359724 0.048637215
-0.10976229 -0.1542176 0.020845124 -0.15972476 0.03235485 -0.0028284788 -0.2427273 -0.01367024
-0.00077311933

conv3.bias f4 [3]
00000000: 15e5 d3bd 21f2 ce3d 51fb 08be
-0.10346428 0.10104776 -0.1337712

fc1.weight f4 [135, 525]
00000000: 64fe bd3c 10fa 5fbb 46db c8bc f6bd 1abd
00000010: 2370 e3bc 80a8 aeba bc78 0f3c 8493 a53c
00000020: 509d f33b b80a 0f3d c477 06bc 08ac 143d
00000030: 9e8f 253d 101c 083b 38f8 45bc ac4c b8bc
00000040: 9c57 2b3d c41b 4abc 8443 ea3c 9c4e 0b3c
00000050: dada 28bd 68c6 c13c b018 083d 88bc f83c
00000060: cac4 20bd fcaf f23c 677f 14bd c858 2c3d
00000070: c815 eb3b 8467 3bbc 54ae 213c a0e9 9eba
00000080: 0fb0 2cbd 4026 1d3d 20ce bf3a 901a 893c
00000090: 0445 32bc 00dc d639 783e c7bc 3e0f 1a3d
000000a0: 8ec1 17bd 88d4 cc3b e012 233d a82f 6c3c
000000b0: 2892 bbbb a1b5 06bd 0ec5 113d d08f d33c
000000c0: 3cc5 9c3c 1614 023d 2b24 8cbc 88fa 14bc
000000d0: a0a1 8a3c de0a a9bc 0082 563b ac38 0b3d
000000e0: b89e 0bbd 9cdc 9cbc 4016 a4ba b424 843c
000000f0: 926d a6bc 304c b83c ec60 a13c 1ca1 023c
00000100: 7acf 19bd 7ca0 eb3c 108e 1a3d 06ce 00bd
00000110: c046 d8ba 32a9 a0bc 5c29 c03c 86c6 033d
00000120: 5c95 0bbd 8591 25bd c078 2b3d 04d9 09bc
00000130: 06e8 1bbd 11e6 0dbd 5fb3 31bd 00d7 15b9
00000140: 54f0 e13c 2815 f03b a020 1c3d 1ceb 9e3c
00000150: fc11 8ebc 102b c63b 10d8 5abc 1816 21bd
00000160: 802b 4cba 581e cb3b f195 e8bc 84a4 153c
00000170: 8e90 e0bc 2fd7 c9bc eb12 1bbd 782a 18bd
00000180: 08f1 af3b e2b4 0dbd 164e 18bd b928 24bd
00000190: f466 05bc 0e88 94bc b84e f2bb 6816 c8bc
000001a0: e0c8 b2bb 1e52 313d f0ff 183d c097 9ebb
000001b0: 28b8 a03c f0ca 913b 7017 0c3c 2061 0b3d
000001c0: 00ad 683b 95fc 06bd 38ac c9bb bc4d 00bd
000001d0: d0fb 263c 6459 453c 8010 983b 3d13 09bd
000001e0: 5cf8 e63c b933 fbbc f29c 943c a05a 0dbb
000001f0: f051 2c3d ec0c db3c a00d 2abc 945b b73c
00000200: 687a 033c f35f 91bc acbe dabc 18d8 1a3d
00000210: 8048 2d3a e59d 00bd 6a35 283d f7a6 12bd
00000220: 3291 edbc 6018 c33a b17a 9fbc a535 c3bc
00000230: 1179 a0bc ca84 fabc 421d 113d e0d8 813a
00000240: c4b6 713c 2022 fe3a f454 0bbc d652 163d
00000250: 581b 4ebc 9f25 27bd 908f f53b 78d1 babb
00000260: 9c32 d63c d020 6f3c 884a 693c 40c4 ebba
00000270: 0076 f73c 483d 173c 674f 0ebd acfd 203c
00000280: 4caa c0bc 5ef5 18bd b203 f3bc 00b0 81b8
00000290: bc23 ea3c e802 a93c b008 583b 4ce2 c03c
000002a0: 00b0 a9ba d856 043d 84bd e3bc 1235 183d
000002b0: f01c de3c 90b3 d3bb d034 1dbb 6626 9f3c
000002c0: cb06 a63c 3ac2 b3bc c16d 0ebd bf74 cf3c
000002d0: 1035 07bd cdb3 333c 7a85 8abd c82e 30bc
000002e0: c00c cb39 b7ca 9fbc 78e7 f6bc 333e 2abd
000002f0: 16c2 1dbd f621 c0bc da02 30bd 2fe1 e8bc
00000300: 2e42 32bc 74fc b8bc 448b 723c 1409 2abd
00000310: 233f 36bd b6cd 953c 501b 993c bdb1 56bd
00000320: b773 e8b9 7616 ddbb 49e2 3a3c 1a91 35ba
00000330: 9c05 6fba a0ae 8cbb c616 d6bc cb6f fd3b
00000340: 4c51 6bbd e6e6 35ba a967 dcbb 3304 68bd
00000350: f95e 74bd 18a7 bbbb dda7 ec3c 5f30 6cbd
00000360: a4da 55bb c900 d2ba c0b7 7e3c ba59 8abc
00000370: ee36 303c 7c2d 14bd 4f43 26bd ebe5 19bb
00000380: 1c69 8fbc 5ac4 07bd 2dc8 febc de7c b6bc
00000390: 00bb d73b 3d95 81bd 361e 82bd 3bd3 85bd
000003a0: a442 063a 7830 8c3c 618b 833a 41da e53a
000003b0: f40d 51bd ef9f febc 71f4 a33b a455 e63b
000003c0: a58f 48bd 1475 81bd 9632 0b3d 74a3 e2bc
000003d0: 5b60 7fbc e8f8 17bc 5500 3dbd 3fe4 123c
000003e0: 007f 34bd 3aae 16bd aebd c83c 0eac c7bc
000003f0: b9c9 aabc 9beb 20bc 9a80 eebc 31b1 71bd
0.023192592 -0.0034176148 -0.02451862 -0.037778817 -0.027763432 -0.0013325363 0.008756813 0.020211942
0.0074345246 0.03492233 -0.008207265 0.036296874 0.040420167 0.002076868 -0.012083106 -0.022497497
0.041831598 -0.012335721 0.028596647 0.008502629 -0.041224338 0.023654178 0.03322667 0.030363336
-0.039250173 0.029624932 -0.036254313 0.042076856 0.0071742274 -0.011438254 0.009868223 -0.0012124069
-0.04216009 0.038366556 0.0014633574 0.016736299 -0.010880712 0.00040981174 -0.02432178 0.037612192
-0.037049823 0.0062509216 0.039812922 0.014415659 -0.0057242103 -0.03288806 0.035588317 0.025825411
0.019137017 0.031757437 -0.01710709 -0.009092934 0.016922772 -0.020635065 0.0032731295 0.033989593
-0.034086913 -0.019148163 -0.0012518838 0.016130783 -0.02031592 0.022497267 0.019699536 0.007972982
-0.03755138 0.028763048 0.037733138 -0.03144648 -0.0016500577 -0.019611929 0.023457222 0.03217175
-0.034077987 -0.04042198 0.041863203 -0.008413557 -0.03806307 -0.034643237 -0.043383952 -0.00014289841
0.027580418 0.007326741 0.03811705 0.019399218 -0.01734256 0.006047614 -0.013357177 -0.03932771
-0.00077884644 0.0061986856 -0.02839181 0.009133462 -0.027412679 -0.02463874 -0.03785984 -0.037149876
0.0053693093 -0.03459633 -0.037183844 -0.0400779 -0.008142222 -0.018131282 -0.007394638 -0.024424747
-0.005456075 0.043291204 0.037353456 -0.0048398674 0.019619063 0.004449241 0.00855051 0.034028172
0.0035503507 -0.032955725 -0.0061545633 -0.031324133 0.010191873 0.012045238 0.004640639 -0.033465613
0.028194599 -0.030664312 0.018141244 -0.002156891 0.04207033 0.02673956 -0.010379225 0.022382535
0.008024789 -0.017745947 -0.026702248 0.03780374 0.00066102296 -0.03140058 0.041066565 -0.03580376
-0.028999899 0.0014884584 -0.019467684 -0.02382929 -0.019588979 -0.030580897 0.035428293 0.0009906553
0.014753047 0.0019388832 -0.008504141 0.036700092 -0.012579761 -0.040807363 0.0074939206 -0.00570124
0.02614718 0.014595225 0.014238961 -0.0017987564 0.030207634 0.009230919 -0.034743693 0.009826105
-0.023518704 -0.037343375 -0.029664848 -6.183982e-05 0.028581493 0.020631269 0.0032964163 0.023545407
-0.0012946129 0.032309383 -0.027800329 0.037159987 0.027113408 -0.0064606145 -0.0023987778 0.01942749
0.020266911 -0.0219432 -0.03477264 0.025324224 -0.03300959 0.010968161 -0.0676374 -0.010753341
0.00038728677 -0.019505842 -0.03013967 -0.041563224 -0.038515173 -0.023453694 -0.04297147 -0.028427688
-0.010880036 -0.022581317 0.014803711 -0.041512564 -0.044493806 0.018286567 0.018689781 -0.0524156
-0.00044336703 -0.0067470623 0.01140649 -0.0006926224 -0.00091179623 -0.004293278 -0.026133906 0.007734274
-0.057450578 -0.00069390086 -0.0067262244 -0.05664463 -0.059660885 -0.0057267062 0.028888637 -0.057663318
-0.003263154 -0.0016021963 0.015546739 -0.016888488 0.010755284 -0.03617619 -0.040591534 -0.002348299
-0.017506175 -0.03314624 -0.03110131 -0.022276338 0.0065835714 -0.06327293 -0.063534185 -0.0653443
0.00051216246 0.017112955 0.0010036045 0.0017536358 -0.051038697 -0.031082122 0.005003505 0.007029252
-0.048965115 -0.06321159 0.03398379 -0.027665831 -0.015586938 -0.0092756525 -0.046142895 0.008965551
-0.04406643 -0.03678725 0.024504509 -0.024374034 -0.020848142 -0.009821798 -0.029114056 -0.059006874

fc1.bias f4 [135]
00000000: c842 78bd adea 8ebb f37c d63b 19f0 d7ba
00000010: df84 113d ca6d 8d3a f525 d1bc 91c2 8cbc
00000020: 8b69 5c3c a5e9 bd3d ba55 0c3d d2f7 923d
00000030: 3a37 393c 2656 6cbd 41af 39bc 66dd b63d
00000040: 6c34 4d3a 791b 45bc 3dd9 b2bb 3118 3bbd
00000050: 3a9b 50bd 9c0e c83b cf0c 9fbb 62db b0bc
00000060: 1a6b 89bd 60f8 adbb b8b1 20bd 5653 39bd
00000070: b812 0b3d bfb5 7ebd 4abe c13b 041f f1bc
00000080: 2d68 e53c d411 00bd dc2d dfbc fc73 6abb
00000090: 3e7b 57bd 5ad3 d23d cb32 23bd b4ce 3dbd
000000a0: 739e a4bd 2669 efba bbd8 17bd 79c4 54bd
000000b0: 8f7c 13bd f689 6a3c a143 6abc 4daf 9abc
000000c0: 2475 683c e085 613c b1f0 0fbd c973 b03d
000000d0: 260d f6bc 5cd5 06bd 5e8e 0dbd 65ed 32bd
000000e0: 9cfb 61bd 3154 15bc 6f30 16bd ae66 64bd
000000f0: f29a be3b fceb 82bc 6fda 713d 16d3 82bd
00000100: 04ee b7bc b6bd e1bb fcbd 9dbc 95b6 cdbc
00000110: 6110 d43c 9afc 37bc 3fe0 aebc 44c1 c13d
00000120: 85b6 a6bc 7aee 7abd cc22 40bd 1425 c43d
00000130: ed65 0abd f1f5 9a3c ae1a ad3a 83e6 23bd
00000140: 2f9e 16bd a29e dbbc e094 c83c 4914 48bd
00000150: cb33 443b fd0a 40bd 9598 31ba 67b6 bebc
00000160: 4be2 cdbc a6ef 88bc 58f9 3ebd bd23 26bd
00000170: df7c eabc f3fb 45bd a8fe 53bd 1c49 78bd
00000180: 1e7e cb3c 4cf5 71bc c1bc 1d3c a62f 2fbd
00000190: a58e 39bd b65c 3cbd 00f0 97bd a247 01bd
000001a0: 89a1 b5bc 777b c9bc 34d2 41bd f479 faba
000001b0: 7a3e 4ebd b41c 6abc 88a3 62bd d318 853c
000001c0: 1aec bcbb 7abe 62bc b9e6 e9bb fb5f 10bd
000001d0: 4067 013d 4790 6bbd 5a13 aa3c 4341 d5bc
000001e0: e8b5 edbc 656d 16bd 825f 02bd c5a2 aa3b
000001f0: 339d 13bd fa29 6e3b 90c3 67bc 1e60 b6bc
00000200: a6d3 8cbd d24f 31bd 0c0b 2bbd 72b7 be3c
00000210: 7c7c 4939 930d b93c 8905 883c
-0.060610563 -0.0043614716 0.006545657 -0.0016474753 0.035527106 0.0010790166 -0.025530795 -0.01718262
0.013452898 0.0927308 0.034261443 0.07176174 0.011304671 -0.057699345 -0.011333288 0.08928947
0.0007827941 -0.012030476 -0.0054580257 -0.045677368 -0.050929286 0.006105257 -0.004853822 -0.021588985
-0.06709881 -0.0053091496 -0.039231986 -0.04524549 0.0339534 -0.062185045 0.005912577 -0.029433735
0.028003776 -0.031267002 -0.027243547 -0.0035774698 -0.052607767 0.10294218 -0.03984336 -0.046339706
-0.08038034 -0.001826559 -0.037071925 -0.051945183 -0.03600746 0.014315119 -0.014298351 -0.018882418
0.014188085 0.013764828 -0.03514165 0.08615834 -0.030035567 -0.03291832 -0.0345596 -0.04368343
-0.055171594 -0.009114311 -0.036667284 -0.055761985 0.0058168108 -0.015981667 0.059046205 -0.06387918
-0.022452362 -0.0068890704 -0.01925563 -0.025111476 0.025886716 -0.0112296585 -0.021347163 0.094606906
-0.020350704 -0.061262585 -0.046908185 0.095773846 -0.03378861 0.018916102 0.0013206804 -0.040014755
-0.03677195 -0.02680904 0.024485052 -0.04884747 0.0029938098 -0.04688548 -0.00067747507 -0.023280336
-0.025132319 -0.016715836 -0.04662451 -0.040561426 -0.028623996 -0.04833598 -0.05175653 -0.060616598
0.02484041 -0.014767956 0.009627522 -0.04277005 -0.045302052 -0.045986854 -0.07418823 -0.031562455
-0.022171753 -0.024595005 -0.047319606 -0.0019109831 -0.05035255 -0.01428907 -0.055331737 0.016247189
-0.00576545 -0.013839358 -0.0071381 -0.035247784 0.031592607 -0.05751064 0.02076118 -0.026032096
-0.029017404 -0.03672542 -0.031829365 0.005207392 -0.03603859 0.0036340938 -0.014145747 -0.02226263
-0.06876306 -0.043289013 -0.041758582 0.023280833 0.00019215228 0.02258948 0.016604202

fc2.weight f4 [32, 135]
00000000: 73be 1c3d e83a 0d3d d7b0 b13d c539 3fbc
00000010: f591 f0bd 75d7 09bd 6d48 7cbd af81 033e
00000020: d857 8bbd d4f0 c3bd f31b 8abd b4d0 68bd
00000030: f2a8 a2bd 7ebf d73b 554b b43d c193 53bd
00000040: 71b6 38bd 3463 c13c 483e 63bc c85b 8c3d
00000050: 48aa f63c c508 3b3d f091 9bbd 88e0 5e3d
00000060: 0f99 5f3d 2ab6 2bba 59f9 7e3d 87eb f83d
00000070: 4701 733d 1091 a0ba eefb c73c d794 223e
00000080: ff61 a43d 4f2a 4d3b e589 153e 5099 ed3c
00000090: 687e 783c 944f be3c 78cc 173e 4fa5 1f3e
000000a0: 1b3a c53d 153f 29bd f107 853c 55f6 8fbd
000000b0: f207 98bc e589 7d3d 868b 43bd ff49 f6bc
000000c0: 1ea8 83bd 1af1 2ebd fecd 8d3d 23f7 03bd
000000d0: 6976 e93c 9932 423d 24e3 a2bd 2aaa 5bb8
000000e0: 08a1 ce3d f6f8 b5bd 627b a2bc cc21 dabd
000000f0: 7d73 053d 2b5c cf3c d288 d2bd d8d1 e43b
00000100: 72d3 5f3c 10f4 e03c 14a9 843d 192a 37bd
00000110: 2ac2 613d 5905 333d e4a7 13bd 451e 0bbe
00000120: 0b8e 333d 639f 3b3d 8947 a93d fe3d c9bc
00000130: 8af6 27bd bbe5 2fbd 7738 96bd dd4e 40bd
00000140: 8592 853c a413 18bd e05f 26bc 0d41 f13c
00000150: 8a65 aabc 07bf bcbc 15ba 113d 227e 9bbd
00000160: 7034 df3d b18d 79bc 51eb 0e3e 7b65 a73d
00000170: 1c30 b43c 35e0 6a3d e388 d93c c38c b5bd
00000180: ccb7 973d ee0e 8ebd 8d7e ef3c dac6 d83c
00000190: 733f ae3c ec18 e3bc 0b31 0e3d 2cff 90bd
000001a0: 728e 57bd f337 833d d9de 7cbd 7610 753d
000001b0: 7045 bc3a f2ef 73bd 8d34 fa3c e7cd 80bb
000001c0: bf8c a13d cef1 253e 9759 a23d d62a ad3c
000001d0: 27b5 3fbd 2d58 4ebc a7fe aabc 7303 323d
000001e0: 0e26 a3bc daa7 8a3c 1178 aa3d 7666 8d3d
000001f0: 6f51 52bd 3ea4 4bbd aa6b 873d cad3 d73a
00000200: 2f33 1dbd c94a d93b 0584 10bd 87ff b1bd
00000210: 7633 6bbd cae4 e83c 2af8 703e cbef e7bc
00000220: 1ba6 b0bd 9676 273d a623 76bd 3e53 3bbd
00000230: 537e 0dbd 3ec7 d7bc e8d2 303e 75c0 0f3d
00000240: 2c29 d8bc e2af 4abd 79d1 153d 9a40 fd3c
00000250: 2184 d83d 7cb7 7c3d 053f 0abb 1ac4 77bd
00000260: 7de5 56bd 5abe 903d b327 a83d 802a afbb
00000270: 0346 46bd 4065 9cbb 43a4 77bd 80fc dc3d
00000280: 61bd 33be 8694 55bd b1a2 713e fb39 abbd
00000290: dcf0 cb3d 798f 52bd 05b8 2a3e fec2 493d
000002a0: ee8c a8bc 35c9 0a3e 90a1 c43d 3a2c ffbb
000002b0: 3f53 c23c 8a2a c43d 678b 80bc 178f 453d
000002c0: 2d8a a6bd b534 44bd e5ff 59bc 81a0 e4bc
000002d0: 2ba1 40bd 9c61 513d ee2e 80bd d581 83bc
000002e0: 5809 6dbd 8a83 3abb b892 58bd 1b4b 873d
000002f0: 5768 11bd 3999 abbd 0331 133d 180a 093e
00000300: a164 673d 4a05 863d ef56 96bd 0ea9 3f3d
00000310: 61ad d13c 9e81 93bd 3838 4e3d 0db6 8abc
00000320: 51c2 fcbb 69f6 113d 0d1c 1f3d 23cc 6abd
00000330: 3209 493c b5dc e23d 82f3 b43d 231d d13c
00000340: f6ef e03d 9ae5 aebd 7424 a3bd 438e 24bc
00000350: d355 9d3d a960 c53b 5fde 8f39 7d08 d3bc
00000360: 735a e3bb 10ca ecbb caaf ed3b ea96 783d
00000370: e29f 3e3d 3e9a 203d a069 6a3c 7771 083e
00000380: 1808 4c3d a272 31bc a2f2 36bd 2084 6dbc
00000390: 0669 7b3c f9bf 01bc 3e05 a73d db46 113d
000003a0: dde1 843d 1be3 833d ec7c 113d 2b69 cf3b
000003b0: 975e 90bd bd40 0f3e 6272 2ebd d292 963d
000003c0: ccbf c93d 0770 2a3d 6b31 adbb 0682 82bd
000003d0: af5a aebc 1bdd 163c eead 32bc 7725 adbc
000003e0: 488b 0e3e b463 e5bd 0786 7d3d 084b 95bd
000003f0: fde5 f83d d37b 79ba c73c 4d3d 70c8 0ebd
0.038267564 0.034480006 0.08676308 -0.011671488 -0.11746589 -0.03365274 -0.061592508 0.12842439
-0.06803864 -0.09567419 -0.06743612 -0.05683966 -0.0794238 0.006584107 0.08803431 -0.05165458
-0.045095865 0.023606874 -0.0138698295 0.068534434 0.030110493 0.04566266 -0.07596195 0.05441335
0.054589327 -0.0006550277 0.062249515 0.12154298 0.05932739 -0.0012250263 0.024412122 0.1587709
0.08026504 0.0031305735 0.14603384 0.02900377 0.015166856 0.023231305 0.14824092 0.15590404
0.09630223 -0.041319925 0.016239138 -0.07029406 -0.018558476 0.061899085 -0.04774048 -0.030064581
-0.0642855 -0.0427104 0.069240555 -0.03221811 0.028498845 0.047411535 -0.0795348 -5.2372146e-05
0.10089308 -0.08885376 -0.019834224 -0.106509775 0.03258084 0.025312504 -0.10280003 0.006983023
0.013661252 0.027460128 0.064775616 -0.04471788 0.05511681 0.04370627 -0.036048785 -0.13585766
0.043836635 0.0458063 0.082655974 -0.024565693 -0.041006602 -0.042943697 -0.073349886 -0.04695021
0.016305218 -0.037128106 -0.010154694 0.029449964 -0.02080037 -0.023040308 0.035577852 -0.07592417
0.108986735 -0.015231536 0.13956954 0.08173653 0.021995597 0.057342727 0.02655453 -0.08864739
0.07408103 -0.06936441 0.029235149 0.026462007 0.02127049 -0.027721845 0.03471474 -0.0707992
-0.05262608 0.06407156 -0.06173596 0.05983015 0.0014363956 -0.059555 0.030542636 -0.0039307955
0.07888173 0.16205522 0.07927244 0.02113859 -0.04680362 -0.012594265 -0.02087338 0.04346032
-0.019915607 0.016925741 0.08323682 0.069043085 -0.051347192 -0.04971718 0.06612332 0.0016466316
-0.03837889 0.0066312295 -0.035282154 -0.08691316 -0.057422124 0.028429408 0.23532167 -0.028312584
-0.08625432 0.040884577 -0.06009259 -0.045733683 -0.0345443 -0.026340123 0.17267954 0.03509565
-0.02638682 -0.04948414 0.03657672 0.030914593 0.105720766 0.06169842 -0.0021094691 -0.06048975
-0.05246495 0.07067557 0.08210697 -0.0053456426 -0.048406612 -0.004772812 -0.060459387 0.10790348
-0.17552711 -0.052143596 0.23597218 -0.08360668 0.0995805 -0.051406357 0.1667176 0.049258225
-0.020575013 0.13553317 0.09601128 -0.0077872546 0.023721335 0.09578426 -0.015691472 0.048232164
-0.08131824 -0.047901828 -0.013305639 -0.027908565 -0.0470287 0.05111848 -0.06258951 -0.01605312
-0.05787024 -0.002845975 -0.052874297 0.06606122 -0.035499897 -0.08378834 0.035935413 0.13382757
0.05649245 0.065439776 -0.073408 0.046792082 0.025595369 -0.07202457 0.050346583 -0.016932512
-0.007713594 0.035635386 0.03884511 -0.057323586 0.012270259 0.11077253 0.08835508 0.025526589
0.10983269 -0.08539887 -0.07965937 -0.010043683 0.07682385 0.0060234857 0.00027440765 -0.025760883
-0.0069382726 -0.007226236 0.0072536217 0.060690798 0.046539195 0.039209597 0.0143074095 0.13324533
0.049812406 -0.010830553 -0.044664986 -0.014496833 0.015344864 -0.007919305 0.08155297 0.035467964
0.064883925 0.06439801 0.035519525 0.0063296757 -0.070492916 0.1398954 -0.042589553 0.073522225
0.098510355 0.041610744 -0.005285432 -0.06372456 -0.021283476 0.009207989 -0.010905726 -0.021136029
0.13920319 -0.112006575 0.061895397 -0.07289702 0.12153242 -0.00095170474 0.05010679 -0.03485912

fc2.bias f4 [32]
00000000: a4cb 66bc 0bb7 8bbd daaa d1bd de3c f9bc
00000010: c9ed ab3c 3953 56bd 988d 1a3d 475f bdbd
00000020: cf6d 3e3d 4118 f13d b34f bf3c 9fcb c53d
00000030: 87c0 cf3c 0177 913c 9139 b1bd 113e b4ba
00000040: 476d 31bd 9a07 86bd 8e09 ef3c 7d30 9cbd
00000050: 3a12 a63c 31f8 9ebd 2c8d adbb 6e51 cf3c
00000060: c778 023e acd3 83bb e685 c73d b72a 96bc
00000070: 60e9 45bd 457d 033e 313b 993b d03b 27bc
-0.014086638 -0.06822022 -0.102376655 -0.030424532 0.020987408 -0.05232546 0.03773269 -0.09246688
0.04649144 0.11772204 0.023353433 0.09657978 0.025360359 0.01775694 -0.08653558 -0.0013751407
-0.043317106 -0.06544419 0.02917936 -0.07626436 0.020272363 -0.077621825 -0.00529637 0.025307383
0.12741385 -0.004023036 0.09742336 -0.018330915 -0.048318267 0.12840755 0.0046762456 -0.0102071315

fc3.weight f4 [2, 32]
00000000: 2a61 f9bd d6f9 6cbe bc90 f23d 6264 5abe
00000010: 0079 3ebd 8804 7a3d c1e9 7c3d ca11 e13b
00000020: 2730 503d cfe9 533e d1b2 233e ed48 5d3e
00000030: f1f6 2c3d b8a9 03be 8d3e ff3d fef7 4ebe
00000040: 16ef babb 2db3 fdbd 1d71 42be 890e 21be
00000050: bb72 5bbe cfaf ba3d 9ee2 02be e47c c53c
00000060: d440 393e 39d0 56be 77f6 383e e6eb d6bc
00000070: 9e8e 06be fe9a 973e 4d35 30be 22a1 813d
00000080: c095 093e 41ce 253e 3529 d23b 000c 653e
00000090: 4037 3c3e 3845 77bd c70b 5f3d 42f3 50bd
000000a0: c2c0 673d 094f 86be 5c63 28bc 4968 89be
000000b0: d9c3 553e 7f02 26be effd 06be 0aaf 323e
000000c0: c05d e43d 5fbd f8bd f71d e93d 8eb4 ed3d
000000d0: 0ab9 553e 2913 003d b7f0 e53c da95 4a3e
000000e0: d6e4 eebd 2c34 673e d232 86be 75cd a43d
000000f0: 5f25 a23d 5271 05be 41ea d4bc 8396 b83c
-0.12176736 -0.2314218 0.11844012 -0.21327356 -0.046502113 0.061039478 0.061746363 0.0068685757
0.05082717 0.2069466 0.15986182 0.2160985 0.04222769 -0.12857711 0.124631025 -0.20211789
-0.005704771 -0.12387691 -0.18988462 -0.15728201 -0.21430485 0.09115564 -0.1278176 0.024107404
0.18091136 -0.20977868 0.18062769 -0.026235532 -0.13140342 0.29610437 -0.17207833 0.06329562
0.13436031 0.16191961 0.0064136037 0.22367859 0.18380451 -0.060368747 0.05445459 -0.05101324
0.056580313 -0.26232174 -0.010277595 -0.26837376 0.20875491 -0.1621189 -0.13182805 0.17449585
0.11150694 -0.12145495 0.113826685 0.11606704 0.20871368 0.031268273 0.028068883 0.19783726
-0.11664741 0.22578496 -0.26210648 0.08047 0.07917284 -0.1303151 -0.025990607 0.022532707

fc3.bias f4 [2]
00000000: 848f 413e 97c8 88bd
0.18902403 -0.066788845
