CNN/cnn.pt (torch_old, 304898 bytes, 12 tensors)

conv1.weight f4 [3, 1, 5, 5]
000000 8b 75 94 be da 09 4d 3e 6c c1 b6 3e 12 dc b1 3e
       -0.28995928 0.2002329 0.35694444 0.34738213
000010 8b bd 1c 3f 9a 03 b5 bd e0 c6 7b 3a c4 dd ba 3d
       0.6122672 -0.088385776 0.0009604525 0.0912433
000020 37 7e f0 3d 70 4e d4 3e ce 13 c6 bc c5 86 b6 3d
       0.117428236 0.41466093 -0.024179365 0.08912424
000030 8e cf f1 3b 2f ad cd 3d 20 3f 97 3e dc df 40 bd
       0.007379479 0.10042798 0.29540348 -0.04708849
000040 e6 a2 86 bc c1 73 b2 bb 4a 1f 31 3e ea 3b ff 3d
       -0.016435098 -0.005445928 0.17297092 0.124625996
000050 44 f0 2d bd 83 30 1c 3c a4 46 0b bc a9 8f c8 3d
       -0.042465463 0.0095330505 -0.008500729 0.09793026
000060 3f 85 1f 3e db 9d 66 be 63 a5 dd be 0c 6c 54 be
       0.15578173 -0.22521155 -0.43290243 -0.20744342
000070 15 6a ec be 2c 2d 05 be 6c d6 a1 ba ee f2 39 be
       -0.46174684 -0.13005513 -0.0012347228 -0.18159077
000080 06 61 34 bd 50 6a 97 be 8b a5 7e be 7c f0 72 be
       -0.04403784 -0.29573298 -0.24867837 -0.2372455
000090 ea 5c 9a bd 48 55 60 3c 88 2e 73 be 5c 53 67 bc
       -0.07537253 0.013692208 -0.23748219 -0.0141189955
0000a0 7c 84 16 3e 0f 9d 25 3e 66 0b 00 3e d6 ae a9 3d
       0.14698976 0.16173194 0.12504348 0.082853004
0000b0 2f 2a 18 3e 87 41 8a bd 28 4d 25 3d 46 92 3f 3d
       0.14859842 -0.067507796 0.040356785 0.046770357
0000c0 e7 11 92 be 70 5d aa 3d 34 e3 e0 be 07 14 92 be
       -0.28529283 0.08318603 -0.43923342 -0.28530905
0000d0 97 75 89 be 24 42 8a be c0 ba a8 3d e8 70 55 be
       -0.26847526 -0.27003586 0.08238745 -0.20843852
0000e0 4c 77 4b bc 3c 4a a0 be ad d6 88 be 64 22 bf bd
       -0.012418579 -0.31306636 -0.26726285 -0.09332731
0000f0 b7 39 e5 bd e5 44 03 be 94 76 73 bd c3 f4 53 3d
       -0.11192649 -0.1281925 -0.059439257 0.051747095
000100 4a eb 19 3c a7 b1 6d be be 95 71 be 04 53 2d be
       0.009394476 -0.232123 -0.23592278 -0.16926199
000110 a8 5f 10 be e8 4e 92 3c 1e da b8 be db 73 02 be
       -0.1409899 0.017859891 -0.3610391 -0.12739508
000120 ca 3d d2 3d 7d d5 dd 3c 73 bd ed 3d
       0.102656916 0.027079338 0.116084

conv1.bias f4 [3]
000000 fd f0 3a 3c 79 fc 02 3e 1b 44 19 3e
       0.011409995 0.12791623 0.14967386

conv2.weight f4 [3, 3, 3, 3]
000000 de 38 9d 3e d4 03 cf 3e 46 b2 9f 3e de 17 3d 3e
       0.3070745 0.40432608 0.311907 0.18466136
000010 ea 4c 49 3e 7c cf 88 3b 82 0f 98 3d 4b 8e 56 bc
       0.19658247 0.0041751247 0.07424833 -0.013095449
000020 62 72 ed 3d 81 40 08 bd 64 bc b1 bd 84 05 27 be
       0.115940824 -0.03326464 -0.08678511 -0.16310698
000030 02 9f b5 3d f6 01 b6 3c f0 60 c9 3d 46 e3 72 bd
       0.08868219 0.022217732 0.098329425 -0.059298776
000040 7f f6 89 3a e4 6a 56 3e b2 01 8b 3e 9a 81 33 be
       0.0010525732 0.20939213 0.2714973 -0.17529908
000050 24 05 60 be 21 49 dd 3d a4 d1 8f 3d 41 3b 0f be
       -0.21876961 0.10804964 0.07022408 -0.13987447
000060 cc b2 59 3e 96 b9 bb bd 72 e6 48 be 00 be 40 3e
       0.21259612 -0.09166257 -0.19619158 0.18822479
000070 a1 23 08 be a6 4d 79 be b8 82 17 bd 0f 01 36 3e
       -0.13294841 -0.24346027 -0.036989897 0.17773841
000080 f4 8a c3 bd 7b 3e 42 3e f1 ff 13 3c 5c df 33 be
       -0.095479876 0.18969147 0.009033189 -0.17565674
000090 8a f8 01 bc b0 cc b4 bc 95 4a bf 3e e2 cb 11 3e
       -0.0079327915 -0.022070259 0.3736159 0.14237931
0000a0 1f 28 67 bc 64 02 5a 3e 2e 82 2b be 5e 8d 97 bb
       -0.014108687 0.21289974 -0.16748878 -0.0046250066
0000b0 e9 70 76 3e 76 75 86 bd 01 79 dd 3c a1 bb 62 3e
       0.2406651 -0.06565373 0.027035238 0.22141887
0000c0 5e 32 9e 3a 2b 52 24 be 59 db 03 be 39 86 11 bd
       0.0012069454 -0.1604697 -0.12876643 -0.035528395
0000d0 fc d1 b1 bd 39 5d ac 3d ee 96 a0 bd 3b 47 71 be
       -0.086826295 0.08416218 -0.078412876 -0.23562329
0000e0 9e 65 1c be 9c a5 41 3d d4 34 2e 3d 34 73 0a be
       -0.15273139 0.047277078 0.04253085 -0.13520509
0000f0 f2 aa 5d 3d 2a 9e f3 bc 65 50 16 3d 8b f3 80 bd
       0.054118104 -0.029738504 0.036697764 -0.06296452
000100 3f a8 41 3e f7 e9 e0 3e 11 b5 06 be 96 70 44 3c
       0.18911837 0.439285 -0.13155009 0.011989733
000110 aa 51 13 3d fb 38 a9 bd 54 cf 14 3d ef 7c ce 3c
       0.035966553 -0.08262821 0.036330536 0.025206057
000120 0b db c0 bd 93 bf 90 3e 1e ba ec 3e a9 f1 de bd
       -0.09416779 0.2827116 0.46235746 -0.10885937
000130 2e 02 9c 3d 53 3c 4c 3e b7 12 00 ba 76 53 b3 bb
       0.07617603 0.19944887 -0.0004885601 -0.005472596
000140 b4 5c 90 3d
       0.07048932

conv2.bias f4 [3]
000000 c6 85 a2 be 04 80 b8 bd 85 15 ff 3d
       -0.31742686 -0.09008792 0.124552764

conv3.weight f4 [3, 3, 3, 3]
000000 58 3e c8 bd 49 41 9d be fb 27 06 bf 81 7c f4 3c
       -0.09777516 -0.3071387 -0.52404755 0.029844524
000010 c7 36 64 be 6f 36 24 be aa 39 8c bc 84 cc d9 bd
       -0.22286521 -0.1603639 -0.01711734 -0.106347114
000020 e6 08 c4 bd 8d b6 98 3e ef 9a 31 3e a8 0c b1 3e
       -0.0957201 0.29826775 0.17344259 0.34579968
000030 80 2a 09 bd 52 c9 08 bc fe 06 37 3d c0 04 d0 bc
       -0.033487797 -0.00834878 0.044684403 -0.02539289
000040 94 8e d9 3d 4b 15 0b 3e 91 11 47 3e 26 c1 cc 3c
       0.10622898 0.13582341 0.19440295 0.024994444
000050 89 8c 59 3e a2 53 ae 3d d7 1b 1e 3d ec 23 8a 3d
       0.21245016 0.085120454 0.03860077 0.06745133
000060 61 6e d7 3c 87 cd 73 bd 59 0c 90 3d d4 c2 d6 3e
       0.02629775 -0.059522178 0.07033605 0.41945517
000070 53 21 23 be 72 59 19 3e 26 1f f6 3d cb cb f4 bc
       -0.15930681 0.14975527 0.1201766 -0.029882332
000080 ee d1 db bc 84 46 5f 3d 95 75 ce bd 8c 9a 0b 3e
       -0.0268335 0.05451061 -0.10081021 0.13633174
000090 e3 94 13 bd a9 be 58 3e b2 86 44 be 4b ab 06 be
       -0.03603066 0.21166481 -0.19192007 -0.1315128
0000a0 72 1a 11 3e 6d d8 c3 bd fc 68 2e 3b 26 e2 be bc
       0.14170244 -0.09562764 0.0026612869 -0.023301195
0000b0 87 2b 35 bd e4 9c 9a be 46 91 a8 3e 0a e9 1f be
       -0.044230964 -0.30197823 0.32923335 -0.15616241
0000c0 c2 26 5e 3d 33 e5 66 bd 08 30 1a 3d a4 8f 52 be
       0.05423618 -0.056370925 0.037643462 -0.20562607
0000d0 fd fd 4b 3e 5a c1 40 3c 54 7f ba bd d0 47 44 be
       0.19921108 0.011764849 -0.09106317 -0.1916802
0000e0 9b ba 99 3e 3d 95 83 3d b2 c6 07 be b3 a1 da 3d
       0.3002518 0.06424949 -0.1325939 0.10675373
0000f0 a1 96 02 bd 47 32 ee bd 2d 66 c4 bd ba b8 ad 3e
       -0.031881932 -0.116306834 -0.09589801 0.33929998
000100 60 22 4e 3c 96 eb c8 3e 30 bb 6b 3e f7 2e f6 bd
       0.012581438 0.39242238 0.23020625 -0.120206766
000110 af 71 54 3e 20 37 83 3e 4b a7 24 be 03 fc 9f 3c
       0.20746492 0.25627995 -0.16079442 0.019529348
000120 d3 e8 c1 3d bf bf 86 3e 72 5a 8b be 01 fa 1f 3d
       0.09468236 0.26318166 -0.27217442 0.03905678
000130 19 55 c2 3d e3 a5 72 bd d4 e3 0a 3d 9b 6a 0a bd
       0.09488887 -0.059240233 0.03390868 -0.033793073
000140 06 22 08 3b
       0.0020772233

conv3.bias f4 [3]
000000 f0 72 e6 bc c7 46 61 be 84 50 01 bf
       -0.028130978 -0.21999656 -0.5051348

fc1.weight f4 [135, 525]
000000 69 75 8b 3d 3f 89 27 3d 05 2c 04 3d 57 08 21 3d
       0.068095036 0.040902372 0.032268543 0.039314594
000010 2b b0 06 be 4c 31 99 3d ab 98 95 bd 2b 34 3d be
       -0.1315314 0.07480106 -0.0730451 -0.18476932
000020 de af 08 3c 46 1f 27 3e 14 1c a7 3d 9b eb ad 3e
       0.008342711 0.16320524 0.08159652 0.33968815
000030 1c 6f 4b 3e c9 00 23 3e ca 06 b0 bd 7f 7c cb bd
       0.19866604 0.15918268 -0.08595045 -0.09935855
000040 22 3f 73 be f4 5f 12 bc 84 cd f1 3d ae ba f2 bc
       -0.23754552 -0.00893401 0.11806777 -0.029630031
000050 96 76 d3 bc 39 40 b9 bb e8 09 15 3e 56 9e b0 3e
       -0.025813382 -0.005653408 0.1455456 0.344958
000060 36 d3 fb 3c 58 a6 4a be 30 e5 8f bb 42 6a 2d bc
       0.030740362 -0.19790018 -0.004391335 -0.010584416
000070 f4 07 4e 3d 64 95 00 3d c4 5d 06 bc 37 4a de 3d
       0.050300553 0.03139247 -0.008201066 0.10853999
000080 3b 46 f8 3d b3 e7 21 3e d7 bf 5b 3e d6 29 65 3e
       0.121227704 0.15811042 0.214599 0.2237924
000090 57 50 89 bb fd 2f 1d 3d aa f2 6e 3c d6 24 ee bd
       -0.0041904855 0.038375843 0.014584223 -0.1162812
0000a0 86 08 6b 3d 50 8d 17 bc 46 4d 3b be 75 cb 37 3d
       0.057381175 -0.00925 -0.18291196 0.044871766
0000b0 83 f4 f3 3d e5 62 c9 3d d2 3e 6f 3e 7f 79 ed 3d
       0.11911871 0.09833316 0.23363808 0.11595439
0000c0 97 a8 87 3d 24 21 3d bd 13 cf 54 be 49 6f e2 bd
       0.06623953 -0.046174183 -0.20782118 -0.11056382
0000d0 1d 1e f4 3c 02 50 0d 3d 22 1b 55 bc 4f 7b b1 bc
       0.029799515 0.03450013 -0.013006957 -0.021665243
0000e0 cb c5 f8 bd c3 22 82 bd 80 0f 98 3e ae e7 2d 3c
       -0.12147101 -0.063542865 0.29699326 0.010614319
0000f0 a3 1d fa bd da 1a 65 bc 36 c7 67 bd 77 44 8b bd
       -0.12212684 -0.013983453 -0.056586467 -0.06800168
000100 ff 9d e0 3c 69 6d 1c 3e 0a 87 1e 3e 0f dc 72 3d
       0.027419088 0.15276112 0.15481201 0.059291895
000110 d9 5d 02 3e 1e 39 65 3e ca 88 3b 3e 18 30 18 3e
       0.12731113 0.2238507 0.183139 0.14862096
000120 d4 f0 d3 bc 81 1a 94 bd 64 80 4c be 18 a5 c0 3d
       -0.025871672 -0.07231618 -0.19970852 0.09406489
000130 ed 61 af bd 45 5e 76 be 06 6a 10 3d 60 4c 38 3c
       -0.085636 -0.24059398 0.03525736 0.011248678
000140 56 58 9a 3d 23 87 14 3e 60 58 40 3d b0 a1 42 bc
       0.0753638 0.14504676 0.04695928 -0.01187937
000150 bc 4b 88 bd 99 dc 07 be 16 ce 7c bd 52 0a 90 3d
       -0.0665507 -0.13267745 -0.061719976 0.070332184
000160 da b8 1e 3e 46 c5 03 bd e1 96 25 3d 37 22 5c bd
       0.15500203 -0.032170556 0.040427092 -0.053743567
000170 4f 5b 2d bd 2a 47 87 3e 31 9d 2e be 07 d4 a1 bd
       -0.042323407 0.2642148 -0.17052151 -0.07901769
000180 b7 e6 90 bd 85 63 07 be 3d 9a 7f bd f1 77 81 bd
       -0.07075255 -0.13221557 -0.062402952 -0.06321705
000190 a3 43 73 3d 78 f7 df 3d 20 97 04 3d d6 d0 b2 3c
       0.059390675 0.10935873 0.032370687 0.021828096
0001a0 75 3f 5c 3d b3 0e 86 3d 02 3a 5a bb 26 b0 95 bd
       0.053771455 0.065457724 -0.0033298736 -0.07308988
0001b0 58 fe b6 bd 6d 29 1e be 61 7d c0 3d 4a b0 2d 3d
       -0.08935231 -0.1544549 0.09398914 0.04240445
0001c0 ed cc bb b9 fa f5 cf 3c 75 c2 57 3c 9e df 34 3d
       -0.000358201 0.025385845 0.013168921 0.04415857
0001d0 ce fc 37 3d 7c 88 62 3c 52 aa 8d 3c 3a e4 b6 bd
       0.044918828 0.013826486 0.01729313 -0.089302495
0001e0 34 0b bf bd 50 a5 81 bc 55 7f b2 bc 35 3f 15 bd
       -0.09328309 -0.015825897 -0.021789232 -0.036437232
0001f0 e8 c5 52 ba f9 a0 6a bd 37 80 3e 3d df 08 ee bd
       -0.00080403546 -0.05728242 0.046508994 -0.11622786
000200 73 af b7 3d 80 fb 00 3e 63 4a eb 3c 00 80 58 bd
       0.08969011 0.1259594 0.028721994 -0.052856445
000210 c2 2c e6 bd 0f 01 83 bd 74 86 2a bd ad 03 31 bd
       -0.112390056 -0.06396686 -0.04163213 -0.043216396
000220 3e 55 31 3d b6 db 5f 3d dc cd d8 bc 3f c5 09 bd
       0.043294184 0.054652892 -0.026465349 -0.033635374
000230 ff c0 c2 bd 55 4a 6d bc 7b f7 80 bd 90 67 5f bd
       -0.09509467 -0.014483054 -0.06297203 -0.054542124
000240 7b 72 bd ba fd 3f 80 3c 16 17 34 be d4 dd 8b be
       -0.0014453674 0.015655512 -0.17586932 -0.2731768
000250 71 12 d1 3b 2d e0 14 3c a6 a8 f5 bb a0 ad 61 3d
       0.006380372 0.009086651 -0.007496911 0.055097222
000260 b2 fa 74 3c 9a 8e 95 3b 5a 6a da bd c9 68 9a bd
       0.014952349 0.0045641186 -0.10664816 -0.075395174
000270 f2 c4 b9 bb 3a dd 67 bd 89 0c 4c bd d9 8e 64 bd
       -0.0056692297 -0.056607462 -0.049816642 -0.055800293
000280 06 7f 22 bd 73 67 5d bd 9e 7d 73 be 14 9f a0 3e
       -0.03967192 -0.054053735 -0.23778388 0.31371367
000290 8c 07 02 bd 95 06 3d bc 3c 93 77 bd ec b6 17 be
       -0.03174548 -0.011537214 -0.060443148 -0.14815873
0002a0 f6 56 65 bd 12 f2 68 bd 62 3d 80 bd 62 f4 15 3e
       -0.055991136 -0.05687148 -0.06261708 0.14644006
0002b0 8c 6c 50 bd aa f9 38 bd 1b ff 7a bd 3c f2 ad be
       -0.05088477 -0.045159973 -0.061278444 -0.33973873
0002c0 66 d6 be be 41 3e 02 3e 79 6a 01 3b af dd f1 3d
       -0.37272948 0.1271906 0.00197473 0.11809861
0002d0 85 bd 8d 3d 9a b5 6a bd 4a 07 3b bd 89 5d be 3d
       0.069209136 -0.057302095 -0.04566125 0.09295184
0002e0 ee 9e fb bd 4d ad e5 3d 30 32 2a 3f 43 91 22 be
       -0.12286173 0.11214695 0.6648283 -0.15875725
0002f0 df 73 93 be ab 33 81 bd e8 48 28 be cd 96 f4 3d
       -0.2879934 -0.06308683 -0.16434062 0.119428255
000300 d3 a2 a9 3e ca dd 21 be a9 9f 39 be 77 14 cc 3d
       0.33132038 -0.15807262 -0.18127312 0.09964841
000310 d7 c9 22 3d c4 bf cb be 9d 3d c0 3d e1 e1 65 be
       0.03974327 -0.39794743 0.09386752 -0.22449447
000320 56 f2 82 be 12 7e de 3c 51 6f 67 3e 15 34 27 be
       -0.25575513 0.027159724 0.22601058 -0.16328461
000330 bc 49 44 bd ff 09 83 bc 9e b0 5a be 0f 3a a4 3d
       -0.04792188 -0.015995977 -0.21356437 0.08018886
000340 39 6e 5e bd e5 96 98 3d 94 60 fb ba ae 78 6b be
       -0.054304335 0.07450656 -0.0019178563 -0.22995254
000350 d9 b0 4c bd 15 db c6 3d a0 57 1d 3c 3c 5d de bb
       -0.049973343 0.09709755 0.009603411 -0.0067860167
000360 09 32 39 bd 92 97 f2 bd 28 30 49 3d 7f c9 c0 bc
       -0.045213733 -0.11845316 0.04911819 -0.02353358
000370 83 ea 99 bc 1e 89 cc 3e e4 61 1a be 64 cd 40 be
       -0.018788582 0.39948362 -0.15076405 -0.1882835
000380 9a 4a e2 bd 4b cf bf bc 21 47 83 3c 70 41 a1 3e
       -0.11049385 -0.023414275 0.016025128 0.31495237
000390 cb 4d f7 bd 61 7e 9d be 54 66 3d 3e 5f 4e 39 bd
       -0.12075385 -0.30760482 0.18496066 -0.045240756
0003a0 1c f4 50 be 2a 35 2e 3e 50 57 f0 bb e8 62 20 3d
       -0.2040562 0.17012468 -0.007334627 0.039156824
0003b0 c1 5b b2 3d 50 a2 8c 3e 35 fc fa bd 4a 18 e8 bc
       0.08708907 0.27467585 -0.12255136 -0.028331894
0003c0 8a 36 19 3e 31 7c 2a be 95 bb 88 3d 67 52 b2 bd
       0.14962211 -0.16648938 0.066764034 -0.08707123
0003d0 ed 0e 27 3d fb a1 dd bd dd df c6 bd 10 23 07 bd
       0.04078572 -0.10821911 -0.09710667 -0.032992423
0003e0 22 20 49 3e 69 c0 80 3c c9 07 38 3d 30 a4 80 bd
       0.19641164 0.015716748 0.0449293 -0.06281316
0003f0 72 95 20 bd 21 f7 9a 3d 71 e6 ad 3d 18 fe 73 bd
       -0.039205022 0.07566667 0.08491219 -0.059568495

fc1.bias f4 [135]
000000 3c 94 03 bc fe 49 eb bc e3 85 0c bd 72 06 3a 3d
       -0.008030947 -0.028721806 -0.03430737 0.045416303
000010 26 96 3c bd 2e 51 17 3c 6e bf 53 bd ea 89 43 3d
       -0.04604163 0.009235663 -0.051696233 0.047738947
000020 a5 b3 42 bd b2 67 f2 bc 72 89 07 bc 1e 7f 68 ba
       -0.047534604 -0.029590461 -0.008272516 -0.00088690396
000030 32 9e 43 3c f3 2a 6f 3c 14 e3 67 bc a5 0c ab 3c
       0.011939572 0.014597642 -0.014153261 0.020880053
000040 6f 0b cd bb 47 85 20 bd fc 57 3d bd 23 32 ca bc
       -0.0062574665 -0.039189603 -0.046226487 -0.02468211
000050 87 3e 29 bd 4c c2 2f 3c d3 87 53 bd 76 34 54 3c
       -0.041319396 0.010727476 -0.051643204 0.012951961
000060 28 13 18 3c 9e 37 1d bd 35 ca 07 bd 9f 25 e4 bc
       0.009281911 -0.03838312 -0.033151824 -0.02784997
000070 cc ba 16 bc da a0 5d 3c 95 49 7d 3a 4d 4d cd 3b
       -0.009199809 0.0135271195 0.00096621487 0.0062653185
000080 99 d6 dc ba d5 37 a6 3c 24 67 9d bc 89 58 a2 bd
       -0.0016848623 0.020290295 -0.01921422 -0.07927043
000090 18 d4 f8 bc 38 70 50 bc 11 f2 c9 3c 5f cd b2 3c
       -0.030374572 -0.012722068 0.02465156 0.021826444
0000a0 8a 4d c1 bc d6 09 0f 3c 27 93 14 3d d4 07 57 bd
       -0.023596544 0.008730372 0.036273148 -0.0524977
0000b0 62 79 71 3d 98 15 b1 3c 83 07 b3 3c 20 b3 12 3d
       0.05895365 0.021616742 0.021854168 0.03581536
0000c0 d2 49 39 3d 0e 7a 6e bc ea 06 05 bd ab db a4 3d
       0.045236416 -0.014555467 -0.032477297 0.08049711
0000d0 4d f7 ef bc a9 ca 61 3d d6 7f a9 bc 26 9b 43 bc
       -0.029292727 0.055124912 -0.02069084 -0.011938846
0000e0 f6 8d 85 3c 1f 4e 10 3c 14 ef 33 bd 32 16 ed bc
       0.016303044 0.008807688 -0.043929175 -0.028941248
0000f0 29 8e 18 3d 12 ed ba bc 1d 95 0c bd 08 ab 37 3c
       0.03724495 -0.022818122 -0.034321893 0.011210211
000100 19 0b 41 3c e0 7a aa bc a5 c8 49 bd c9 2d 3f 3d
       0.011782431 -0.020810544 -0.049263615 0.046674524
000110 f3 a3 4a bd 84 aa a5 3b 43 9b 2a bd 03 04 0d 3c
       -0.04947276 0.0050557274 -0.041651975 0.0086069135
000120 10 9d 12 bd 90 fc 17 bc 63 90 01 3c 50 d0 69 bc
       -0.035794318 -0.009276524 0.00790796 -0.014270857
000130 2f eb c1 bc ab 09 82 3d e0 ae 16 bc 5f 81 b7 3c
       -0.023671715 0.063495 -0.009196967 0.022400556
000140 01 a0 23 3d f0 81 0a bc 3a 02 36 3d 97 42 dc 3c
       0.039947513 -0.008453831 0.044435717 0.026887221
000150 8a 60 40 3d bb 09 d5 3d f1 79 64 3d af d8 2d 3d
       0.046967067 0.104022466 0.055780355 0.042442974
000160 9d c4 16 bd f7 53 91 3c 5e 14 26 bd 59 19 57 3d
       -0.0368086 0.017740233 -0.040546767 0.052514408
000170 78 23 17 bd 49 41 00 bd be 8f fb bb 8e ac e1 bc
       -0.03689906 -0.03131226 -0.0076770475 -0.0275481
000180 78 ff 31 3d f5 b4 85 ba b0 3b 46 3c 12 69 0b bc
       0.043456525 -0.0010201024 0.012099192 -0.008508937
000190 6d f2 a3 3d ac 29 ea bc a5 8f d8 bc 65 1a 0b bd
       0.080052234 -0.028584324 -0.026435683 -0.03396072
0001a0 36 e3 e7 3c 5b 01 1b bd e6 56 28 bd 4e 3c 92 bb
       0.028306585 -0.03784309 -0.041098498 -0.0044627553
0001b0 80 fb 30 bd ac 04 b5 3c bb c8 83 3c 6d 1e 57 bd
       -0.0432086 0.022096954 0.016086927 -0.05251925
0001c0 da aa 04 3d e0 1f b7 3c 9d a0 ed 3a 59 17 c1 3b
       0.0323895 0.022354066 0.0018129532 0.005892676
0001d0 28 03 82 3c f2 d4 34 3d 6e 59 a9 bc 4f f8 8e 3d
       0.015870646 0.044148393 -0.020672526 0.06980955
0001e0 cb 17 1a 3d 4e 27 3d 3c 96 9d 43 bd a3 af 34 3d
       0.037620347 0.0115450155 -0.047757708 0.044112813
0001f0 7a d6 19 3d 30 1c 4e bd 13 4c 05 bc 19 6a 1d 3c
       0.037558056 -0.05031985 -0.008135813 0.009607815
000200 7a 20 18 3d 5b f6 64 bd 87 9f be bc 89 57 5a 3d
       0.037140347 -0.055899005 -0.023269428 0.053306136
000210 8c 71 f2 3c e7 e6 20 bc 6e e7 00 3d
       0.029595159 -0.009820676 0.03147071

fc2.weight f4 [32, 135]
000000 3b cd 0b 3c 7f 49 e8 3c 9a 6f 12 3e a7 c0 7e bc
       0.0085328175 0.028355358 0.14300385 -0.015548862
000010 42 3e 8c 3d 7a 02 3c 3c 1d bd 6c 3d fd 02 1d bc
       0.06847812 0.0114752 0.05779754 -0.009583232
000020 2e fe ad bc 2b 8f 57 3b 98 55 05 be 47 f5 02 3e
       -0.021239366 0.0032891731 -0.13020933 0.12788878
000030 2a db c2 bd c4 b5 2a be fd 8b bb 3d 0b 50 6f 3c
       -0.095144585 -0.166709 0.0915756 0.014606486
000040 62 e8 0a be 14 2c aa 3d 18 ae 10 bd b7 25 d0 bb
       -0.1356521 0.083091885 -0.03532228 -0.006352152
000050 21 2f ee bd 6d a8 05 3e 42 5b 26 3d d5 48 2b 3d
       -0.11630083 0.1305253 0.040614374 0.041817505
000060 e7 94 1f bd ec 6c 69 3c fb a8 e6 bc b8 f9 07 be
       -0.038960364 0.01424716 -0.028156748 -0.13278854
000070 07 12 fb bd be c7 bc bd 5e 53 ab 3d cf 76 8e 3d
       -0.12259298 -0.09217785 0.083655104 0.06956255
000080 c8 b9 93 3b dc c3 2b bd b5 8f eb 3c 19 25 87 3d
       0.004508231 -0.041934833 0.028755048 0.06598873
000090 d7 bb f5 bc 1a 78 5b 3d 22 bd af 3d 54 1e f6 3d
       -0.029996796 0.053581335 0.08580996 0.120175034
0000a0 28 a0 67 bd 16 1c bc 3c e4 d3 23 3c 75 22 9a bd
       -0.05654922 0.022962611 0.009999249 -0.075261034
0000b0 6d 8f 4a bc 36 c1 9d 3c ed c8 31 3e fd 20 e5 bc
       -0.012363297 0.01925717 0.17361803 -0.027969832
0000c0 ee 86 67 bd 33 26 96 3d d0 5b ae 3c 9c 4d b5 3c
       -0.056525163 0.07331505 0.021284014 0.022131734
0000d0 04 cc 1d bd 6d 3e d9 3d c3 17 26 3d fb 71 4b bd
       -0.038524643 0.1060761 0.040550005 -0.049669247
0000e0 be 03 35 3d 0f 9d 82 be 72 fe a7 3d ae a5 3c bd
       0.044193022 -0.2551045 0.082028285 -0.046056442
0000f0 8e 0b a4 bc e7 48 ce 3d db ee 2b be cb 49 e7 bd
       -0.020025041 0.10072499 -0.16790335 -0.11293372
000100 64 9f f5 3d 50 8a 15 3d 2a 23 10 3d 4f 30 cf bc
       0.11993292 0.03650886 0.035189785 -0.02529159
000110 4c f7 4f bd 57 bf 70 3e 76 d6 30 3d a2 38 c3 3d
       -0.05077295 0.2351049 0.043173276 0.09532286
000120 4d 7a ca 3c 51 9d 09 be 0d a0 01 be ad 4f 40 bd
       0.02471652 -0.13438918 -0.12658711 -0.046950985
000130 a7 ed c6 3d fe b5 be 3d 03 fc 6d 3d 02 6d 1e 3d
       0.09713297 0.09312056 0.058101665 0.038678177
000140 c5 4f 63 bd 90 ff 19 bd c8 0a ff 3c fa 88 8c 3d
       -0.055495996 -0.03759724 0.03113307 0.06862064
000150 05 39 d1 3d 01 ba 12 3e 8d 09 53 3e af b7 96 bb
       0.10215954 0.14328767 0.20609112 -0.0045995335
000160 17 47 ae bd 30 ef 99 3d 50 29 ad 39 8a fe 68 3d
       -0.08509653 0.075163245 0.00033027912 0.056883372
000170 bc ba 5b bc 66 69 29 3d 43 af 6d bd 03 c5 5a bd
       -0.01341122 0.04136028 -0.05802847 -0.05341054
000180 03 d2 7c 3e 43 57 dc 3c b3 b8 32 be d3 e0 50 bd
       0.24689488 0.026897078 -0.1745327 -0.05099566
000190 a6 ca 83 3e 6e 5b 9a 3c cd e8 07 bd 08 e3 4b bd
       0.25740546 0.018842425 -0.033181 -0.04977706
0001a0 15 16 89 bd c4 d7 05 bd c8 58 39 bd c7 0b a4 3c
       -0.06693665 -0.032676473 -0.045250684 0.020025147
0001b0 c8 d4 c1 3c ec 8e 37 be 56 5a 23 be 1e ff c0 bd
       0.023661032 -0.17925614 -0.15952429 -0.0942366
0001c0 d4 16 5d be d0 93 fc bd a8 ff bc 3d 01 b1 35 3d
       -0.2159074 -0.123328805 0.0922845 0.044358257
0001d0 fa a7 de 3b 75 a4 fb bc 3b 6a bb bd 30 03 29 3e
       0.0067949267 -0.030718068 -0.09151121 0.16505122
0001e0 06 31 b7 3d 96 16 c7 bc 07 13 35 3b f6 fa e4 bd
       0.08944897 -0.024302762 0.002762975 -0.111806795
0001f0 68 79 5c bd 51 c4 e7 bc e8 f1 65 3d a3 dd 60 3e
       -0.05382672 -0.028291853 0.056138903 0.21959548
000200 26 c7 44 bc 16 ef 6a 3c ba a9 65 3d 72 4c aa 3d
       -0.012010371 0.014339229 0.056070067 0.08315362
000210 19 14 25 3e c0 77 40 bd dd 40 08 3e a7 e3 c2 3e
       0.16120948 -0.046989202 0.13305993 0.3806431
000220 81 88 c3 3d 96 40 af 3c f2 7a 69 bd 27 77 04 bc
       0.095475204 0.021393102 -0.057002015 -0.008085049
000230 da 59 90 3d 90 11 8f 3c 4f cc 5e 3d 2a c6 ca 3b
       0.07048388 0.01746443 0.054394063 0.006188174
000240 6c 81 0a 3d 3e 6a 85 bc cb 69 9d bd e7 1a e3 bd
       0.033814833 -0.016286012 -0.07686194 -0.110891156
000250 60 a3 5b 3c 9c 7a d7 bc 12 01 d2 bc 80 6e 89 3e
       0.013405651 -0.026303582 -0.025635276 0.26842117
000260 a2 04 97 3d 80 a3 eb 3c 87 a1 99 bd 64 04 0d 3e
       0.073739305 0.028764486 -0.07501512 0.13771206
000270 ed be 74 bc 55 8e da 3d a5 ea 48 be 3a 5b a9 3d
       -0.014938098 0.10671679 -0.1962076 0.08269353
000280 8f d2 0b be 9e a4 e7 bd 34 65 06 be d1 0c 8c 3d
       -0.1365454 -0.11310695 -0.13124543 0.06838382
000290 04 b2 c6 3b e8 15 a1 bd 9f a5 47 3d 54 8e 2d bd
       0.0060637016 -0.078655064 0.048741933 -0.042372063
0002a0 bd d7 75 be 9c b6 f8 bc 3a a6 cc bd 7e 3b 07 bd
       -0.24008079 -0.030360512 -0.09992643 -0.03301572
0002b0 4f f3 20 3c 60 ac b0 bd 7d a8 ca 3d 93 ba 02 bd
       0.009823634 -0.08626628 0.09895418 -0.031916212
0002c0 26 98 e1 3b 0f 15 49 3a 16 dc e2 3c 3b 29 13 bd
       0.0068845926 0.00076706795 0.027692836 -0.035927992
0002d0 3b a3 30 3d 2a 18 02 3e 28 22 f9 bd aa 0b cd bb
       0.04312442 0.1270453 -0.12164718 -0.006257494
0002e0 1a e7 33 3e a9 1e 42 3d ef 31 97 3b ed 75 c7 bd
       0.17568627 0.04739252 0.004614107 -0.097392894
0002f0 cd b3 09 bd b8 ce 70 3d c4 06 a2 3b 88 36 fd 3d
       -0.033618737 0.058790892 0.004944654 0.12363917
000300 65 bd ae 3e f4 94 2c bc 92 6a 77 3d e6 39 8e 3d
       0.34128872 -0.01053356 0.060404368 0.06944637
000310 5f 6e 42 3c 89 dd 79 bd f7 43 9a bc 8b f2 83 bd
       0.011867135 -0.061002288 -0.018831236 -0.06442746
000320 a1 a6 f4 3d 94 be 85 39 da c9 0a bd cd 09 aa 3d
       0.119458444 0.0002550973 -0.033883907 0.083026506
000330 19 66 04 3e c4 ce 89 bc 6c 06 39 3c ac b8 9f 3c
       0.12929572 -0.016822226 0.011293035 0.019497238
000340 b8 b3 93 be 90 8a af be 6b ab 0e bc 38 9f af 3d
       -0.28848052 -0.34285402 -0.008707861 0.085752904
000350 db 0d 85 bc 80 a0 46 3b 58 c8 30 bd 86 ba 84 bb
       -0.016241958 0.0030308068 -0.043159813 -0.0040505556
000360 44 23 a9 bc 4b 3f be 3b a6 78 a3 3d 72 c4 94 3d
       -0.020646699 0.005805885 0.07981996 0.072640315
000370 88 6d 0d 3d b4 a0 2b 3d b0 19 95 bd 08 30 d8 bc
       0.034528285 0.041901305 -0.0728029 -0.02639009
000380 42 06 d0 bd 6e 18 9a 3b eb 5e 0b 3c 5b d6 2a 3d
       -0.101574436 0.0047026193 0.008506517 0.04170833
000390 72 72 8d bd e4 98 f7 3c d9 af d6 3b c0 d1 64 3e
       -0.06906594 0.030224271 0.0065517244 0.22345638
0003a0 6d 7c 0f be 9f 11 64 be 6f da ae 3d 2b e5 89 bd
       -0.14012308 -0.22272347 0.08537757 -0.067331634
0003b0 81 42 18 3e 32 64 a4 3d a5 b0 ae 3d 1f 9d 12 3e
       0.14869119 0.08026923 0.08529786 0.1431775
0003c0 9f 4d 37 bd 73 63 72 bb 16 e4 2a 3e a6 dc d2 bc
       -0.04475176 -0.0036985546 0.1668857 -0.025739979
0003d0 1b d1 25 bc 3b 6f d3 bd 07 f2 4e bc 99 0c 95 be
       -0.010120655 -0.1032395 -0.012630946 -0.29111174
0003e0 0a 49 f3 3c f7 82 ef 3c ea fe 86 bc 96 26 8b 3d
       0.029697914 0.029237254 -0.016478974 0.06794469
0003f0 92 c3 29 3d fe 66 ec 3d ab e6 c9 bc 8e 67 77 be
       0.041446276 0.11543082 -0.024646124 -0.24160597

fc2.bias f4 [32]
000000 7c e8 24 3d 11 06 8b bb 01 b7 b5 bd 99 11 ca 3d
       0.040260777 -0.0042426665 -0.08872796 0.09866638
000010 e0 06 32 bd 5b c4 a4 3c 26 c1 6c 3d 51 c3 6f 39
       -0.043463588 0.02011316 0.05780139 0.00022865577
000020 ee a1 c7 3d 0e fb 7c bc df b0 11 3e fa 54 61 b9
       0.097476825 -0.0154407155 0.14227627 -0.00021489328
000030 e5 a5 b8 3d cd 1c ae 3d 58 09 21 3d a8 84 d5 bd
       0.09016017 0.08501587 0.03931555 -0.10425693
000040 d6 e6 04 3e 82 64 18 be ae 56 d8 3d fb aa 0d 3e
       0.12978682 -0.1488209 0.10563408 0.13834755
000050 ba aa 89 bd 2f f8 10 be 7f 01 2b 3c 59 99 c8 3d
       -0.06722017 -0.14157175 0.010437368 0.09794874
000060 e0 ff 04 3e 55 77 cd 3d 54 d8 21 3d 42 d5 a0 3d
       0.12988234 0.100325264 0.039512947 0.07853176
000070 c5 9a df 3d be 5e 03 be 15 e2 16 3c b7 ca 3b 3d
       0.10918192 -0.1282911 0.009209176 0.04584762

fc3.weight f4 [4, 32]
000000 da c7 82 be dc dd 08 bd d2 b7 89 bd 79 4b 2c bc
       -0.255431 -0.033414707 -0.06724514 -0.010516041
000010 c7 25 99 3e 67 0f 7d 3e 46 ce a8 3c 57 4a 95 be
       0.29911634 0.24712907 0.020606171 -0.2915828
000020 1d d2 4f bd dd cb 80 3d c9 99 49 3e 17 07 88 3e
       -0.05073749 0.06288884 0.1968757 0.2656791
000030 f8 15 62 3e 27 62 37 3d 92 76 b3 3d a8 e2 00 bd
       0.22078693 0.04477134 0.0876285 -0.031466156
000040 32 90 7c bd 6c b0 4e 3c 92 b6 58 be 3c f1 71 be
       -0.061660953 0.012615304 -0.21163395 -0.2362718
000050 1f ce e4 3d 8e 3f 56 be db 49 60 3d 3d d7 e8 3d
       0.11172127 -0.20922682 0.054757934 0.113691784
000060 fb 24 32 3d 35 d2 54 bd e7 d9 5b be 5e 0b 9f 3d
       0.0434923 -0.05195828 -0.21469842 0.0776584
000070 3e f0 b3 be 25 9b 51 be 4e e6 89 3e 18 3a 15 3e
       -0.35144228 -0.20469339 0.2693352 0.14572942
000080 f7 a6 f5 bd 74 ad c8 be 9f 34 eb bd 28 d0 54 3e
       -0.11994737 -0.39194834 -0.11484646 0.2078253
000090 91 6d 92 bd 32 84 83 be de bb 23 3e b1 07 cd 3c
       -0.071498044 -0.25686795 0.15989634 0.025028082
0000a0 ab 0a 81 3e 43 ea 90 3d 44 f8 41 be c2 43 b0 be
       0.25203452 0.07075932 -0.18942362 -0.34426695
0000b0 c7 b9 c3 3d 3c fd a4 be 1f 5e 7c be 33 0c 40 3d
       0.095569186 -0.32224452 -0.2464528 0.046886634
0000c0 b4 c8 3b 3e 14 8f a6 3d 70 52 5a 3e bd 06 5e 3e
       0.18338281 0.08132759 0.2132051 0.21682258
0000d0 0e b3 fb bd 3a e6 be bc 2e 21 b6 be 2a b8 b8 be
       -0.12290011 -0.02330314 -0.3557219 -0.36078006
0000e0 ca 44 1b bd 19 f6 50 3e b6 39 5f 3d 57 f1 54 3e
       -0.0379074 0.20406379 0.054498397 0.20795189
0000f0 cc 1c 97 bd d7 06 f8 bc d7 35 e6 3d ff c4 9c be
       -0.073785394 -0.030276699 0.11240738 -0.30619046
000100 3c 33 9c 3d 96 0f 87 3d 9a 18 05 bc 5c d5 81 3e
       0.0762696 0.0659477 -0.008123541 0.25358093
000110 b2 25 59 be 7c f7 08 3e 96 e9 8d 3e 06 61 d8 bd
       -0.21205786 0.13375658 0.27717274 -0.10565381
000120 a9 10 87 be 89 a8 5c bc 7c e2 35 be fb ec 84 3c
       -0.26379898 -0.013467916 -0.17762178 0.016226282
000130 2f e5 41 be 8f 40 f8 3d f4 0e 9f be e3 ad 1a be
       -0.18935083 0.121216886 -0.31066096 -0.15105395
000140 3e 06 aa be 43 14 e8 3c 5d 34 98 3d be 57 0e bd
       -0.33207887 0.028329974 0.074318625 -0.034751646
000150 d9 29 aa bd be 86 fa 3d 05 c3 e3 3d c0 c1 50 bd
       -0.08308763 0.12232731 0.111211814 -0.050966024
000160 1d b6 b4 be a1 30 eb 3c 6c c3 69 3e 57 9a 8b be
       -0.3529519 0.028709712 0.22828454 -0.2726619
000170 c8 61 ab 3d 80 43 ea 3c 4b 0b 8f be ca 3b 59 3e
       0.0836826 0.02859664 -0.27938303 0.21214214
000180 a6 b2 bc bd 46 c4 d4 3d 93 2f 08 bd 95 ee 90 be
       -0.09213762 0.10388999 -0.033248495 -0.28307024
000190 be 89 08 be 7d aa 41 be 16 73 c0 be ba 5f bb 3d
       -0.13333794 -0.18912692 -0.37587804 0.09149118
0001a0 ed 7a 69 be c1 de a4 3d b3 b4 7f 3e 71 e9 cc bd
       -0.22800799 0.080502994 0.24971275 -0.10005463
0001b0 63 a2 77 be d2 14 a4 3d 94 73 2e bc 0b ae ce bd
       -0.2418304 0.08011784 -0.010647673 -0.1009179
0001c0 64 fe 5e 3e f1 a3 11 3e 3c a5 25 3e 3d 3c cb 3b
       0.2177673 0.14222695 0.16176313 0.0062022493
0001d0 75 4e d9 3d 69 14 3b 3d 51 f6 7e bd dc 50 33 3e
       0.106106676 0.04567376 -0.062246624 0.17511314
0001e0 6d 45 17 3d 6e 0b f8 3d 91 d8 8f 3d 00 e2 c6 bd
       0.036931444 0.12111555 0.07023729 -0.09711075
0001f0 3e e2 40 3e 51 5a 22 3d 56 de 05 be 93 93 48 3e
       0.18836305 0.039636914 -0.13073096 0.19587545

fc3.bias f4 [4]
000000 27 4b 86 3d 06 e2 28 3e 53 a4 07 3e fe 99 30 3e
       0.06557303 0.16492471 0.13246278 0.17246243
