CNN/cnn.pt (torch_old, 304634 bytes, 12 tensors)

conv1.weight f4 [3, 1, 5, 5]
000000 44 21 3d be 80 2e 04 be 64 72 f7 bc 86 1e 95 be
       -0.18469721 -0.12908363 -0.030205913 -0.2912485
000010 ca d6 c9 bd e6 1f d0 bc a7 59 d3 bd 54 32 e1 3d
       -0.09855421 -0.025405835 -0.10319834 0.109959275
000020 91 41 b3 bd 0a 28 85 bd bc cd 30 be 30 4c 33 be
       -0.0875274 -0.065017775 -0.17265981 -0.17509532
000030 34 95 bd bd f9 09 58 be a4 e8 4d be a4 04 8e bd
       -0.09256974 -0.21097554 -0.20108277 -0.06934479
000040 4b f2 c5 bd f2 2d 7c bd 31 71 53 be e2 64 e7 bd
       -0.09665354 -0.061567254 -0.20648648 -0.11298539
000050 80 4b 5b 3b 2f cb d4 3a 88 41 5c be 75 fe 20 be
       0.003346175 0.001623487 -0.21509373 -0.15722068
000060 f4 1c 6a be 27 46 83 3e 02 84 90 bd 83 41 12 3e
       -0.22862607 0.2563946 -0.070564285 0.14282803
000070 ae 27 01 be a0 78 b1 bc e6 b4 aa 3e fc 85 15 bd
       -0.12612793 -0.021663964 0.3334114 -0.03650473
000080 44 f5 64 3e 22 10 96 be 25 f9 9e bc e2 ed 99 3d
       0.22359186 -0.29309183 -0.01940591 0.07516076
000090 7c 92 7b be 68 ea f9 bd 6b 0c 44 bc e6 60 d7 bd
       -0.24567598 -0.122029126 -0.011965851 -0.10516529
0000a0 58 ef 17 3e 45 cc ed bd 51 ef 7a 3d 68 f9 83 be
       0.14837396 -0.11611227 0.061263386 -0.2577622
0000b0 4a 47 b9 bc 24 4e 0e 3e ea a5 07 be b1 80 5b bb
       -0.022617001 0.13896996 -0.13246885 -0.0033493454
0000c0 56 03 24 be 7b 57 1f bd 80 bf 9c bc 19 b7 49 3d
       -0.16016898 -0.038901787 -0.019134283 0.04924688
0000d0 22 32 43 be 3b 88 73 3e 48 e5 98 3e 5f d3 29 3b
       -0.19062093 0.23782437 0.29862428 0.002591334
0000e0 64 73 e8 3d 90 aa 5a be b4 51 4c 3e 24 9c 59 3e
       0.11350134 -0.21354127 0.19953042 0.21250969
0000f0 47 68 4e 3c 0b e8 09 3d b2 1b 94 3d ce e1 2f 3e
       0.012598104 0.03366856 0.07231845 0.17175981
000100 cc 1a 23 3e 3a da 60 bd 0c 7b c7 3d c1 0e 8e be
       0.15928191 -0.054895617 0.09740266 -0.2774563
000110 da ad 04 3e b1 dc 25 3e ec 69 43 3d fd 42 bd 3d
       0.12956944 0.16197468 0.047708437 0.092412926
000120 71 d1 3d bd 71 06 f7 3d d7 f6 31 3e
       -0.046342317 0.120617755 0.17379318

conv1.bias f4 [3]
000000 4a ed 0f 3e cd c4 f4 3d 26 46 b0 3d
       0.14055362 0.11951599 0.0860713

conv2.weight f4 [3, 3, 3, 3]
000000 0d df 16 3e 54 52 9c bd 3e fc fc bc a8 11 b9 3d
       0.14733525 -0.0763289 -0.030881997 0.09036571
000010 24 53 41 3e 4b 7c df bb d2 97 49 3e 1b 3f 69 bd
       0.18879372 -0.006820237 0.19686821 -0.056944948
000020 8f 9c 57 bd 5e f5 ec bd 3d eb 06 be 8d 72 8b bd
       -0.05263954 -0.115702376 -0.13175674 -0.06808958
000030 44 e3 03 be 97 36 22 be 91 58 2a be b2 7e 06 bd
       -0.12879664 -0.15841137 -0.16635348 -0.03283567
000040 0a 80 2c be 77 dc b6 bc 88 1e 02 be 65 68 3d be
       -0.16845718 -0.022321923 -0.12706959 -0.18496855
000050 b8 b6 a8 3e 6a dd c2 bd c8 0f 92 3d a1 24 37 3e
       0.32951903 -0.09514888 0.07131916 0.17885067
000060 df e4 a0 bd b1 10 e3 bd 44 82 3d 3e 14 83 54 3e
       -0.07856154 -0.11087168 0.18506724 0.20753127
000070 39 6b a7 3d 40 a9 66 3e 00 66 65 3d a6 f7 82 3d
       0.08174748 0.22525501 0.056005478 0.063948914
000080 3d 49 01 bd 52 ef 1e 3e 6a 90 76 3e fd 6f 1b 3e
       -0.031563986 0.15520981 0.24078527 0.15179439
000090 01 f0 48 be d9 1f 76 3e 7a 07 15 be dd 4c af bd
       -0.19622804 0.24035586 -0.14553633 -0.085595824
0000a0 6b 2c 71 3c 5a 95 63 3c 8c 44 d4 bd de d8 94 3e
       0.014720063 0.013890589 -0.10364637 0.29071707
0000b0 4f db 4a 3d d8 f2 1c be bf 77 8d be 58 4f 16 3e
       0.049525555 -0.15327013 -0.27630422 0.14678705
0000c0 e0 90 04 be 04 7e 96 be ba c0 d5 3c 24 3f 66 3d
       -0.1294589 -0.29393017 0.026092876 0.05621256
0000d0 c7 07 16 be e4 01 d2 3d fb 81 be 3d 65 47 25 3e
       -0.14651404 0.10254267 0.093021356 0.16140516
0000e0 89 60 63 3d 26 d8 8d 3e c4 f3 84 be d4 a7 22 be
       0.055511985 0.2770397 -0.25967228 -0.15884334
0000f0 b6 36 73 bd 8c ff 01 be 5f e0 57 3d 95 3a 82 3e
       -0.05937835 -0.1269514 0.05270421 0.2543532
000100 cf 7a b2 bc 7e 90 e2 bd 53 fb 53 3e 72 bf 82 3e
       -0.021787075 -0.11062716 0.20701341 0.25536686
000110 62 7f 2a 3d 63 3b ba bb 7e 5e 2b 3e 44 e2 09 be
       0.041625388 -0.005683349 0.16735265 -0.1346522
000120 c2 a2 71 be 75 75 b7 be ee b9 96 3e f6 61 40 3d
       -0.23597243 -0.358318 0.29438728 0.046968423
000130 13 0f 60 be 6b 52 11 3d 1b 57 43 bb 11 7c 1a be
       -0.2188075 0.03547899 -0.0029806558 -0.1508639
000140 02 f9 32 3d
       0.043694504

conv2.bias f4 [3]
000000 bc 0b 48 3e be f6 98 3d 3a cd 90 3e
       0.19535726 0.07468937 0.28281575

conv3.weight f4 [3, 3, 3, 3]
000000 3c 15 9e 3d e7 fa 25 3d 21 7c 88 bd 0c 31 cd bd
       0.07718894 0.040522482 -0.06664301 -0.100191206
000010 50 75 3d be c4 cb 30 be 63 79 de bd d8 b4 cd bc
       -0.18501782 -0.1726523 -0.108629964 -0.025110647
000020 6d b7 89 bd db a6 15 be 51 7f 5b 3d 45 ef 5c be
       -0.06724439 -0.14614432 0.053588215 -0.21575649
000030 79 d0 8f bd 15 96 03 be 54 d3 0f 3e d1 10 ba 3d
       -0.07022185 -0.1285022 0.14045459 0.09085239
000040 72 df d9 bd 6d 14 06 be 44 87 98 bd e3 0c ec bd
       -0.10638322 -0.1309373 -0.07447675 -0.115258954
000050 5e 14 61 3d 4e 19 f6 bd b7 ee aa 3d 49 ec 8e bd
       0.054951064 -0.12016545 0.083463125 -0.069786616
000060 be 54 30 bd 31 e5 03 be d5 e5 35 3c 23 c1 dc 3e
       -0.043049566 -0.12880398 0.0111021595 0.43116102
000070 3c 44 8a bd 3e ad a3 3e 69 34 96 3d 09 50 18 bc
       -0.06751296 0.3196811 0.07334215 -0.009296426
000080 17 83 8b 3e 1e 9f 83 3e 01 4f 81 3a 8a f1 90 3e
       0.2724845 0.25707334 0.0009865464 0.2830928
000090 13 2a 44 3e aa e7 52 bd a4 36 a1 bb 00 75 74 bd
       0.19156675 -0.051490463 -0.0049198437 -0.059681892
0000a0 d8 c9 2b bd 46 40 fb bd 2d 57 dd 3d 7a 74 36 be
       -0.04194054 -0.122681186 0.10807643 -0.1781787
0000b0 c7 89 cc 3d 7b 91 54 3e f4 83 b4 be dd 44 01 3d
       0.099872164 0.20758621 -0.35256922 0.031559814
0000c0 85 48 ba bd 7c 51 1a 3d 2b e9 c3 bd 77 d5 95 3d
       -0.09095863 0.037675366 -0.09565958 0.07316106
0000d0 1d 62 c4 bd bb cc b9 3d a8 08 e8 3a e5 3f b1 3d
       -0.09589026 0.09072252 0.0017702775 0.08654765
0000e0 53 cd e2 3b 95 76 c5 bc f8 c2 56 bd 36 72 67 bc
       0.006921449 -0.024104396 -0.05243203 -0.014126351
0000f0 82 cb b3 3b 5d c0 13 be 3a a7 83 3d 37 d3 14 3e
       0.0054869065 -0.1442885 0.0642838 0.14533697
000100 99 71 b2 be 67 2d b6 be 29 ac bd 3c 16 d6 3a bd
       -0.34852293 -0.35581514 0.023153381 -0.045614325
000110 aa 7e b1 3b fb 9e 59 3e a9 e9 88 be 56 56 a3 be
       0.005416711 0.21252052 -0.2674077 -0.31901807
000120 46 a0 d1 3e 2c 32 6b 3d e2 26 8e bd d2 70 c2 3d
       0.4094259 0.057420895 -0.0694101 0.09494175
000130 b8 a8 51 3d e0 fa ad 3c c2 ea 40 3e ba ad 4f 3e
       0.051186293 0.02123779 0.18839553 0.20281115
000140 07 17 a0 bd
       -0.07816892

conv3.bias f4 [3]
000000 94 15 35 3d ea 8e dd bd cf 55 8a 3d
       0.04421003 -0.10818274 0.06754648

fc1.weight f4 [135, 525]
000000 81 8c 8d ba fe e8 78 bc 07 e3 9f bc f7 ee 05 3d
       -0.001079932 -0.015192268 -0.019517435 0.032698598
000010 ae 85 80 3c 1e e7 0c 3d 2f 83 af 3c d8 d4 1e 3d
       0.015688743 0.034400098 0.021424858 0.038777202
000020 b0 a7 3b bc 6d b0 bb 3c ac a4 2f 3c 96 2a 10 bd
       -0.011453554 0.022911275 0.010720413 -0.035196863
000030 98 b4 a8 3c 06 b4 09 3d 9c 82 f4 3c 98 f2 ae bc
       0.020593926 0.03361895 0.029847436 -0.021355912
000040 fc 8b 58 bc 93 d3 1b bd f9 34 ee bc 19 f9 6e bc
       -0.013216969 -0.03804357 -0.029077994 -0.014585757
000050 0e 47 5d bc 26 b9 3e 3c e7 c1 b5 bc 18 cd 48 3d
       -0.01350571 0.0116408225 -0.022187186 0.049023718
000060 1b ba 9b 3c 64 92 6e 3c 63 76 1d 3c 31 03 f5 bc
       0.01900964 0.014561269 0.009610745 -0.029908748
000070 26 ef d0 bc 84 88 06 3d b1 4c 23 3c 98 4c fd 3b
       -0.02550466 0.032845035 0.009967015 0.007730078
000080 dd 12 0c bd 12 ec 1c bd 0e 13 2a 3c 5d 8c 66 bb
       -0.034197677 -0.03831107 0.01038052 -0.0035178878
000090 9d 55 53 3c 85 d9 85 bc 38 e7 1e bc 5e 65 c6 bc
       0.01289883 -0.016339073 -0.0096986815 -0.024218258
0000a0 77 87 35 bd e7 89 b1 3c f8 e7 c6 3c 44 d0 2f bc
       -0.044318642 0.021672202 0.024280533 -0.010730807
0000b0 ac d7 02 bd 4e fd 00 3d 39 84 b4 3c 50 1f c3 bb
       -0.031943962 0.03149157 0.022035705 -0.0059546605
0000c0 3f 74 02 3d 7c 7d 57 3c 5b c0 ce bb 68 43 cd bc
       0.031849142 0.013152476 -0.0063095517 -0.025056556
0000d0 c4 b1 1f bc ac c5 19 3c 00 83 73 bb 42 dc 2c 3d
       -0.0097469725 0.009385508 -0.003715694 0.04220224
0000e0 44 74 91 bc 84 34 9a 3c e2 a7 2c bc 72 65 fa 3c
       -0.017755635 0.01882387 -0.010538073 0.030565951
0000f0 b3 a6 d0 bc d0 a1 1c 3d 0c 24 44 3c 93 e7 15 bd
       -0.025470113 0.038240254 0.011971485 -0.0365978
000100 70 9a f2 3c c2 3c 29 3c fc 31 08 3d 9e 1b 76 3c
       0.029614657 0.010329427 0.033250794 0.015021233
000110 f0 3d 22 3d fc db 7e 3d 97 f2 19 bd 9c 7b d6 3c
       0.03960985 0.062221512 -0.037584867 0.026181988
000120 f6 9b 0b 3d f4 08 91 3c 02 d2 09 3d c0 69 3a 3c
       0.034084283 0.017704464 0.033647545 0.011377752
000130 5f 51 27 3d 54 b5 ac 3c 40 ea 99 3b 6a 3a 9f bc
       0.040849086 0.021082558 0.004697114 -0.019437034
000140 65 cc 2f 3d 6a d5 29 3d f6 cb 05 3c e8 c0 1c 3c
       0.042919535 0.041463293 0.008166304 0.009567477
000150 1a 7d 91 bc e1 25 65 3c fd ce b8 bc e0 6d b0 3c
       -0.017759848 0.013986082 -0.022559637 0.021536767
000160 3d a2 00 3d 41 f6 17 bd 35 b9 a7 bc d5 31 34 3c
       0.031404722 -0.03710008 -0.020474056 0.010998209
000170 e0 64 45 3c 97 b6 db bc 22 4a 86 bc d7 f6 bc 3c
       0.012047976 -0.026820464 -0.016392771 0.023066921
000180 c8 8a 46 3c 9a 64 97 3c d6 4c 67 bc 74 3e 18 bc
       0.012118049 0.018480588 -0.01411744 -0.009292234
000190 a7 2e d5 3c 00 17 04 bc 2c a9 c3 3c b4 77 5a 3c
       0.026023222 -0.008062124 0.023884378 0.0133342035
0001a0 4f ce 9f bb 41 7c df 3c 9a 54 03 3d 53 7c 90 3c
       -0.004876889 0.027280929 0.032063104 0.017637407
0001b0 78 96 38 bc bc 8b d0 3c d4 d1 35 bc 7c 78 20 3d
       -0.011266343 0.025457256 -0.01109739 0.039177403
0001c0 20 d8 bd 3c e4 e7 17 bc dc 6e 20 bd 7f 78 db bc
       0.023174345 -0.009271596 -0.039168224 -0.026790855
0001d0 78 b5 92 3c ad be 16 bb 07 28 09 3c 01 20 1c 3d
       0.017908797 -0.0023001835 0.00837136 0.03811646
0001e0 fa 3b 39 3d 1b 70 7a 3c 38 46 4a 3c 1b d2 11 3c
       0.045223214 0.015285517 0.012345843 0.008900191
0001f0 91 c6 94 bc b5 63 01 bd fb b4 05 3d 56 9f f0 3c
       -0.01816109 -0.03158923 0.0326433 0.029372852
000200 44 f2 2c bd d5 31 27 bd 3c 3b 28 bd b0 da 44 3b
       -0.04222323 -0.040819008 -0.041072115 0.0030037574
000210 86 46 fb ba 40 f3 0a ba 86 d2 10 3d f3 f4 8c 3c
       -0.0019170798 -0.00053005293 0.03535702 0.017206645
000220 80 95 d1 3b 98 7a 06 3d 54 e5 01 3d 72 72 3a bd
       0.0063959956 0.03283176 0.031712845 -0.0455193
000230 e8 ca b0 bb 8a d9 56 bc 60 94 0d bd 90 87 c7 bc
       -0.005395282 -0.013113389 -0.03456533 -0.024356633
000240 2e 16 c9 bc b9 e2 14 bd ee c9 1b bd f9 e9 ca bc
       -0.024546709 -0.036349032 -0.038034372 -0.02476977
000250 f0 c6 d8 bc 97 0c 0c bd a6 fe 15 3d 48 32 81 3b
       -0.026462048 -0.034191694 0.036619805 0.0039427616
000260 01 a0 95 bc 0e 29 1b bd 8c 40 af 3b da 35 05 bd
       -0.018264772 -0.03788095 0.0053482708 -0.03252206
000270 35 06 b3 bc b5 c6 5e 3c d0 a2 18 bb 26 47 14 3d
       -0.021853546 0.01359718 -0.0023290403 0.036200665
000280 fc b3 e3 3c 77 4a 82 bc 79 48 16 bd a0 7a 17 bc
       0.027795784 -0.015904648 -0.03669021 -0.009245545
000290 6f a9 22 3d 6c 3c 34 bc 08 35 f8 bb 40 d0 27 3d
       0.039712366 -0.011000734 -0.007574681 0.040970087
0002a0 01 5a 12 bd c4 60 08 3d 7f c4 0d bd 23 1a 02 3d
       -0.035730366 0.033295408 -0.03461122 0.031763207
0002b0 e5 c6 84 bb 98 3a 24 3d 66 79 c6 bb 64 ea 11 3c
       -0.0040520304 0.04009494 -0.0060569523 0.008905981
0002c0 c6 d3 3c bc 4c 23 2c 3d f6 31 ed 3d 18 38 7f 3d
       -0.0115251 0.04202585 0.11581795 0.062309355
0002d0 c3 84 e2 bd fc e6 cc bd e1 53 99 bd 82 dc 3c 3d
       -0.110604785 -0.10004994 -0.07486702 0.04610873
0002e0 6f 49 54 bb 99 e7 8b 3d f0 26 81 bd b4 58 51 3c
       -0.0032392403 0.06831283 -0.06306255 0.012777496
0002f0 0f 4c 23 3c 62 ad 26 3c 9a 98 ab 3c 59 1a b1 3d
       0.009966864 0.010173174 0.02094679 0.086476035
000300 52 4a 41 bd 62 2e a5 3d f0 1e 43 bd 4d 29 cf 3b
       -0.047190018 0.080654874 -0.047636926 0.006322062
000310 66 f0 a0 bd c7 e9 d3 bc 65 4f 06 3d 4b 13 d4 3d
       -0.07858352 -0.02586831 0.03279056 0.10355242
000320 01 8e e2 3d 1a 4e 6f bd 69 97 2f bc 20 a6 89 3d
       0.11062241 -0.058424093 -0.010717251 0.06721139
000330 88 e0 17 bd 3c db 00 bc 49 20 93 ba 7a 44 bc 3b
       -0.037079364 -0.00786477 -0.0011224832 0.0057454677
000340 bd 0d e8 bd ac c8 50 bd 29 eb 34 3d 91 cd f7 bb
       -0.11330745 -0.050972626 0.04416958 -0.007562347
000350 9d 89 87 bd a5 90 32 3d e3 c6 87 bc ec ee 5a bd
       -0.066180445 0.043594975 -0.016574329 -0.05345051
000360 07 74 3f bd 4e 69 63 bd 37 9a 05 3d 6a 8b ae bc
       -0.04674151 -0.05552035 0.032617774 -0.021306712
000370 62 c0 a5 3c 29 48 21 3c 3a f6 9c bc ad c3 27 bd
       0.020233337 0.0098438645 -0.019160379 -0.040958095
000380 da 28 e7 3c 09 1d 6b 3d 1c 8c 4c 3c 23 8d bf bd
       0.028217722 0.057400737 0.012484577 -0.093530916
000390 cf df b3 3d f4 97 bb bb 58 9e 7a bc f1 69 b4 bc
       0.087829225 -0.0057249013 -0.015296541 -0.022023173
0003a0 bd 8a 07 3b 57 10 7b 3d 89 6f 0a 3d 79 d2 b0 3c
       0.002068206 0.06129488 0.033797774 0.021584736
0003b0 c5 ba 26 bc e7 4d 42 3c 28 30 ba 3d 3d b5 90 bd
       -0.010176365 0.011859394 0.09091216 -0.070658185
0003c0 ce b3 65 bd 1f 89 27 3d e6 cd 5e bd c8 1c 8c bc
       -0.05607968 0.040902253 -0.05439558 -0.017103568
0003d0 34 98 05 3d ff 1e 3a 3d ab 08 36 bc 0f 59 60 bd
       0.032615855 0.045439716 -0.011110465 -0.054772433
0003e0 0e d1 ac 3d ca 74 8f ba ac 90 e5 bd eb 9d 3d bd
       0.084383115 -0.001094484 -0.112092346 -0.04629318
0003f0 5b a7 23 bd e3 7d a4 3c 0a 73 14 3d 9e c4 27 3d
       -0.039954524 0.020079559 0.036242522 0.040958993

fc1.bias f4 [135]
000000 76 78 b8 3c 93 00 27 bd 1c d3 11 bd 22 ad d6 3c
       0.022518378 -0.040772032 -0.03560172 0.026205603
000010 7d 36 1a bd 1d 35 3b bb e1 1b 2f 3b df 0b 6f 3c
       -0.03764962 -0.0028565594 0.0026719498 0.014590233
000020 d4 37 bd bc 93 ea 63 3c 0e ff f4 3c 17 25 0e bd
       -0.02309791 0.013910907 0.029906776 -0.03470334
000030 c1 d8 ec bb 09 78 3f 3b 90 b6 0c bd 8c 5f 7d bb
       -0.0072279875 0.0029215834 -0.034353793 -0.0038661687
000040 7f 42 8f 3d af 34 a3 bb 11 e4 9c 3c 6d 16 8e 3c
       0.06995105 -0.0049806456 0.01915172 0.017344678
000050 d9 e6 38 bb da cc 3d bd ff 7d be 3b 0f 13 c2 3c
       -0.0028213768 -0.04633794 0.0058133597 0.023690728
000060 3c 4c 26 bd 59 ad 99 39 75 42 a0 bb 41 3e ba bc
       -0.040600047 0.00029311588 -0.004890735 -0.022734763
000070 a9 40 41 bd 91 23 40 bc 74 f2 8a bc 7a d1 27 bd
       -0.047180805 -0.01172723 -0.016961314 -0.040971257
000080 7a 9d 71 bd 00 43 0d bd fd ff ba bc cf 18 0b bd
       -0.058988072 -0.034487724 -0.022827143 -0.033959206
000090 e7 f8 f1 bc 8e 0a a8 39 02 ee 2f bd e4 04 71 3c
       -0.029537631 0.0003205132 -0.04295159 0.014710639
0000a0 66 50 8e 3c 89 6b 7c bc 5f f7 0c bd df 89 a3 3c
       0.017372321 -0.015406498 -0.0344156 0.019963203
0000b0 61 44 c2 bc 04 c3 38 bd b6 f3 1c bd 25 4f b1 3b
       -0.023714246 -0.045107856 -0.03831836 0.005411046
0000c0 e7 69 82 3c ce 06 94 3c 25 38 2d 3b f1 e3 2e 3c
       0.015919639 0.018069651 0.002643117 0.010674463
0000d0 e1 f0 33 bd ff 4b c0 3c f4 73 43 bd c2 9e 9d 3b
       -0.043930892 0.023473738 -0.047718003 0.004810185
0000e0 81 49 2d 3c da bb a0 3c b8 c0 fa bc fa 92 75 bc
       0.010576607 0.019620825 -0.030609474 -0.014988655
0000f0 c1 34 f7 bb 6c 20 e8 3b 66 e1 6d 3d 62 30 19 bd
       -0.0075441306 0.007083943 0.058076285 -0.037399657
000100 ab 24 dd bc fa 79 d4 bc ef 7b ac bc b7 5f 32 bc
       -0.026995024 -0.02593707 -0.02105519 -0.010887078
000110 ef 1e d3 bc a7 21 15 bd ed a0 0d 3d d6 2f 9d ba
       -0.025771586 -0.036409047 0.0345773 -0.0011992406
000120 a8 fd 1e bd dd 9f ea 3c 20 d9 73 bd 6a 61 5a bd
       -0.038816124 0.028640682 -0.05953324 -0.053315558
000130 02 34 f2 bc 0e 30 03 3d 70 8e 23 3c a3 3d e0 bb
       -0.029565815 0.03202825 0.00998269 -0.006843285
000140 ff 70 dd 3c ee 3c 18 bd 39 1c ad bb 14 cd 0f 3c
       0.02703142 -0.037167482 -0.0052829054 0.008776922
000150 d5 85 de bb 9c fb f4 bb 5f e9 6b bb 4b 39 ac 3a
       -0.0067908564 -0.0074762832 -0.0035997254 0.0013139633
000160 6b 7c 2a bc be 59 5e bd 65 71 61 39 5c 61 8d bc
       -0.01040564 -0.054284804 0.00021499915 -0.017258339
000170 65 97 01 bd de 1e fb 3c 16 cc 83 3c 39 cc c4 b7
       -0.03163852 0.030654367 0.016088527 -2.346012e-05
000180 f3 d7 24 bc 6f 0a 48 3c f1 b6 70 bd 83 e4 e8 bb
       -0.010061252 0.012209519 -0.058768217 -0.007107319
000190 d8 31 2b bd 52 b6 ad 3c 12 5f 8e 3c dc 62 d4 3c
       -0.04179558 0.021205101 0.017379317 0.025926046
0001a0 26 2b 08 bd f3 07 7d bb 9d e3 3c bc 02 8e 01 3c
       -0.033244275 -0.0038609474 -0.011528877 0.007907392
0001b0 d0 91 91 3c 4c 1d 35 bc b4 5e 86 3c 7a 04 bf 3b
       0.017769724 -0.011054348 0.01640258 0.005829391
0001c0 a3 e0 88 bd 6b 1d 99 bc 26 16 4f 3d 08 12 aa bc
       -0.06683471 -0.018690785 0.05055823 -0.020760551
0001d0 43 b6 9c 3b 86 04 42 bd ca c7 6e 3c 7a ea 17 bd
       0.0047824695 -0.047367595 0.014574001 -0.03708885
0001e0 27 97 31 bd bc d8 7f 3c 79 34 0d bd 5d ac 50 3c
       -0.04335704 0.015615638 -0.03447387 0.012736407
0001f0 a1 4c 03 bd d5 29 a4 bc af e9 66 bc 4c 03 4d bd
       -0.0320555 -0.020039478 -0.0140938 -0.050051972
000200 b8 a1 2a 3b 64 07 a1 b8 bd 47 67 bd 06 92 2d bd
       0.0026036333 -7.678455e-05 -0.0564649 -0.042375587
000210 43 f1 82 3b fd 51 fa 3c e1 3e 3e 3b
       0.003996046 0.030556673 0.0029029178

fc2.weight f4 [32, 135]
000000 4c c4 b1 3d be 3c 8d bd cc c0 a6 bd 1b 69 aa 3d
       0.08680019 -0.06896351 -0.08142242 0.083208285
000010 d7 67 36 be a8 77 67 bc f0 c9 10 be 70 7e 62 bd
       -0.1781305 -0.014127649 -0.14139533 -0.05529636
000020 80 30 e5 3b 00 03 47 bb 7d be 82 3d ed 72 af 3d
       0.006994307 -0.0030366778 0.06383989 0.08566842
000030 52 64 d5 bc bc 48 bd bd ec 38 e8 bc 04 6d 01 3d
       -0.026048813 -0.092423886 -0.028347455 0.031598106
000040 88 ea 46 bd 8f ab 9b bd fe 47 30 be 20 0d 0c 3c
       -0.04856351 -0.076010816 -0.17214963 0.008548051
000050 df 3a a2 3d 24 a6 98 bd 36 b4 68 be 00 17 82 39
       0.07921385 -0.07453564 -0.22724995 0.0002481267
000060 18 19 fb 3c 68 8a 02 3d 80 63 ff 3a 43 64 84 3e
       0.030651614 0.031870276 0.0019484609 0.25857744
000070 a8 50 61 bc 53 5d 8b 3d 98 73 6d 3c d5 c2 a0 3d
       -0.01375214 0.068049096 0.014492892 0.07849661
000080 c8 17 86 3d d6 15 dd bd 00 3b ee ba 2b c7 98 3d
       0.06547505 -0.107951805 -0.0018175542 0.07459863
000090 50 84 f3 3b f8 7b 81 bc 6c 84 ab bd 6e 14 50 3d
       0.0074315444 -0.015806183 -0.08374867 0.050800733
0000a0 7c 3f 36 bd 8e 36 33 bd 45 02 3d 3c 38 88 06 3c
       -0.044494137 -0.0437532 0.011536186 0.008211188
0000b0 8b 56 4c be 32 0c b1 bd fa 9f 9a bd c8 6d 7f 3c
       -0.19954889 -0.08644904 -0.07550044 0.015590139
0000c0 c8 f7 bb bc 94 29 90 3e ef 68 33 be 51 fa 83 bd
       -0.0229453 0.28156722 -0.17520498 -0.064442284
0000d0 7e 4c 33 bd 00 da 6d 3b 2c 4d 00 3d 70 23 21 3c
       -0.04377412 0.0036293268 0.031323597 0.009835109
0000e0 3f 4d e5 3d d7 32 8b 3d dc 8b 52 bd 49 d9 8d 3d
       0.11196374 0.06796806 -0.05140291 0.069262095
0000f0 c1 e5 8f 3e 34 2d 17 3d 32 48 9f bb cd 59 ae bd
       0.28104976 0.036908343 -0.0048609013 -0.08513222
000100 e5 ae 88 3e db 00 ab 3d 80 50 11 3d ef b9 dd 3c
       0.26695934 0.083497725 0.03547716 0.0270662
000110 9f e5 56 bd 30 e4 db 3b 77 7c 9c 3d 76 d7 3b 3d
       -0.052465077 0.0067105517 0.07640927 0.045859776
000120 43 a8 89 3d 13 4c 7d 3d b4 8b da bd 2b f4 91 bd
       0.067215465 0.06184013 -0.106711775 -0.071266495
000130 e5 32 11 bd aa d6 a6 bd 04 f5 cb bd b6 7f 41 3d
       -0.035448927 -0.08146413 -0.099588424 0.047240935
000140 17 e6 25 3e e6 da c5 bc df 55 90 bd 8a 8d 69 3d
       0.16201054 -0.02415223 -0.070476286 0.057019748
000150 e7 dd 96 bc 1b 34 8f be 7e 78 3f 3d d0 0a 26 bc
       -0.018416358 -0.2796944 0.04674577 -0.010134414
000160 b8 eb 9a bc 1c ed 8a 3c 28 5c 0b 3d 67 20 c4 bd
       -0.018911228 0.016958766 0.034023434 -0.09576493
000170 0c 24 9c bd 97 b7 e6 3d da 69 29 bd 6c 1a b9 3c
       -0.07624063 0.11265486 -0.041360714 0.022595607
000180 57 db 69 3d 73 54 1d 3c 11 67 b4 3d 88 9b 24 bc
       0.057093944 0.009602654 0.08808721 -0.010046847
000190 8b b2 05 bd e4 d6 34 bd f4 01 80 bc 35 30 a9 bd
       -0.032640975 -0.04415025 -0.015625931 -0.08261148
0001a0 ca b7 a2 bd 16 87 2b be bc e8 8b 3c 70 d4 51 bc
       -0.07945211 -0.1675075 0.01707875 -0.012806997
0001b0 bc 19 0d 3e 34 cb 69 bd 53 e4 28 be af bd 9c 3d
       0.13779348 -0.057078555 -0.16493349 0.07653367
0001c0 ca 75 4a be 35 96 df 3d 80 eb a7 3d a8 72 8c 3e
       -0.19771495 0.109173216 0.08199215 0.27431226
0001d0 42 e4 a9 bd d6 37 0b 3d df 4e 31 bd 5a 77 f2 bd
       -0.0829549 0.033988796 -0.043288108 -0.11839171
0001e0 91 11 21 bd 86 f5 1f be 40 04 dd bb d7 1c 88 bd
       -0.039323393 -0.15621004 -0.0067448914 -0.06646126
0001f0 be de 2e 3d c0 1c 9e 3c 77 ed 51 bd 81 bd 20 bc
       0.042692892 0.019300818 -0.051251855 -0.009810806
000200 3c f9 bb bd 65 58 af 3d 69 d8 3e bd 61 2e 9e 3d
       -0.09178397 0.08561782 -0.046593104 0.0772369
000210 02 4b 0d be ee 44 21 3d 2e c3 3e bd fd b3 a1 bc
       -0.13798144 0.039372377 -0.046572857 -0.019739145
000220 96 3e 1a 3d eb 74 29 3d 69 19 4f bc 95 cb ca 3d
       0.037657343 0.041371267 -0.012640336 0.099021114
000230 16 4e 96 bc c6 8b df 3d db dd 2b 3d 4e 50 31 3d
       -0.018347781 0.109153315 0.041959625 0.043289475
000240 00 6d 19 3d 0c 19 6c bd b3 7e 8b bd 11 4c 90 bc
       0.037457466 -0.057641074 -0.06811275 -0.017614396
000250 ac 4b 73 3d 11 23 27 3d c2 92 97 3d 19 a9 45 bc
       0.05939834 0.040804926 0.07401039 -0.012064242
000260 72 f9 1c bc 60 bd 5a bd b5 f0 96 bb 6a db a5 3c
       -0.009580957 -0.05340326 -0.0046063312 0.020246226
000270 df 05 58 bd 70 f3 5e 3e e9 9b 12 3d 80 8d 62 3b
       -0.052739974 0.21772552 0.03579322 0.0034569204
000280 1e 3b 6e bd 35 1b af bc d4 a4 26 be d4 be b9 3d
       -0.058161847 -0.021375278 -0.16273814 0.09069601
000290 b3 54 37 3c 56 c1 9f bb cb 74 6b 3d ab bb 4f bc
       0.011189627 -0.0048753424 0.05748443 -0.012679021
0002a0 a3 09 4d 3d 8b 0a 3f bd d5 5a e0 bb 66 86 83 3d
       0.05005802 -0.046640914 -0.0068467655 0.06422119
0002b0 26 58 d4 3d 43 e4 59 bd 17 8a aa bd 8d 57 40 bd
       0.103683755 -0.053196203 -0.0832712 -0.046958495
0002c0 b1 08 9c 3d 95 22 dd 3a 7c 36 86 3d 6a fa 23 3e
       0.07618845 0.0016871268 0.06553361 0.16013494
0002d0 f1 7e 7b 3c 74 94 a1 bd 3d f9 1c bb 81 fa 83 bd
       0.015350089 -0.07889643 -0.0023952269 -0.06444264
0002e0 75 0d 91 bd 5c 53 f7 3d bd a2 e0 bb 63 75 0b 3d
       -0.07082645 0.120764464 -0.0068553374 0.034047496
0002f0 b5 78 2c bd 5a 0a fa 3c 92 bb b4 bc 5d f9 59 3d
       -0.042107303 0.030522514 -0.022062097 0.053216327
000300 bf c0 7d 3d c5 ba 8c bd 02 23 43 bd 79 c4 5f be
       0.061951395 -0.06871561 -0.047640808 -0.21852292
000310 6a 44 2d bd 3f ba 44 bd 10 e3 47 3c e2 7c fc bd
       -0.042301573 -0.04802918 0.012200132 -0.12328507
000320 88 f5 1b 3d 6e 11 a0 3d 88 c4 85 3d 81 9f 52 3c
       0.038075954 0.078158244 0.06531626 0.0128554115
000330 d5 64 04 bd 63 5f ab 3d 65 43 28 3d d3 f3 69 3c
       -0.032322723 0.08367803 0.041079897 0.014279324
000340 51 6d 97 3d 56 d9 af 3d 02 b7 2e 3d af 2a 2f 3c
       0.07393897 0.085863754 0.042655 0.010691329
000350 aa 64 69 bd 84 96 5a bc 21 9f 87 bd bc 58 99 bd
       -0.056980766 -0.01334155 -0.06622148 -0.07487628
000360 db 8d 46 bb 31 02 2b 3c fa f7 36 bc 2b 54 84 bd
       -0.0030296955 0.010437534 -0.011167521 -0.06461366
000370 9a 7f 3f 3e 77 05 ec bb d1 b4 b6 3d 7b 2d 6e 3d
       0.1870102 -0.0072028 0.08921207 0.058148842
000380 f7 db 46 3c c1 7c 82 3d 12 fe 24 bd 18 6d 93 bd
       0.012137405 0.06371451 -0.040281363 -0.07198542
000390 a8 54 5d bd b7 3b dd bc 5b 57 22 3d ff d4 8a bd
       -0.054035813 -0.027006013 0.03963409 -0.06778907
0003a0 c0 4a d9 3d 2f 21 b6 3d da 55 64 bc 15 0e d2 bc
       0.106099606 0.08893048 -0.013936484 -0.02564148
0003b0 03 fe a6 3d 52 21 6c bb 41 d8 cf 3a 9e d0 b8 3d
       0.08153918 -0.0036030603 0.0015857295 0.090241656
0003c0 f0 c4 30 bd e6 6c 55 bd 48 d7 22 bc 8d cf 91 3c
       -0.043156564 -0.052105807 -0.009939022 0.017799163
0003d0 7b ac 15 3d 76 07 11 3e 40 00 18 bc a9 ba e8 3d
       0.036541443 0.14163002 -0.009277403 0.113637276
0003e0 0b 0a 13 3d c2 44 2e bd 93 d3 23 be eb a0 8c bd
       0.03589825 -0.04254604 -0.15998678 -0.0686663
0003f0 40 60 a0 3b e1 93 4c 3d 87 43 be 3d 64 05 4a 3d
       0.0048942864 0.049945716 0.092902236 0.049321547

fc2.bias f4 [32]
000000 af 75 20 bc 90 df 96 3d 9e 9e 36 3b 4d 55 2e bd
       -0.009793683 0.0736686 0.002786554 -0.042561818
000010 36 e4 a6 3d 1e 3a aa bd b5 46 90 bc cd e6 8a 3d
       0.081489965 -0.08311866 -0.01761184 0.06782303
000020 f3 0e e3 bd 99 95 99 bd 3f f2 9c bd 3d 47 82 bd
       -0.11086836 -0.074992366 -0.07663392 -0.06361244
000030 a8 62 89 3d 2b cf 54 3d 5a cd a2 3c a9 d2 2c 3d
       0.0670827 0.051955383 0.01987331 0.04219309
000040 d7 99 80 bd 3b df 14 3e 64 89 f3 bc 90 12 01 3e
       -0.062793426 0.1453828 -0.029728599 0.12604737
000050 db d8 01 bd f8 ca 12 3c 82 da 98 bd 94 a6 62 bd
       -0.03170095 0.008959524 -0.07463552 -0.055334643
000060 2d 8f 6a 3d a9 d1 0f 3d f1 94 d5 bc bd ed a6 bd
       0.05726545 0.035112057 -0.026071997 -0.08150814
000070 75 90 b6 bd 0e bb d2 bb ab 2f a9 bc cd 99 27 3d
       -0.08914272 -0.00643099 -0.020652613 0.04091816

fc3.weight f4 [2, 32]
000000 4a 0c d6 be fa 91 2e 3e 28 9e a5 3d c5 45 02 3d
       -0.4180625 0.17047873 0.080868065 0.03180482
000010 a3 c4 4f be 00 6b bf ba 23 b9 42 3e 7d db 4c 3e
       -0.20289855 -0.0014604032 0.19015937 0.20005603
000020 5d 2b fb 3d d0 09 7a 3d 5e 89 4a 3e d2 f5 c1 bd
       0.1226413 0.061044514 0.19778964 -0.09470715
000030 89 9b 14 bc 76 37 00 3e 66 34 b1 bc 80 d2 18 be
       -0.009070286 0.12521157 -0.02163143 -0.1492405
000040 73 dd 66 3e b1 5d 1d be bc 3d 56 3e 28 8c 1b bd
       0.22545414 -0.15367772 0.20921987 -0.03797546
000050 0e f9 73 3d c8 cc ce 3c 48 dd c5 3b 77 72 ce 3c
       0.05956369 0.025244132 0.0060383417 0.025201065
000060 4e aa 1e 3e 3b aa 06 be 01 13 56 bc a8 4a 50 3e
       0.15494654 -0.13150875 -0.013066054 0.20340979
000070 e3 ef 13 3e d5 e3 d1 bd 2c 54 44 bd bb 5a a5 3d
       0.14446978 -0.10248534 -0.047931835 0.08073946
000080 0a ae a7 3e f9 88 28 be 34 b8 2c be 56 a6 28 3e
       0.3274997 -0.16458501 -0.16867143 0.16469702
000090 1b e7 2e 3e b0 e7 ea bd 44 d2 e4 bd bb ba 4d bd
       0.17080347 -0.11469972 -0.111729175 -0.05022691
0000a0 08 17 f7 bc 3a 02 60 be d3 7f 58 be b8 fe b2 bd
       -0.03016235 -0.2187585 -0.21142511 -0.0873999
0000b0 2c 04 53 be 66 19 46 be 0a e4 56 3e 61 99 bb 3d
       -0.2060706 -0.19345626 0.20985427 0.09160114
0000c0 d9 55 1a bd 6b 59 d6 3d ea 49 62 be 4e 7e 8f 3e
       -0.037679527 0.10466274 -0.22098508 0.2802605
0000d0 25 90 fa bd 42 66 de 3d 36 3d 59 3c a0 35 45 3d
       -0.12234525 0.10859348 0.013259223 0.048146844
0000e0 18 db 46 be ce f1 76 3d 7c f6 70 bc 1c c6 4d ba
       -0.19419515 0.060289197 -0.014707204 -0.000784965
0000f0 4d 76 e4 3d c6 a9 94 bd 95 92 48 bd c8 09 13 be
       0.111553766 -0.07258944 -0.048967917 -0.143592

fc3.bias f4 [2]
000000 ec b9 1c 3c ec 37 6f 3e
       0.009565812 0.23361176
