CNN/cnn.pt (torch_old, 304634 bytes, 12 tensors)

conv1.weight f4 [3, 1, 5, 5]
-0.09171572 -0.31574887 -0.26509893 -0.04782065 -0.16466345 0.024618417 0.034777705 -0.3462608
0.12991774 0.02261134 -0.07489985 -0.3404802 0.0028989762 0.09127209 -0.009086513 -0.07751243
-0.13597925 -0.32856992 -0.05342779 -0.23854667 -0.053796522 -0.10175951 -0.27786043 -0.0054935464
-0.22286619 0.39147237 0.3016827 0.14472163 0.1771912 0.11753952 0.27321196 0.3332687
0.11348069 0.36383224 -0.061297584 0.41090927 0.26943523 -0.02368411 0.1716895 -0.023105215
0.1674866 0.30757955 0.081673235 0.33063713 0.097468525 0.42335233 0.039006535 -0.035091873
0.19632478 -0.056231417 0.05480955 -0.1960418 -0.28296718 -0.051236115 -0.13439542 -0.11967562
-0.24566483 -0.24795517 -0.17896654 -0.24296662 -0.29015812 0.03085793 0.072157316 -0.14923239
0.11663808 -0.005540956 0.13531193 -0.037788022 -0.0103224255 -0.17866908 -0.24548611 -0.004550876
-0.021723026 -0.04303318 0.02717389
00000000: 74d5 bbbd d6a9 a1be 0cbb 87be 96df 43bd
00000010: 899d 28be 90ac c93c 1173 0e3d 1849 b1be
00000020: 2809 053e 6b3b b93c 1865 99bd 6c53 aebe
00000030: c0fc 3d3b ddec ba3d 99df 14bc d6be 9ebd
00000040: 253e 0bbe 513a a8be 19d7 5abd 9445 74be
00000050: be59 5cbd 4a67 d0bd b943 8ebe 3503 b4bb
00000060: 0937 64be 116f c83e 2876 9a3e e831 143e
00000070: 9c71 353e 8fb8 f03d 70e2 8b3e 32a2 aa3e
00000080: 9068 e83d 3848 ba3e 2d13 7bbd b362 d23e
00000090: 6af3 893e 2e05 c2bc 5fcf 2f3e 2647 bdbc
000000a0: 9b81 2b3e 117b 9d3e 4c44 a73d 4549 a93e
000000b0: 949d c73d a3c1 d83e 51c5 1f3d 7fbc 0fbd
000000c0: 5d09 493e ea52 66bd fb7f 603d 2ebf 48be
000000d0: 13e1 90be f6dc 51bd f49e 09be 7e18 f5bd
000000e0: 908f 7bbe f6e7 7dbe 0143 37be 3ecc 78be
000000f0: 9b8f 94be c5c9 fc3c 37c7 933d 60d0 18be
00000100: f2df ee3d e890 b5bb 368f 0a3e 9dc7 1abd
00000110: 641f 29bc 07f5 36be b660 7bbe 841f 95bb
00000120: 7df4 b1bc 8f43 30bd c79b de3c

conv1.bias f4 [3]
0.21716952 0.13837592 0.07996714
00000000: b061 5e3e 6bb2 0d3e d0c5 a33d

conv2.weight f4 [3, 3, 3, 3]
-0.059732385 0.1568536 0.4333548 -0.08159029 0.050768193 0.25105792 -0.010671669 0.079195306
0.1927302 -0.30831566 -0.07184323 -0.19395828 0.042191453 0.11053695 0.047372222 -0.12767404
0.027822215 -0.09121682 0.12494528 0.32802668 0.1486248 0.06226997 0.0061032604 0.13919392
0.0783308 0.09643214 -0.03164001 -0.06188992 -0.17463353 0.25016132 0.09918306 -0.086385906
0.11009898 0.31986663 -0.013586074 0.1823914 -0.15742557 0.06932525 -0.20975593 -0.16235088
0.13112652 0.06468191 -0.0874987 -0.18774286 -0.15725967 0.15992518 0.14818089 0.22603682
0.2765984 -0.061483145 0.13049154 0.24936341 0.124735415 0.14669313 -0.084458835 -0.14901403
0.0870172 -0.1840387 -0.122685656 -0.18711425 0.09311787 -0.15567946 -0.18012044 0.029755116
-0.077927455 0.062047523 -0.041781444 -0.08659457 -0.060206156 0.039570533 -0.028400782 -0.108012445
0.08376588 0.013553587 -0.1460833 0.11359662 0.024414144 0.068059884 -0.17489405 -0.02884088
-0.14813381
00000000: f2a9 74bd 3b9e 203e aee0 dd3e cf18 a7bd
00000010: 4ff2 4f3d aa8a 803e 39d8 2ebc 2631 a23d
00000020: 115b 453e 8ddb 9dbe 8b22 93bd 009d 46be
00000030: f2d0 2c3d 3261 e23d 6009 423d fcbc 02be
00000040: 6aeb e33c e2cf babd 50e3 ff3d 1df3 a73e
00000050: 1931 183e cc0e 7f3d dcfd c73b da88 0e3e
00000060: e66b a03d 377e c53d f598 01bd 4980 7dbd
00000070: 22d3 32be 2515 803e 7d20 cb3d 18eb b0bd
00000080: 937b e13d 8fc5 a33e 2098 5ebc d0c4 3a3e
00000090: 2b34 21be 66fa 8d3d 42ca 56be 4f3f 26be
000000a0: 0846 063e f377 843d 8532 b3bd aa3f 40be
000000b0: ae08 21be 6dc3 233e bbbc 173e 3276 673e
000000c0: 4e9e 8d3e c0d5 7bbd 939f 053e 1f59 7f3e
000000d0: 4875 ff3d b936 163e c1f8 acbd 2297 18be
000000e0: 1336 b23d a474 3cbe 9e42 fbbd e19a 3fbe
000000f0: 95b4 be3d 706a 1fbe 7e71 38be 00c1 f33c
00000100: 6e98 9fbd 8b25 7e3d 0523 2bbd 7e58 b1bd
00000110: bb9a 76bd b614 223d c2a8 e8bc a135 ddbd
00000120: 728d ab3d dd0f 5e3c dc96 15be 58a5 e83d
00000130: 2c00 c83c fb62 8b3d 6d17 33be b643 ecbc
00000140: 64b0 17be

conv2.bias f4 [3]
0.017432924 -0.0048074983 -0.09130975
00000000: 7ecf 8e3c 3888 9dbb 9b00 bbbd

conv3.weight f4 [3, 3, 3, 3]
-0.21452998 0.2720564 0.13843513 -0.00027554034 0.22561796 -0.12113504 -0.1313805 0.1339324
-0.1459583 -0.15535165 0.18119775 -0.1799091 -0.22506092 0.1335224 -0.06738966 -0.117862254
0.29038662 0.12123591 0.15230128 0.1273975 -0.16827452 0.01901574 -0.012249537 -0.090335876
-0.14029105 0.1595045 -0.16582151 0.1550764 0.14825137 -0.5094373 -0.120781735 0.10498782
0.021433061 -0.0012044607 0.01026804 -0.14575575 0.12252932 -0.093256705 -0.23333876 0.21913362
-0.0118123 0.05936343 0.02789668 0.07866321 -0.22992909 -0.078459136 -0.051247016 -0.068507895
0.060912047 -0.056275144 0.033964574 -0.08348541 0.17796236 -0.023936922 0.43715754 -0.13331407
0.031235501 0.064335935 -0.1806243 -0.008232798 0.19576588 -0.20059903 -0.07270909 0.11540199
-0.071478724 -0.062372006 -0.036241774 -0.094694234 0.06306698 0.23151502 0.10190169 0.009835363
0.064126834 -0.030378228 0.14551918 -0.057624206 -0.093713395 -0.008390946 -0.07504277 -0.13066258
-0.104872234
00000000: bfad 5bbe fa4a 8b3e f0c1 0d3e 6676 90b9
00000010: 6508 673e a615 f8bd 9c88 06be 9325 093e
00000020: 1876 15be 8114 1fbe e78b 393e 173a 38be
00000030: 5f76 66be 19ba 083e 9703 8abd c461 f1bd
00000040: 8ead 943e 884a f83d def4 1b3e 7e74 023e
00000050: 2850 2cbe e6c6 9b3c 48b2 48bc 0402 b9bd
00000060: 75a8 0fbe 2655 233e 1dcd 29be 59cc 1e3e
00000070: 35cf 173e 7c6a 02bf 6a5c f7bd db03 d73d
00000080: 6394 af3c ffde 9dba 483b 283c ff40 15be
00000090: a7f0 fa3d 5ffd bebd 5bf0 6ebe 9064 603e
000000a0: 6188 41bc 1127 733d 9487 e43c 2d1a a13d
000000b0: 8872 6bbe 2faf a0bd 64e8 51bd de4d 8cbd
000000c0: e97e 793d c480 66bd 701e 0b3d 66fa aabd
000000d0: c43b 363e 5d17 c4bc 1dd3 df3e 7c83 08be
000000e0: 98e1 ff3c 8fc2 833d 94f5 38be dce2 06bc
000000f0: da76 483e d569 4dbe 81e8 94bd e157 ec3d
00000100: 7063 92bd ca79 7fbd 4172 14bd 0def c1bd
00000110: 4329 813d 4612 6d3e d5b1 d03d 8124 213c
00000120: ee54 833d c3db f8bc fb02 153e 5c07 6cbd
00000130: cfec bfbd 2e7a 09bc 06b0 99bd 69cc 05be
00000140: 41c7 d6bd

conv3.bias f4 [3]
-0.06262357 0.29576606 -0.14777613
00000000: c940 80bd a66e 973e a052 17be

fc1.weight f4 [135, 525]
-0.046108898 0.015400105 0.015410336 0.0046294634 0.031430773 -0.030066362 0.0013878387 -0.03679373
-0.027177066 0.004450079 0.024556508 -0.0055586393 -0.031061642 -0.046397794 -0.0007837135 0.035837688
-0.007547581 0.0019882289 0.029385697 -0.016440876 0.03087932 -0.021469206 0.016072296 -0.04885041
-0.0009627979 0.029482089 -0.033237375 0.033855285 0.010157718 -0.029824683 0.012798677 0.03628273
-0.007966654 -0.029858466 0.03815729 -0.019627307 -0.027680166 -0.040598776 0.018662041 0.025972556
-0.039832782 -0.04270256 0.035662357 -0.036973223 -0.018553916 -0.015701968 -0.01975175 -0.024303803
0.011149634 -0.038430873 0.0036170557 0.023995206 -0.016814131 -0.010969643 0.034979403 -0.00887651
-0.04706305 -0.022527032 -0.017783606 0.0020295298 -0.04826612 0.0025439998 -0.014505779 0.013016622
-0.04254278 0.032000866 -0.031829696 -0.044684336 0.018112056 0.024617564 -0.011350181 -0.017848745
0.026543919 -0.015166123 -0.028606651 -0.0056233727 -0.01936382 -0.033927657 0.021708855 0.0028055205
3.6311565e-05 -0.03557677 -0.042001758 0.016684586 0.030969126 -0.022004396 -0.035931434 0.028423795
-0.024269748 -0.03554405 -0.021562176 0.02723999 0.020202234 -0.029327394 -0.02928169 -0.049626
0.020732753 0.031859703 -0.024918094 -0.022002239 -0.008345465 -0.039084096 -0.025849914 0.03855839
0.037043713 -0.032228675 0.017882142 0.016625678 0.0063889744 0.015276598 0.026730096 -0.0039608194
-0.040771455 0.025696222 0.018362679 -0.047328785 -0.0043773544 -0.0036807614 -0.011071874 0.0020388444
0.00438978 -0.04966109 -0.004698939 -0.04221678 -0.021971177 -0.04482286 -0.021611799 0.009189291
0.028848475 -0.020926379 0.018660046 0.034049693 0.024028098 -0.022806438 -0.042868014 0.02397743
-0.04758679 0.0098916115 -0.00018434222 0.010555767 0.019813146 -0.014343114 0.0249327 -0.032100856
-0.043583132 0.026578944 -0.03606543 0.02034537 0.0018064546 0.0030438963 -0.010123622 -0.04040467
-0.0497046 -0.049334962 -0.0141344555 -0.0040496225 -0.040538155 -0.020795312 -0.032927644 0.0009946002
-0.023866504 0.00033568265 0.03861243 0.031338874 0.03136749 0.009812313 -0.04580977 0.027421493
-0.0074675 0.03266085 0.0313708 -0.024139209 0.03524452 0.014817568 0.018453252 0.044336
-0.036943525 -0.009537249 0.0044550295 -0.0041664233 -0.027506452 -0.009444678 0.01636699 0.038686614
0.0237372 0.009393226 0.0022928305 -0.039975308 -0.0015166748 -0.02040573 0.009663235 0.031746123
0.029570876 -0.019503104 0.0094465185 -0.020698518 0.021607297 -0.020809758 -0.030717876 -0.0062349434
-0.039839923 0.005978272 -0.015951633 0.022852011 -0.008114783 -0.021932893 -0.039054282 0.0025860642
-0.03153352 -0.01408435 -0.005910998 -0.021117356 -0.011611134 -0.0005599194 -0.003135527 0.0001719318
0.006316283 -0.048449233 -0.02425023 0.028747473 -0.018548315 0.0081566805 0.02527679 -0.028660284
-0.023189474 -0.0023805245 -0.024939423 0.026742201 0.026926955 0.007229014 0.033802744 -0.047669347
0.03225448 -0.0013313501 0.018912667 -0.029781202 -0.03933056 -0.030965935 0.0074371044 -0.03628758
0.014571653 0.03272422 0.024324095 0.0059173903 0.032873243 -0.010332787 0.017367953 -0.0056572524
-0.027821254 0.030243697 -0.016389899 0.004941318 -0.00090752443 -0.029480144 -0.017845113 -0.0068115173
00000000: afdc 3cbd b950 7c3c a27b 7c3c c1b2 973b
00000010: 8ebd 003d bb4d f6bc 24e8 b53a 06b5 16bd
00000020: 70a2 debc f8d1 913b bb2a c93c 3f25 b6bb
00000030: fc74 febc 9d0b 3ebd 1f72 4dba 8aca 123d
00000040: b351 f7bb f24c 023b 46ba f03c 04af 86bc
00000050: a1f6 fc3c 30e0 afbc 0caa 833c 5e17 48bd
00000060: 4664 7cba 6c84 f13c ea23 08bd d7ab 0a3d
00000070: 8f6c 263c e552 f4bc 8bb1 513c 339d 143d
00000080: 9286 02bc be99 f4bc d24a 1c3d 72c9 a0bc
00000090: 84c1 e2bc e74a 26bd 23e1 983c 66c4 d43c
000000a0: b327 23bd e1e8 2ebd b112 123d 3c71 17bd
000000b0: 62fe 97bc 6aa1 80bc 6cce a1bc c518 c7bc
000000c0: f4ac 363c b169 1dbd 200c 6d3b 9891 c43c
000000d0: cabd 89bc 04ba 33bc 9046 0f3d c86e 11bc
000000e0: 2fc5 40bd 9c8a b8bc edae 91bc dc01 053b
000000f0: b2b2 45bd 3cb9 263b a6a9 6dbc ab43 553c
00000100: 5741 2ebd 5713 033d db5f 02bd ec06 37bd
00000110: bc5f 943c c6aa c93c 1cf6 39bc 8837 92bc
00000120: a272 d93c 557b 78bc 7f58 eabc 4544 b8bb
00000130: e0a0 9ebc baf7 0abd c5d6 b13c d3dc 373b
00000140: 3f4d 1838 f2b8 11bd 090a 2cbd 1dae 883c
00000150: f7b2 fd3c 9042 b4bc d72c 13bd 05d9 e83c
00000160: 5ad1 c6bc a396 11bd 29a3 b0bc 6626 df3c
00000170: 287f a53c 0140 f0bc 28e0 efbc a244 4bbd
00000180: bcd7 a93c 527f 023d 0821 ccbc 0a3e b4bc
00000190: 6bbb 08bc a516 20bd 33c3 d3bc 67ef 1d3d
000001a0: 26bb 173d 3702 04bd 927d 923c 9332 883c
000001b0: 9a5a d13b b24a 7a3c 13f9 da3c c3c9 81bb
000001c0: f8ff 26bd e280 d23c 546d 963c d4db 41bd
000001d0: e96f 8fbb ee38 71bb ce66 35bc 229e 053b
000001e0: 25d8 8f3b 6d69 4bbd 8ff9 99bb 81eb 2cbd
000001f0: e6fc b3bc 2d98 37bd 3a0b b1bc ae8e 163c
00000200: a353 ec3c cc6d abbc f4dc 983c b177 0b3d
00000210: 93d6 c43c 91d4 babc 5f96 2fbd 516c c43c
00000220: 5eea 42bd 6d10 223c fd4b 41b9 19f2 2c3c
00000230: 2e4f a23c 61ff 6abc a93f cc3c 307c 03bd
00000240: 3a84 32bd 16bc d93c 58b9 13bd 55ab a63c
00000250: 8fc6 ec3a 1b7c 473b 8cdd 25bc 5e7f 25bd
00000260: 0d97 4bbd 7513 4abd 3494 67bc b2b2 84bb
00000270: 560b 26bd ee5a aabc 23df 06bd 3f5d 823a
00000280: b083 c3bc 90fe af39 1128 1e3d 315d 003d
00000290: 327b 003d d3c3 203c 06a3 3bbd 0aa3 e03c
000002a0: eeb1 f4bb 62c7 053d ab7e 003d 97bf c5bc
000002b0: 8f5c 103d 62c5 723c 462b 973c aa99 353d
000002c0: 1852 17bd 1f42 1cbc 7ffb 913b 7e86 88bb
000002d0: 3655 e1bc dabd 1abc 1114 863c db75 1e3d
000002e0: 8474 c23c 0ce6 193c 5043 163b 26bd 23bd
000002f0: 29cb c6ba eb29 a7bc 8c52 1e3c 3908 023d
00000300: 9f3e f23c f9c4 9fbc 92c5 1a3c f08f a9bc
00000310: c901 b13c 3a79 aabc 0ea4 fbbc 7f4e ccbb
00000320: 302f 23bd 61e5 c33b 00ad 82bc 2434 bb3c
00000330: def3 04bc 9cac b3bc 62f7 1fbd f57a 293b
00000340: 4b29 01bd 0cc2 66bc 0cb1 c1bb 4efe acbc
00000350: a03c 3ebc 8ec7 12ba 6a7d 4dbb 9748 3439
00000360: d2f8 ce3b b472 46bd 6ba8 c6bc d27f eb3c
00000370: a3f2 97bc 99a3 053c 4511 cf3c f9c8 eabc
00000380: daf7 bdbc 9302 1cbb c34d ccbc 7612 db3c
00000390: eb95 dc3c 5de1 ec3b bf74 0a3d ef40 43bd
000003a0: 461d 043d b280 aeba bdee 9a3c b5f7 f3bc
000003b0: 1519 21bd 46ac fdbc f4b2 f33b 49a2 14bd
000003c0: f1bd 6e3c d509 063d 5343 c73c abe6 c13b
000003d0: 18a6 063d da4a 29bc 3d47 8e3c 7960 b9bb
000003e0: 66e9 e3bc a1c1 f73c 1c44 86bc c8ea a13b
000003f0: efe6 6dba 5880 f1bc ea2f 92bc 2633 dfbb

fc1.bias f4 [135]
-0.028540023 -0.03443472 -0.029040223 -0.020020913 -0.056544572 0.04715335 0.0768563 0.033927143
0.021170003 -0.037479796 0.008971694 0.0027265914 0.003292202 -0.012636434 0.0005360433 -0.06251333
0.010824301 -0.016401006 0.025669573 -0.053438053 0.03008694 -0.013382506 -0.034320015 -0.050071027
0.01898456 0.01694765 -0.015643666 -0.051799513 -0.05646837 -0.03671433 -0.027612073 0.03183383
-0.0009145526 0.0064530666 -0.034276143 0.08476625 0.032567743 -0.039506268 0.051246155 -0.026254313
-0.046617214 0.0021476331 -0.013699526 -0.005129501 -0.040146634 -0.026025165 0.024213769 -0.0034366632
-0.028442461 0.025486551 0.005598568 0.017298205 0.0035165742 -0.015005325 0.05319312 -0.04662774
-0.038441636 -0.0094180675 0.008327609 -0.015681742 -0.02634614 -0.045642093 -0.0014597219 0.02768717
0.009825144 0.06476291 -0.051715966 0.012934967 -0.015332193 -0.019964036 -0.056815073 -0.026663465
-0.06595042 -0.01018439 -0.010070868 0.01955788 0.009621697 0.015038961 -0.0185051 -0.0396923
-0.005952599 -0.020042889 0.00059627224 -0.069648914 -0.0576492 0.028679147 -0.034983385 -0.071929514
-0.03007793 -0.049420208 0.023587972 0.034243405 0.0018265704 0.031340685 0.037187543 -0.030503277
0.078771986 0.01331621 0.0032073718 -0.00022184647 -0.055475388 -0.036054704 0.013109809 0.09244382
0.037005648 -0.036024857 0.030039644 -0.025910255 0.0041260277 0.037102364 -0.011052184 -0.044853304
-0.027307162 -0.022801785 0.02503736 -0.039865553 0.062480975 -0.014415931 0.0022788164 -0.06663017
-0.0008618535 0.08952806 -0.04220763 -0.04962533 0.009021047 2.5358311e-05 -0.04205435 -0.087407
0.0058573927 0.025460439 -0.048259813 -0.01378835 -0.06132984 -0.05273719 -0.052337423
00000000: c4cc e9bc 6c0b 0dbd c3e5 edbc e602 a4bc
00000010: 489b 67bd df23 413d d666 9d3d 30f7 0a3d
00000020: b76c ad3c 6a84 19bd 03fe 123c 9db0 323b
00000030: fcc1 573b 0c09 4fbc 4285 0c3a fd06 80bd
00000040: 6958 313c 675b 86bc ff48 d23c dce1 5abd
00000050: e378 f63c 4c42 5bbc 2593 0cbd 4717 4dbd
00000060: 8285 9b3c ccd5 8a3c 2527 80bc ba2b 54bd
00000070: 614b 67bd c461 16bd b732 e2bc 3164 023d
00000080: 96be 6fba 3f74 d33b 2465 0cbd ed99 ad3d
00000090: c165 053d 53d1 21bd 7de7 513d 4913 d7bc
000000a0: b1f1 3ebd 4ebf 0c3b fa73 60bc 6015 a8bb
000000b0: cc70 24bd ba32 d5bc f45b c63c a439 61bb
000000c0: 2a00 e9bc 2cc9 d03c 3174 b73b f7b4 8d3c
000000d0: 5376 663b e5d8 75bc 07e1 593d bbfc 3ebd
000000e0: fa74 1dbd 3d4e 1abc 8670 083c ff76 80bc
000000f0: dcd3 d7bc 34f3 3abd 2454 bfba 34d0 e23c
00000100: a4f9 203c 6ba2 843d 1fd4 53bd 2fed 533c
00000110: e133 7bbc 9e8b a3bc ecb6 68bd 576d dabc
00000120: 0411 87bd 6ddc 26bc 4800 25bc d937 a03c
00000130: 52a4 1d3c f965 763c 0298 97bc 6594 22bd
00000140: 050e c3bb fc30 a4bc 274f 1c3a 17a4 8ebd
00000150: 9121 6cbd 88f0 ea3c bd4a 0fbd c84f 93bd
00000160: fe65 f6bc d86c 4abd 903b c13c d042 0c3d
00000170: 8869 ef3a 175f 003d f751 183d 02e2 f9bc
00000180: 3553 a13d 3c2c 5a3c c532 523b 759f 68b9
00000190: 293a 63bd 19ae 13bd 86ca 563c 2f53 bd3d
000001a0: 3c93 173d cd8e 13bd b315 f63c be41 d4bc
000001b0: a133 873b a6f8 173d 3814 35bc 19b8 37bd
000001c0: 45b3 dfbc cfca babc 261b cd3c 104a 23bd
000001d0: 0dec 7f3d cc30 6cbc 3258 153b 6675 88bd
000001e0: 02ee 61ba 7d5a b73d e8e1 2cbd ee43 4bbd
000001f0: 03cd 133c 8fb8 d437 2f41 2cbd 7102 b3bd
00000200: 5fef bf3b 6992 d03c 15ac 45bd 88e8 61bc
00000210: 0035 7bbd f402 58bd c45f 56bd

fc2.weight f4 [32, 135]
-0.02632541 0.068228565 0.060975637 0.0031822638 -0.027039513 0.03279782 0.024833912 0.09491022
0.077468 -0.065167084 0.05397115 0.06008387 0.09411737 0.16227691 0.07744962 -0.034708317
-0.06573608 -0.006165323 -0.017212385 0.026042843 0.04323998 0.07956445 -0.06350734 -0.117520496
0.121307485 -0.047985222 -0.08683018 0.015171348 -0.0545631 0.019000618 -0.04600735 -0.03702396
-0.052993353 0.046758153 0.013530418 0.068421096 0.06981985 -0.027108205 0.12957929 0.013061868
-0.016598728 -0.12386571 0.030692322 -0.04952367 -0.11566909 -0.21342868 0.061255433 0.06408305
-0.079310015 -0.032083243 -0.08810475 0.1034775 0.05924053 0.03062358 0.104034625 -0.04512641
0.0313499 -0.12691158 -0.08060884 -0.042206783 -0.04900187 0.051728874 0.024763072 -0.050389502
-0.03887913 0.1378112 -0.075021386 -0.036380157 -0.03474362 -0.10776971 -0.07516289 -0.18841802
-0.024133086 -0.035540268 -0.011454082 0.053194575 0.15268715 -0.03577522 0.0188091 -0.04432348
-0.042982027 -0.08542344 -0.23217906 -0.112480156 0.070654854 -0.085381635 0.056273624 -0.12699486
-0.039448168 0.06613091 0.010418944 -0.08166962 0.049728077 0.04937487 -0.060516767 0.062176093
0.09943815 0.06685903 0.036940653 -0.05992126 0.04505083 0.046227477 0.058049288 0.11989469
0.017231755 0.09293842 0.040266253 0.008578928 -0.054262817 0.044909023 0.067596085 -0.09412223
0.06982715 0.06976377 0.00881881 -0.12964697 0.096286826 -0.012890123 0.11307699 -0.22582933
-0.13418421 0.10199153 -0.030261558 -0.045230962 -0.044577736 -0.056531757 -0.039755818 -0.25541297
-0.043412115 -0.008931927 0.0728758 -0.12834956 -0.14808103 0.05856311 0.015831543 0.02205567
-0.076372586 0.07713531 0.039837852 -0.065559834 0.00063257664 -0.055157144 -0.028054789 -0.06064858
0.0035286918 -0.067096874 -0.07817046 -0.08354939 0.06110525 -0.12662975 0.07194077 0.05077385
-0.007913753 0.07369291 -0.069008574 -0.08464398 0.009972341 0.030179506 -0.015481686 -0.037902232
0.04365383 0.12913801 0.08565099 -0.019522436 -0.082145214 0.028163053 0.06242054 -0.049357835
-0.0022801012 -0.073023066 0.03384295 0.05162299 0.046703734 -0.027863605 -0.025712978 0.01511537
-0.04960637 -0.033903323 -0.040820546 0.019857626 -0.011633668 0.03347241 0.074559174 -0.114886776
-0.086238146 -0.05330218 -0.2109181 -0.045494672 -0.008512139 -0.08254914 0.018946737 0.05179564
-0.04646266 -0.039015505 -0.095279686 0.025256127 0.0612979 -0.022608945 -0.02010736 -0.044043206
-0.11414559 0.072930284 -0.020738512 -0.055595703 0.06249396 0.045470286 -0.05100608 0.025374265
-0.07349372 -0.03569054 0.029847667 0.05491792 0.023409106 -0.0055261552 -0.00058912486 0.021463992
-0.07010865 -0.105822876 0.04792466 -0.042312484 -0.08159092 -0.003427761 0.051701695 -0.05507454
-0.044689003 0.0018532276 0.046488207 -0.035124335 0.044743627 0.024600744 -0.07389469 0.114954084
-0.014586136 -0.16921914 -0.07360591 -0.004042186 -0.021347962 -0.046844356 -0.041844796 -0.03921949
0.010292314 -0.085765414 0.0027592198 0.025144693 0.037573006 0.07219436 -0.028273812 0.034644045
0.02526221 0.022881247 0.11976477 -0.06224821 0.061351247 -0.10285004 -0.03152124 0.07366596
00000000: 63a8 d7bc 6bbb 8b3d 97c1 793d 878d 503b
00000010: f881 ddbc 0257 063d 7d70 cb3c 4a60 c23d
00000020: 8ba7 9e3d 5276 85bd da10 5d3d 811a 763d
00000030: 9cc0 c03d eb2b 263e e89d 9e3d 4f2a 0ebd
00000040: a3a0 86bd 7a06 cabb fd00 8dbc cd57 d53c
00000050: 681c 313d b0f2 a23d 2310 82bd 96ae f0bd
00000060: 0f70 f83d 278c 44bd 05d4 b1bd 3f91 783c
00000070: 8f7d 5fbd 2fa7 9b3c 3472 3cbd 70a6 17bd
00000080: 8f0f 59bd 7a85 3f3d b0ae 5d3c 5c20 8c3d
00000090: b6fd 8e3d 0712 debc 6fb0 043e 7201 563c
000000a0: 0efa 87bc 4ead fdbd 776e fb3c 55d9 4abd
000000b0: eae3 ecbd 0c8d 5abe fae6 7a3d f93d 833d
000000c0: 4a6d a2bd b869 03bd 4370 b4bd 03ec d33d
000000d0: 33a6 723d 4dde fa3c 1b10 d53d 78d6 38bd
000000e0: c168 003d 1cf5 01be 3f16 a5bd 05e1 2cbd
000000f0: 2fb6 48bd a8e1 533d eddb ca3c 3965 4ebd
00000100: b93f 1fbd 611e 0d3e d0a4 99bd 5c03 15bd
00000110: 534f 0ebd 5eb6 dcbd 00ef 99bd a7f0 40be
00000120: c0b2 c5bc ac92 11bd e7a9 3bbc 8ee2 593d
00000130: 055a 1c3e 0989 12bd 8b15 9a3c 8a8c 35bd
00000140: ec0d 30bd 7cf2 aebd 59c0 6dbe ff5b e6bd
00000150: 7eb3 903d 91dc aebd 2c7f 663d f10a 02be
00000160: 6794 21bd a46f 873d 38b4 2a3c 6742 a7bd
00000170: abaf 4b3d 4e3d 4a3d 6ee0 77bd 5cac 7e3d
00000180: 3ba6 cb3d 63ed 883d 154f 173d ff6f 75bd
00000190: 3887 383d 0659 3d3d 17c5 6d3d 598b f53d
000001a0: 9c29 8d3c 8056 be3d 3aee 243d a28e 0c3c
000001b0: b042 5ebd 86f2 373d d16f 8a3d 28c3 c0bd
000001c0: 8901 8f3d 4fe0 8e3d c57c 103c 2dc2 04be
000001d0: 0732 c53d 1831 53bc e994 e73d ce3f 67be
000001e0: 9667 09be efe0 d03d 16e7 f7bc 1a44 39bd
000001f0: 2597 36bd d88d 67bd ffd6 22bd 7dc5 82be
00000200: e7d0 31bd 3857 12bc e83f 953d 116e 03be
00000210: 8ea2 17be dfdf 6f3d 27b1 813c 18ae b43c
00000220: 3b69 9cbd 1ef9 9d3d 042d 233d 3c44 86bd
00000230: 80d3 253a 75ec 61bd 28d3 e5bc a56a 78bd
00000240: a041 673b 166a 89bd d617 a0bd f11b abbd
00000250: 8049 7a3d 3bab 01be af55 933d 3ef8 4f3d
00000260: b0a8 01bc 4fec 963d 5e54 8dbd d359 adbd
00000270: 0863 233c 033b f73c e6a6 7dbc 5f3f 1bbd
00000280: 5cce 323d c13c 043e c969 af3d 84ed 9fbc
00000290: c03b a8bd 34b6 e63c aeac 7f3d 712b 4abd
000002a0: c06d 15bb 1e8d 95bd e89e 0a3d a172 533d
000002b0: 6a4c 3f3d 3742 e4bc 06a4 d2bc 75a6 773c
000002c0: 0d30 4bbd 36de 0abd 7233 27bd 76ac a23c
000002d0: 249b 3ebc 5e1a 093d 7bb2 983d c249 ebbd
000002e0: a09d b0bd 6353 5abd eafa 57be 9f58 3abd
000002f0: 8076 0bbc 860f a9bd 3036 9b3c aa27 543d
00000300: a14f 3ebd b9ce 1fbd ff21 c3bd f0e5 ce3c
00000310: 8213 7b3d 6536 b9bc 31b8 a4bc a666 34bd
00000320: 2ac5 e9bd 795c 953d d0e3 a9bc 52b8 63bd
00000330: abf9 7f3d 0d3f 3a3d c0eb 50bd b1dd cf3c
00000340: e083 96bd 3e30 12bd 1883 f43c 9df1 603d
00000350: 74c4 bf3c c014 b5bb 806f 1aba 41d5 af3c
00000360: 2095 8fbd aab9 d8bd a64c 443d db4f 2dbd
00000370: 2419 a7bd 49a4 60bb 28c5 533d d795 61bd
00000380: d10b 37bd 00e8 f23a 6b6a 3e3d 89de 0fbd
00000390: 1845 373d 8087 c93c 1956 97bd 0c6d eb3d
000003a0: b0fa 6ebc c847 2dbe b2be 96bd 5074 84bb
000003b0: ece1 aebc dedf 3fbd 7365 2bbd 9ea4 20bd
000003c0: 18a1 283c c7a5 afbd 07d4 343b 3efc cd3c
000003d0: 27e6 193d a3da 933d 7b9e e7bc eae6 0d3d
000003e0: b2f2 ce3c 7471 bb3c 3b47 f53d fbf7 7ebd
000003f0: 724b 7b3d 0ba3 d2bd 6a1c 01bd 2ede 963d

fc2.bias f4 [32]
0.14344616 0.028916147 0.007107789 -0.030109905 -0.013215383 -0.08800434 -0.038088825 0.04147843
-0.00062625867 -0.022327337 0.05108071 -0.02889667 0.1525651 0.021853758 0.056185268 0.032504853
0.0043654707 -0.0045206007 -0.09285372 -0.12657167 0.014015473 0.12993291 -0.051024977 -0.04203984
0.032310992 0.06255405 -0.060018413 0.046990052 -0.043414276 -0.051715363 -0.055227652 0.02109555
00000000: 8de3 123e 8ee1 ec3c 75e8 e83b 0ca9 f6bc
00000010: 5585 58bc 9f3b b4bd 0703 1cbd 49e5 293d
00000020: 822b 24ba d2e7 b6bc 023a 513d b6b8 ecbc
00000030: 073a 1c3e a706 b33c 8622 663d cf23 053d
00000040: 390c 8f3b 8c21 94bb 172a bebd 019c 01be
00000050: 28a1 653c 220d 053e 91ff 50bd f831 2cbd
00000060: 8858 043d 561c 803d ded5 75bd a478 403d
00000070: 2bd3 31bd 7dd3 53bd 6436 62bd 93d0 ac3c

fc3.weight f4 [2, 32]
-0.13583937 -0.2378466 0.11306863 0.06932986 0.038668197 0.031795558 0.12798938 0.027676288
-0.16267902 -0.15147331 -0.10776296 0.065998405 -0.12025739 -0.16322666 -0.06869274 -0.056431025
0.08987585 -0.023309413 -0.12570424 -0.0035718936 0.25906432 -0.27780274 -0.029899893 0.15707456
-0.14030297 -0.256562 -0.017633956 -0.005753676 0.062685534 0.042249225 0.091812566 -0.12581962
0.2337329 0.13277522 -0.040460356 0.07305233 0.19546303 0.061589252 0.17006335 -0.20965952
-0.15716873 0.36649042 0.1114988 0.03569098 0.03042268 0.06391712 0.12831558 0.11050712
-0.21029907 0.14036156 0.029197564 0.02561411 -0.0739338 0.07461673 -0.12426627 -0.21578833
-0.0693879 0.38005412 0.106047645 -0.17188628 0.09944897 0.01740459 -0.18161188 0.06220384
00000000: 7a19 0bbe 0f8e 73be 8790 e73d d0fc 8d3d
00000010: 8b62 1e3d 0f3c 023d a60f 033e 62b9 e23c
00000020: 5495 26be d21b 1bbe d4b2 dcbd 2c2a 873d
00000030: 8249 f6bd e424 27be c7ae 8cbd 3824 67bd
00000040: d410 b83d 62f3 bebc 9db8 00be 6e16 6abb
00000050: 14a4 843e 293c 8ebe 9ff0 f4bc 27d8 203e
00000060: 95ab 0fbe 185c 83be 1675 90bc 5589 bcbb
00000070: 4661 803d 860d 2d3d 3a08 bc3d dcd6 00be
00000080: ad57 6f3e 3af6 073e c2b9 25bd 769c 953d
00000090: 7627 483e 0345 7c3d 1625 2e3e fcb0 56be
000000a0: d7f0 20be a2a4 bb3e 7c59 e43d b430 123d
000000b0: fc38 f93c fbe6 823d 2965 033e 8f51 e23d
000000c0: a458 57be f1ba 0f3e bb2f ef3c afd4 d13c
000000d0: 9b6a 97bd a8d0 983d 507f febd 9ef7 5cbe
000000e0: 3e1b 8ebd 7496 c23e 822f d93d f502 30be
000000f0: e7ab cb3d 1294 8e3c 77f8 39be 74c9 7e3d

fc3.bias f4 [2]
-0.1833891 0.023986362
00000000: 5aca 3bbe 0c7f c43c
