CNN/cnn.pt (torch_old, 304634 bytes, 12 tensors)

conv1.weight f4 [3, 1, 5, 5]
000000 3c 94 8c 3e 3f 36 e3 bd 10 8e 66 3e 87 b6 82 be
       0.27456844 -0.11094331 0.2251513 -0.25529882
000010 56 34 c0 bd 73 2a 85 3e 20 8a 2d be 76 b1 23 3e
       -0.09384982 0.2600895 -0.16947222 0.15985665
000020 f3 9a 6c be 0d 94 99 bd 0c a9 6e 3e ff 91 cb bc
       -0.23105983 -0.074989416 0.23306674 -0.02484989
000030 08 25 2f 3e aa 46 69 be 3d 22 3b bd 47 87 35 3e
       0.1710397 -0.22780862 -0.04568695 0.17727385
000040 91 03 64 bd bc d9 bb 3d 16 08 db 3c b1 b7 5c bc
       -0.055667464 0.09172389 0.026737254 -0.01347153
000050 50 65 4a 3e a2 02 c3 bd 99 9c 15 3e 48 12 2f be
       0.1976521 -0.095219865 0.14610519 -0.17096817
000060 7a c2 a0 3d 6c d1 d3 3c 97 5f b3 bd f2 4b 5a be
       0.078495935 0.025856696 -0.08758467 -0.21318033
000070 2e 2c 29 3d 51 f0 ab 3c 15 f6 94 3c f0 ec 80 be
       0.0413019 0.020988615 0.018183747 -0.2518077
000080 5a 03 19 be 13 62 1c be 2b 62 24 be 0f 77 e6 3d
       -0.14942685 -0.15271787 -0.16053073 0.112531774
000090 29 4a e8 bc fd ef 2c be 77 3f 80 3d d8 08 c0 3d
       -0.028355675 -0.16888423 0.06262105 0.09376687
0000a0 36 c1 9e 3d 03 3e 2b be 2f 94 af bd 97 35 c4 bd
       0.07751696 -0.16722874 -0.08573186 -0.09580534
0000b0 99 d4 57 3d 44 f9 0e 3e 6f 93 4c be fa 85 b2 bc
       0.052692983 0.13962275 -0.19978116 -0.0217924
0000c0 ee fe da bc d8 14 c5 bb 17 71 a8 b9 f9 f1 64 3e
       -0.026732888 -0.0060144477 -0.00032127716 0.2235793
0000d0 25 3f 08 3c ac 24 b4 3e 00 e0 3b bd 1e 75 4d 3e
       0.008315836 0.35184228 -0.04586792 0.20064208
0000e0 43 e7 50 3e 86 e7 91 bd a4 5d ed 3d c5 99 b3 3d
       0.2040072 -0.07124238 0.11590126 0.087695636
0000f0 ee 10 70 3a 3e 14 1d 3e 7d a4 6a bd 4a 65 84 3e
       0.0009157796 0.15339753 -0.057285774 0.25858527
000100 15 f8 5e 3d d0 43 59 3e 29 6e 77 3d e1 e6 52 bd
       0.05443581 0.21217275 0.06040779 -0.051489715
000110 ed 43 19 3e 7a 1b 6f 3d 67 3f 32 3e e9 e1 11 3e
       0.14967318 0.058375813 0.17406999 0.14246334
000120 33 b2 ac bb 24 cf 4f 3d 42 43 61 3d
       -0.0052702664 0.050734654 0.054995783

conv1.bias f4 [3]
000000 bf e3 07 3e c0 43 34 3e db 07 aa bc
       0.13270472 0.1760397 -0.020755699

conv2.weight f4 [3, 3, 3, 3]
000000 42 6b a1 3e 4b aa fd 3c a5 6e 8d 3d fb 3b dc 3d
       0.31527144 0.030964991 0.069058694 0.10753628
000010 a3 0e 13 bd c3 88 73 3c 7f 2e 4a 3e 9b 40 d1 bd
       -0.03590263 0.0148641495 0.197443 -0.10217401
000020 c9 e9 0e be 26 38 fe bc 66 e4 11 3e 73 6a 33 be
       -0.1395637 -0.031032633 0.14247283 -0.17521076
000030 24 0b dc 3d 40 fb aa 3d ab fc 11 bd c5 98 c5 3d
       0.107443124 0.083487034 -0.035641354 0.09648279
000040 8e ae 4d 3c 55 06 0b be f7 34 91 bd 38 60 8d bd
       0.012553824 -0.13576634 -0.0709018 -0.06903118
000050 d8 08 59 bc 13 25 38 3e 1a f5 7d bd de c6 ae bd
       -0.013246737 0.17982893 -0.062001325 -0.08534025
000060 9a 7b df bd 7f f5 dc 3d 85 6f 4b be 30 db 9f bd
       -0.10912247 0.10789012 -0.1986676 -0.078054786
000070 f8 a5 25 be 43 54 04 3e 05 be 43 bd 31 d6 cf bd
       -0.16176593 0.12922768 -0.04778864 -0.10148276
000080 8c bf bd 3d 45 e7 88 bd 03 ba 33 be 66 b1 9e 3d
       0.0926505 -0.06684736 -0.17551427 0.0774868
000090 b5 57 49 3e 99 15 03 3c 4f 33 4a 3e e8 11 33 3e
       0.19662364 0.008000755 0.19746135 0.174873
0000a0 d0 91 4b 3d 33 93 39 3e 64 5e 3e 3d 80 49 7b bd
       0.049699605 0.18122558 0.046476737 -0.061349392
0000b0 96 8f 59 3d 6f 21 b9 3c 15 f4 5d bd 18 79 95 be
       0.05311545 0.02259895 -0.054187853 -0.2919395
0000c0 33 0f f3 3c 00 f6 62 bd 20 23 1a bd 17 e6 e1 bc
       0.029670333 -0.055410385 -0.037631154 -0.027575536
0000d0 18 9b a8 bd dc da 56 be c2 7f 13 be 27 e9 db 3c
       -0.08232707 -0.20981926 -0.14404204 0.026844574
0000e0 5b 9e 74 be bb 29 0a 3d 90 06 ca bd 66 48 37 be
       -0.23888533 0.033731204 -0.09864533 -0.17898712
0000f0 af 6a da bd 41 4d 6c 3c db 52 40 be dd f8 2c 3e
       -0.106648795 0.014422716 -0.18781607 0.16891809
000100 63 c2 3d 3e cc de 88 bb 6c c0 8a 3b 2c 69 1f 3d
       0.18531184 -0.00417695 0.0042343643 0.03891866
000110 0e 69 c0 3d 07 2c d5 3d f6 60 de 3d da 4f 2b be
       0.093950376 0.10408788 0.108583376 -0.1672968
000120 50 bb 54 be 5b e1 53 bd fc df a5 3d 52 a9 97 bd
       -0.20774579 -0.051728588 0.08099362 -0.07405342
000130 52 69 a2 3d b1 55 33 3e 87 9d e3 bd 56 32 9d bd
       0.079302445 0.17513157 -0.1111403 -0.076756164
000140 ab de 46 3e
       0.19420879

conv2.bias f4 [3]
000000 fd 80 5c 3d 34 9d 6d 3e 78 70 84 3e
       0.05383395 0.232045 0.25867057

conv3.weight f4 [3, 3, 3, 3]
000000 32 78 d6 bd 5d 94 96 3e 6d a4 35 3e fc 7c 82 bd
       -0.10472144 0.29410067 0.17738505 -0.06371495
000010 0c 4e 3c 3e 10 de 2a 3d 2d ff d5 bd e8 f5 de 3d
       0.18389148 0.04171568 -0.104490615 0.10886747
000020 6e e6 e6 bb 7e 9f 41 3d f1 17 45 bc 5f c8 0d be
       -0.0070465123 0.047271244 -0.012029634 -0.13845967
000030 6e 5e 7c bc ff f4 cf bb 7e 93 bc 3d 0d f3 1c 3d
       -0.015403373 -0.0063463445 0.092078194 0.03831773
000040 af 60 f6 3c 0e 65 56 be bc f5 b0 3d f0 ff b7 bd
       0.0300754 -0.20936987 0.0864062 -0.08984363
000050 38 d5 85 be 4d 66 b0 bc bd e6 1f 3e e5 6f 5c be
       -0.26139235 -0.021533156 0.15615363 -0.2152706
000060 3a 5c d3 bd f8 6b 08 be 41 68 c5 bd 75 59 9e 3c
       -0.10320325 -0.13322437 -0.096390255 0.019329766
000070 d3 2a 83 be f3 89 36 be f5 01 8c 3c 91 55 b1 3c
       -0.2561861 -0.17826061 0.017090777 0.021647247
000080 e6 89 c7 bd a3 a2 fe bb bb 44 49 be c4 ba 7f 3d
       -0.09743099 -0.0077708527 -0.19655125 0.062433973
000090 ba 64 b2 3e 3d a1 17 be 32 45 2d 3e 3d b5 8b 3c
       0.34842473 -0.14807601 0.16920927 0.017054195
0000a0 87 96 bf bd 6b ba e1 3d 43 51 80 3e bb 35 eb 3c
       -0.09354883 0.110218845 0.25061998 0.028712144
0000b0 ea 3e c3 3c f8 75 93 3e 79 f6 d4 bc 04 23 0d 3d
       0.02383371 0.2880094 -0.025996434 0.03445722
0000c0 de 65 c8 3d a4 71 ee 3a 40 7f 67 3b 34 43 26 3e
       0.097850546 0.0018191827 0.003532365 0.16236573
0000d0 93 87 d5 3d 22 bf 86 3d 69 7a 4d 3d e7 83 3a 3e
       0.10426249 0.065794244 0.050165568 0.18214379
0000e0 7d 05 a3 be 3a de fc bc df 4f cb bd ed e1 e3 bc
       -0.31840125 -0.030867685 -0.099273436 -0.02781769
0000f0 78 90 80 3d ae 45 87 3e e9 fd a0 bc 4a 3a 9a 3e
       0.06277555 0.2642035 -0.019652324 0.30122596
000100 98 ab 41 3d 22 c4 f1 bd 95 98 eb 3d a1 f8 c3 3c
       0.047282785 -0.118049875 0.11503712 0.023922266
000110 f4 32 66 be 31 41 70 3e 67 eb 65 bd f7 e3 b9 bd
       -0.22480375 0.23462369 -0.0561327 -0.09076684
000120 9f a6 ad be ae 82 49 3e b4 9c a1 3e 57 4e 27 be
       -0.33916184 0.19678757 0.31564867 -0.16338478
000130 d9 4a 2a bd 89 62 e1 3c d2 f9 5c be fc 97 bb 3d
       -0.041575287 0.027512806 -0.21579674 0.09159848
000140 bb 17 55 3e
       0.20809834

conv3.bias f4 [3]
000000 68 13 d3 3d 28 1e c5 bd 12 f2 6c bd
       0.10306436 -0.096248925 -0.057848044

fc1.weight f4 [135, 525]
000000 36 38 54 3d bb 44 1a 3e 14 ee 8f 3b 3b 7c 2e 3e
       0.05181142 0.15065281 0.004392395 0.17039578
000010 cc 57 8f 3d ad 2f 28 3d 4d fb f7 3c 7d 1e 3a 3d
       0.06999168 0.041061092 0.030271197 0.045439232
000020 37 a5 0e be 74 ed 53 3c 2f 06 72 bd 28 eb 5a bc
       -0.13930212 0.012935031 -0.05908793 -0.01336173
000030 b0 e0 47 be 22 c5 9d 3d f3 c9 6f bd 5d c2 b7 bd
       -0.19519305 0.07703616 -0.058542203 -0.08972619
000040 9d c6 86 3d 93 14 03 be a9 44 f4 3d 2e 23 9c bd
       0.06580851 -0.12800817 0.119271584 -0.076238975
000050 f1 cc 16 3e eb bb 25 bd e2 85 4f 3c 01 8a 6a bd
       0.14726616 -0.040462416 0.0126661975 -0.057260517
000060 a3 58 a9 3d a5 45 3b be d7 86 da 3c 7a 16 0a bd
       0.08268859 -0.18288286 0.026675625 -0.03371284
000070 f5 1b a8 3d ae 84 20 3e 2b 30 b7 3d 58 ed f4 bc
       0.082084574 0.15675613 0.08944734 -0.02989833
000080 00 a0 81 3c 31 d7 af ba 26 0e a1 bc f8 78 16 3d
       0.015823364 -0.0013415572 -0.019660067 0.03673646
000090 41 da e5 3c 2f 2e 92 bc 39 58 29 bb 0f dd 4e bc
       0.028058173 -0.017844288 -0.0025839938 -0.012625947
0000a0 c1 c5 5e 3c 75 1d ed bc 29 30 1c 3d 1b 2c 70 3b
       0.013596953 -0.02894471 0.038131867 0.0036647383
0000b0 26 56 a9 bc 9f 9b 92 bd 6c 12 89 3b 7e 7d 71 be
       -0.020670962 -0.071585886 0.0041831043 -0.23583028
0000c0 b0 60 90 3d 7f d1 ad 3c 01 95 f4 bc 0d 38 2d bc
       0.07049692 0.02121806 -0.029856207 -0.010572446
0000d0 ea dd b9 bd 26 d9 27 3d e6 a8 61 bd df 83 af 3c
       -0.0907553 0.040978573 -0.055092715 0.021425186
0000e0 20 75 f1 bc e2 de 74 bd 93 b5 21 bd 88 25 d6 bc
       -0.029474795 -0.05978287 -0.039479803 -0.026140943
0000f0 bf 87 bd bd c9 63 87 3d 28 25 47 bd 2a 78 20 3d
       -0.09254407 0.066108294 -0.04861942 0.039177097
000100 d5 20 39 3d ed fe 9f 3c 62 4a 40 bc 25 5b 87 bc
       0.045197327 0.019530738 -0.011736484 -0.016522953
000110 2e ed 22 bc 03 91 8c 3c 63 e4 04 bd e4 17 c8 ba
       -0.009944243 0.01715899 -0.03244437 -0.0015265909
000120 92 d0 0f bc 5f e9 48 3d f7 56 46 3d 1b 8a 37 bd
       -0.008777754 0.049050685 0.04842278 -0.044809442
000130 ed fc 88 3c 9c ae 67 bd 1f b8 32 bc 74 9a 20 3d
       0.016722167 -0.056563005 -0.010908156 0.039209798
000140 87 79 bd bd 71 1e 82 3c 16 91 54 be 26 95 96 bd
       -0.09251695 0.015883656 -0.20758471 -0.073526666
000150 06 c2 14 3d b8 8d cc bb 27 c9 19 bd cb 31 da bd
       0.036317848 -0.00624248 -0.03754535 -0.106540285
000160 3b e5 35 3c 68 3f 9d bc c2 6c dd 3b 4a 57 9a 3c
       0.011102016 -0.019195274 0.0067573497 0.01884045
000170 94 bb 14 bd 7a 47 17 bd 10 a8 95 3b c2 49 9d bd
       -0.0363117 -0.0369334 0.0045671538 -0.07680084
000180 04 c2 d8 3c 15 1e ec bc 25 5a 70 bb c7 c8 3c 3d
       0.026459701 -0.028822938 -0.0036674824 0.046089914
000190 77 2c c2 3d e9 6b d2 bc 81 15 89 3c fb cc d8 3b
       0.09481137 -0.025686221 0.016733887 0.0066162325
0001a0 bd a5 f2 b8 a4 3c 8a bb 05 61 cb 3c 99 8c 5b bc
       -0.000115703304 -0.0042186547 0.024826536 -0.01340022
0001b0 77 de 3d 3b c7 0b 6a 3d a8 40 79 3c d2 59 c8 3c
       0.002897171 0.057140138 0.015213169 0.024456892
0001c0 ba 7e 25 bd e1 15 bb 3c fc b0 42 bb 41 12 a7 bd
       -0.04040406 0.022837581 -0.0029707542 -0.081577785
0001d0 6e ce 48 bd 53 ee 05 be ac 4c 48 bd ac 19 32 bd
       -0.04902499 -0.13079195 -0.048901245 -0.043481514
0001e0 39 27 14 bb b4 42 f0 bc 8d ec 60 bd eb 86 83 3d
       -0.0022606386 -0.029328682 -0.054913092 0.06422218
0001f0 8a d0 04 3d 28 07 2b bb bd 58 f3 bc d4 a7 59 3d
       0.03242544 -0.0026096795 -0.0297054 0.05313857
000200 7b 5d 30 bd 60 78 2f bd 4d 8b a4 bd fa 0e 75 bc
       -0.0430579 -0.042839408 -0.08034382 -0.014957184
000210 82 6f 34 3b 7f 80 e1 bc d9 6b a5 3d da 83 1f 3d
       0.0027532284 -0.027527092 0.08077211 0.038944103
000220 b5 4e 5f bc b2 7d 70 3d fe a1 66 bc 5c cd 90 3b
       -0.013629605 0.058713622 -0.014076708 0.004419012
000230 0f b1 c2 bd c5 f1 cd 3d 93 db 5f 3b e0 17 0b 3d
       -0.095064275 0.100558795 0.0034157976 0.033958316
000240 a9 66 17 3c 0d 11 2e 3d d3 60 82 3d 87 d1 da 3c
       0.009240785 0.04249673 0.06366124 0.026711239
000250 01 4d 35 bb 9b 50 46 3d cd 7a 69 bd db f7 71 3c
       -0.0027664306 0.048416715 -0.057001878 0.014768566
000260 0a 96 44 be c1 62 09 be 0f 7c 2d 3d 82 13 81 3b
       -0.1919786 -0.13416578 0.04235464 0.003939093
000270 9e 24 93 bc ef 1e 18 be ff 99 22 3d 62 46 c1 3b
       -0.017961796 -0.1485555 0.039697643 0.005898283
000280 5e 43 b2 bc 8a 31 99 3c 25 ca f8 3c fe 6f 84 bc
       -0.021760639 0.01870038 0.030369828 -0.016166683
000290 ef 40 d6 3c eb c5 5d bd 0f 78 72 3b cb 84 50 bd
       0.02615401 -0.054143827 0.003699783 -0.05090789
0002a0 8a 2f a8 bd 37 e5 84 3d 2d 55 18 3c d9 55 8c 3c
       -0.08212192 0.06489032 0.009297651 0.01713078
0002b0 1f e5 27 3d f5 0a 3f bd 06 60 67 3d da 98 38 bd
       0.04098999 -0.04664131 0.05648806 -0.045067646
0002c0 31 64 f9 bd 5d 1f da bd 3c ca d5 bd 94 f2 96 3c
       -0.12177313 -0.10650513 -0.10438964 0.018426217
0002d0 a9 45 8c be 01 17 1b 3d f1 b8 d8 bd 39 f0 00 3d
       -0.27396896 0.037863735 -0.1058215 0.031479094
0002e0 77 37 94 3d 52 8a d4 3d fb 6b c0 bc 09 23 b1 3d
       0.072371416 0.10377945 -0.02348899 0.086492606
0002f0 e7 e0 29 bd d8 e4 1e 3c b6 a1 1e 3d f9 91 fa 3d
       -0.04147425 0.009698115 0.03872844 0.12234873
000300 77 e8 93 bb 43 ea 3e 3d 57 04 9a 3d eb 18 38 bd
       -0.004513796 0.046610128 0.07520359 -0.04494564
000310 2a c6 05 3d fd fc 17 3c af 66 68 3c 88 4d 44 bd
       0.032659687 0.009276626 0.014184638 -0.047925502
000320 a6 8b 6e 3d e0 be 27 bc da b9 69 3e 8d b4 05 be
       0.058238648 -0.010238379 0.22824803 -0.13057156
000330 c8 88 73 bd c3 84 ea bd eb ee 17 3e c4 3f 43 bd
       -0.059456617 -0.114511035 0.14837234 -0.047668234
000340 f9 12 10 3e d5 9a 50 bd 49 9c 8c 3c db 57 57 bc
       0.14069737 -0.05092891 0.017164366 -0.013143505
000350 ef 96 2c 3c e5 ff 3d 3c 02 0c f5 3c b4 78 f4 bd
       0.010534032 0.011596655 0.029912952 -0.11937085
000360 6c e8 81 3d 5c 9b 4d bc 6b ad d0 bc bb c8 52 3c
       0.06343159 -0.012549248 -0.025473317 0.012865241
000370 61 82 16 3d 3f eb ab bc cd 1c 22 3c 95 5f 95 bd
       0.036745433 -0.020986198 0.009894562 -0.072936215
000380 b9 d8 21 3d 44 94 07 3d b7 72 f8 bc e6 dd af bc
       0.039513323 0.03310038 -0.030328138 -0.021468114
000390 70 cf 08 bd 48 0c 05 bc d6 87 99 bd cc 42 34 3c
       -0.033400953 -0.008120604 -0.07496612 0.011002254
0003a0 f7 ed 09 3d d3 58 34 3d 27 42 91 3d b2 5c 5a bc
       0.033674207 0.044030022 0.07092696 -0.013327764
0003b0 ea fd 1d 3d 7b 67 1a 3d c9 c9 ab bd f6 a7 86 bd
       0.03857223 0.037696343 -0.08388097 -0.06575005
0003c0 94 14 86 bd a8 96 c2 3d 8c f0 82 bd 28 87 e7 3d
       -0.06546894 0.09501392 -0.06393537 0.11305076
0003d0 0d f4 54 3c 8a b5 80 bc 50 4e 18 bd 58 88 9e bd
       0.012997639 -0.015711565 -0.03718406 -0.07740849
0003e0 33 1f 95 bd 34 37 08 3d 29 e1 bb bd da fd ea bb
       -0.072813414 0.03325577 -0.09173805 -0.0071713747
0003f0 6c b9 3a bc 3b 26 10 3d e6 7b 1e 3d 72 6a 91 3d
       -0.011396747 0.03519271 0.038692378 0.07100381

fc1.bias f4 [135]
000000 5d 28 3f 3d 69 5c 18 3b 36 96 a8 3c 90 f9 83 3c
       0.046669353 0.002324844 0.020579439 0.016110212
000010 e9 f8 ab 3b 9e b6 ab 3a bd c5 6b 3c 53 fe c9 3c
       0.0052481783 0.0013100689 0.014390406 0.024657404
000020 f6 4e 81 bc 90 cc a2 3c 09 54 d5 3b 47 ec 91 bc
       -0.015784722 0.019872934 0.006510262 -0.017812861
000030 7e aa 2a 3d 2d 64 5d 3c 48 b6 99 3c bf da e1 3c
       0.0416665 0.013512653 0.018763676 0.027570127
000040 7a f7 81 3c 22 d3 91 3c 30 d2 1b bd 2c b1 98 bc
       0.015865076 0.017800871 -0.038042247 -0.01863917
000050 f6 9c e8 bc 0f 49 09 bd 9b 6c e2 3c 30 e2 48 bc
       -0.028395157 -0.03351694 0.027639678 -0.012260959
000060 9e 23 80 3c 27 4b a0 3c f9 d9 ae 3a f7 5a 27 bd
       0.015641984 0.019567085 0.0013340107 -0.040858235
000070 00 d7 29 bd aa dc 09 bd 1e ac 80 bc 39 fe 3a bd
       -0.041464806 -0.033657707 -0.015707072 -0.045652602
000080 14 1d 2b bc 28 f5 3b bd 75 b2 45 3c 07 91 1a 3d
       -0.0104439445 -0.045888096 0.012066473 0.037735965
000090 24 e5 41 bd 08 f1 2f bd 2a 6f 40 bc d3 61 ce 3b
       -0.047337666 -0.042954475 -0.011745254 0.0062982826
0000a0 5e 05 1f 3c 5b 49 02 bd b5 41 e3 3b ec 1a 70 3c
       0.0097058695 -0.03180824 0.006935323 0.014654856
0000b0 bc 41 17 bc 86 11 01 3d a8 e4 16 bd c9 0e 5c 3d
       -0.009231981 0.031510852 -0.036839157 0.053725038
0000c0 f3 b7 ed 3c 77 e8 3f bd 51 2f 44 bd 56 88 09 bd
       0.029018378 -0.046852555 -0.047896687 -0.033577286
0000d0 52 6e 6b 3d 7d 79 68 bc 54 18 1f bd fe cc e3 bc
       0.057478257 -0.014189121 -0.03884156 -0.027807709
0000e0 ab 46 9a 3c e9 0b 6e 3d 59 24 ac bc df f7 a1 bb
       0.018832525 0.058116827 -0.021013426 -0.0049428786
0000f0 9e 93 07 3c d8 a5 17 3d 29 fb 82 3c c0 05 0e 3c
       0.008274941 0.037023395 0.015988903 0.008668363
000100 a5 96 1d 3c 87 0e fb bb e3 fb 01 3d 11 dd 09 39
       0.009618436 -0.007661644 0.03173436 0.00013147692
000110 f7 58 06 bd 61 02 3b bd 24 da 0b 3a 48 a1 ae 3c
       -0.032799687 -0.045656566 0.00053349347 0.02131714
000120 62 5b 18 bd e9 1f 5d 3c a4 13 c4 bc 73 dc 11 3c
       -0.037196524 0.0134963775 -0.023935147 0.008902657
000130 30 e1 1b bd f8 f1 fe bc a5 75 93 3b a0 b7 08 3d
       -0.038056552 -0.031121239 0.0045001083 0.033378243
000140 62 99 1b bd fa aa 26 3c 83 75 00 bc cf 69 11 bd
       -0.037988074 0.0101726 -0.007840517 -0.035501298
000150 74 bf 8f bc 1b 4f d3 bc d3 4f 14 3c 03 4e 84 bc
       -0.017547347 -0.025794556 0.009052235 -0.01615048
000160 54 72 90 3c ef 51 60 bb d9 b8 bd bc 5f e2 35 bc
       0.01763264 -0.0034228524 -0.023159431 -0.011101334
000170 68 ca d6 bc eb c7 74 bd cc 1a ca bc e8 04 cd bc
       -0.026219562 -0.05976097 -0.02467098 -0.025026754
000180 11 d8 53 bd 60 2f 93 bc 0e c6 11 3d 33 f7 3c bd
       -0.05171973 -0.017966926 0.03558927 -0.046134185
000190 ff 7e 62 bd cf 51 49 bd 3c bd fe 3c e2 54 7b bd
       -0.055296894 -0.049150284 0.031096093 -0.061360247
0001a0 e5 0f a7 bb 9b f4 ab bc 69 84 d7 bc 73 06 26 3c
       -0.0050983303 -0.02099066 -0.026308255 0.010133374
0001b0 4a aa 12 3d d9 3f af 3b 89 45 d5 bc fc 9e 6e bc
       0.03580693 0.0053481874 -0.026034134 -0.014564272
0001c0 27 d9 6c 3b 29 9d 08 bd 33 69 50 3d 63 21 24 bd
       0.0036140175 -0.033353005 0.050881576 -0.040070903
0001d0 d0 65 1b 3d d5 08 1d bd d9 81 1d bd 8f ef 36 3d
       0.037938893 -0.0383385 -0.03845391 0.044662055
0001e0 4a f7 1b 3c f0 ed 00 bd 74 1d 8f bc 7c 1a 4c bd
       0.0095194075 -0.031476915 -0.017470099 -0.049829945
0001f0 17 13 94 bc 08 20 26 3c ce 0a 46 bc fa 14 75 bb
       -0.018075509 0.010139473 -0.012087537 -0.0037396536
000200 fd 51 ef ba f0 93 b8 3c 72 44 77 3d a0 09 7c bb
       -0.0018258687 0.02253148 0.06036801 -0.0038457885
000210 9c 16 aa bc 0f 09 92 3c f2 e4 36 bd
       -0.020762734 0.017826585 -0.044651933

fc2.weight f4 [32, 135]
000000 81 61 77 3e 36 bd 9b 3d 52 2a 85 3d c0 4e 27 3d
       0.24158289 0.076044485 0.065022126 0.040846586
000010 92 65 b6 bc 76 eb 82 bd 50 59 42 3c a8 e7 d5 bc
       -0.02226523 -0.06392567 0.011862114 -0.026111439
000020 20 62 bc 3c 4c b1 c5 3c 40 64 13 3d 36 27 4d 3d
       0.022996008 0.024132393 0.035984278 0.050086223
000030 7d 31 d1 3d 7c 02 0d 3d bc 2b e9 3c 1a 66 85 bd
       0.10214517 0.034426197 0.028463237 -0.06513615
000040 a4 72 f5 bd 5c 8e 9f 3d b9 66 39 bd 51 f4 03 3d
       -0.119847566 0.07790825 -0.04526398 0.03221542
000050 98 52 88 3d cd 87 c9 bd fd aa 1c bd 2d 33 99 bd
       0.066563785 -0.09840355 -0.038249005 -0.07480464
000060 f9 1b 08 bd b1 53 63 3d a5 34 3c bd 0b f5 59 bb
       -0.0332298 0.055499736 -0.045948643 -0.003325763
000070 d1 61 9c 3d fd a0 c1 3c 9d b5 90 bc f3 69 a0 bd
       0.076358445 0.023636336 -0.017664725 -0.07832708
000080 97 3e df 3c aa d5 b4 3c cc 78 c5 3c 08 07 80 3d
       0.027251525 0.02207454 0.024105452 0.06251341
000090 91 c9 cd 3c 2f ab a6 bc bf b5 bd 3d 24 4d a8 bd
       0.025120528 -0.020345299 0.09263181 -0.082178384
0000a0 50 2a 8d bd 90 a1 98 3c 6a c5 89 3c 1b c8 a7 3d
       -0.06892836 0.018631727 0.016817767 0.08192464
0000b0 11 6c 1c bd 9e 48 06 3d b0 14 31 bc 96 2e 4a 3e
       -0.038188998 0.032784097 -0.010808155 0.19744334
0000c0 7e bc 28 3d 96 ff 89 3d 38 00 8c bc 15 09 f3 3c
       0.041195385 0.06738202 -0.017089948 0.029667417
0000d0 01 18 9d bc 0f b9 8c 3d 56 24 90 bd 39 bd 73 bd
       -0.019176485 0.068712346 -0.070381805 -0.05950663
0000e0 e9 fc fb bd bc 5c b0 3d 61 d1 4f bd e4 89 9a 3d
       -0.12304098 0.08611438 -0.05073679 0.07545832
0000f0 9c 48 7f 3d 76 89 87 bd 71 a8 bf bc 61 a5 11 3d
       0.062325105 -0.066180155 -0.023395749 0.03555811
000100 32 7f 93 3c 60 39 a0 bc d2 96 20 bd a6 e1 b2 3c
       0.018004987 -0.019558609 -0.039206333 0.021836113
000110 49 72 20 3d 7d 4d 73 bd c6 40 90 3d 25 ae cc bd
       0.03917149 -0.05940007 0.070436046 -0.09994153
000120 a5 8d a9 bd 18 2a 79 3c 95 74 5b bd 9c d9 c4 39
       -0.0827897 0.01520779 -0.05357798 0.00037546165
000130 76 30 6b bd 63 aa e4 ba f4 0b 29 3c 5a e4 49 bd
       -0.057419263 -0.0017445799 0.010317791 -0.04929004
000140 fe e5 4a bd 02 a0 1c 3e a2 86 9c 3c e8 3d 2e 3d
       -0.049535744 0.15295413 0.019107167 0.042539507
000150 66 f0 d6 3c f8 53 79 bd 2a 98 cf 3b b5 7d af 3c
       0.026237678 -0.060871094 0.006335278 0.021422246
000160 a0 dc bd bd f9 5c 0e bd 37 8f f0 3a 9d 9c 90 bc
       -0.092705965 -0.034756634 0.0018353228 -0.017652804
000170 cc c5 13 bd 82 77 9f bd 50 2e 79 bc ef 14 8b bd
       -0.036077306 -0.07786466 -0.015208796 -0.06791102
000180 97 e2 28 bc 24 70 15 3d 7c da 25 3d e2 51 8a bd
       -0.0103079295 0.0364839 0.040491566 -0.06753899
000190 8d 0b 6c bc 0f 26 a4 bb 12 cc 30 3d ef cf 85 3d
       -0.014407051 -0.0050094198 0.043163367 0.06533801
0001a0 62 2d 48 3d b0 18 63 3b 3b 3e 8d 3d 30 b6 b3 bc
       0.048871405 0.0034652166 0.06896635 -0.02193746
0001b0 df 06 97 bd 2c 83 9f 3c 8c 9d 40 bd 2e f2 85 bd
       -0.073743574 0.019471727 -0.04702525 -0.06540333
0001c0 6d 8d 64 3d 1b 3b 88 3d 9c b5 ed 3d f6 69 51 3d
       0.055798937 0.066518985 0.11606905 0.051126443
0001d0 9c cd 9d 3d 28 80 13 3d b9 83 00 3c bc c6 58 bb
       0.077052325 0.03601089 0.007843905 -0.003307744
0001e0 86 0a a3 3d cb 19 c6 bd c5 81 10 3c 05 95 db 3b
       0.079609916 -0.09672888 0.008820002 0.006701114
0001f0 3c 51 0d 3e 62 1a 0b 3d 73 ea ba 3b ce 51 0d 3e
       0.1380052 0.033960707 0.005704218 0.13800737
000200 dd 48 2f 3d f0 39 e9 bd 8a 44 a5 3d 3e b3 77 bc
       0.042794097 -0.11388004 0.080697134 -0.015118418
000210 1e d2 6d bd 94 b2 10 3e db df 93 3d c7 be 3e be
       -0.05806171 0.14130622 0.072204314 -0.18627463
000220 a4 4b 0e bd 17 a5 60 bb 20 d1 f4 3d 02 d6 87 bd
       -0.034740105 -0.0034278089 0.1195395 -0.066326156
000230 bb c2 56 3c 13 84 11 3e dd 87 34 bd 4e 1e 45 bc
       0.013107951 0.14210539 -0.04407488 -0.012031151
000240 36 55 d5 3d 8a d4 72 bc 59 fa 98 3d 70 93 3a be
       0.10416643 -0.014821181 0.07469625 -0.18220305
000250 a4 da 67 bd aa ad d3 bc 62 a8 4d bd c4 01 dc 3d
       -0.056604996 -0.025839645 -0.05020941 0.10742524
000260 ba ea a1 3d da 02 8e 3c 9c 0e a0 bc a8 73 95 bd
       0.07906099 0.017335344 -0.019538216 -0.0729745
000270 e7 88 ee 3d 83 89 80 bd 26 9d 58 3d c6 50 62 bd
       0.11647206 -0.06276228 0.052884243 -0.055252813
000280 9a 51 b7 bc 5c cf ad bd c1 f6 f4 3c c2 f2 85 bd
       -0.022377778 -0.08486816 0.029902818 -0.06540443
000290 a0 c4 e4 ba 51 83 bf 3c b7 9f b2 bd ae 37 ef bc
       -0.0017453618 0.023378046 -0.087218694 -0.029201355
0002a0 98 77 35 3d b7 fd 84 bd d8 f6 91 3c 62 e7 9c ba
       0.044303507 -0.06493705 0.0178179 -0.0011970813
0002b0 b5 7f 22 3d bc 62 87 bd fc c5 a7 3d 03 5a 64 bd
       0.039672572 -0.06610629 0.081920594 -0.055749904
0002c0 de fa b8 3d d1 87 87 bc c2 66 66 bd c0 18 a2 bb
       0.09032224 -0.016544254 -0.05625034 -0.004946798
0002d0 38 74 13 bd b3 77 90 bd 91 e1 3f be e1 2a fc 3c
       -0.035999507 -0.07054081 -0.1873839 0.030782165
0002e0 38 96 e5 3c 8a fa 22 3d 1f fb d3 bb 0f 61 1e bc
       0.028025731 0.039789714 -0.006469145 -0.009666695
0002f0 ec 1c 94 bd 22 9a ea bc e5 b8 36 bd 11 b7 fd 3d
       -0.07232079 -0.02863795 -0.044609923 0.12388433
000300 e0 77 0f bd d6 86 34 bd ff 20 1c bd 33 df 84 3d
       -0.03502643 -0.044073902 -0.038117405 0.06487884
000310 29 7e 50 3b cc f9 29 3e 61 ba f9 3c 3b c5 9e 3c
       0.0031813479 0.16599196 0.03048438 0.019381156
000320 b1 2e 47 3d 31 8c 33 bd fe 79 cb 3b c9 0c 7c bc
       0.048628513 -0.04383487 0.006209611 -0.015383908
000330 29 14 24 bd 38 41 c4 3c ae 7c ba 3d b4 08 b4 3c
       -0.04005829 0.02395688 0.09105812 0.021976806
000340 49 c9 56 3d d2 df e6 3c e0 11 44 bd 19 cd 2e 3c
       0.052438054 0.028182898 -0.04786861 0.010669016
000350 26 05 85 bd 38 1d 73 bd be 90 46 bd 16 70 8b 3d
       -0.064951226 -0.059354037 -0.04847788 0.06808488
000360 a9 6b 9b bc 3a c0 20 bd 38 8f 8c bd 29 fb 7f bd
       -0.018972235 -0.03924582 -0.06863254 -0.062495384
000370 36 95 af bc b7 cd b3 3d 8a 15 95 3d 22 03 a2 3c
       -0.021433454 0.08779471 0.07279499 0.019776884
000380 08 a7 21 3d 58 f2 99 bc c3 26 b3 3d 6c 64 ac bc
       0.039465934 -0.018792316 0.087476276 -0.021043979
000390 9b 7c 00 3d 12 fb 3c bc f5 72 99 3c 1e 77 85 bd
       0.031368833 -0.011534469 0.018731574 -0.065168604
0003a0 c5 1d 5a bd a1 21 6a bd 91 96 97 bd f0 97 10 bd
       -0.053251047 -0.057160977 -0.07401765 -0.03530115
0003b0 0b 5d e6 3d 4f 23 c8 bd 95 ab b2 bc 2e 8f 83 b9
       0.11248215 -0.097723596 -0.021810332 -0.00025092944
0003c0 e3 bd 03 bc b4 7c 18 be 7c fe cb 3d 98 06 80 3c
       -0.008040878 -0.1489132 0.099606484 0.015628144
0003d0 f6 91 90 bd 37 db 06 3d a6 03 f0 bb 99 22 6a 3c
       -0.0705909 0.032923903 -0.0073246537 0.014290475
0003e0 5d a2 96 bd cd 10 5b 3c 6e ea 61 3d 5b d7 0b bd
       -0.07355187 0.013370705 0.05515521 -0.034140926
0003f0 94 87 49 bd 84 4e b3 3d 6d 0f 28 3d a9 d9 66 bd
       -0.049201563 0.0875521 0.041030336 -0.05635992

fc2.bias f4 [32]
000000 bd 2b 64 3d bd 19 88 3c 56 1f 89 bb ba c8 6c bd
       0.055705775 0.016613835 -0.0041846437 -0.057808615
000010 10 36 bb bc 24 ec dc 3d 6d 47 b2 3d fe 19 3f bd
       -0.022852927 0.10787228 0.0870503 -0.046655647
000020 0f c3 00 3e d8 aa 5f bd 27 77 8f 3d bc 57 1e bd
       0.12574409 -0.05460629 0.070051484 -0.03865789
000030 07 3c 47 3d 7f 58 90 bd 5c 70 f1 3c d0 56 6c 3d
       0.04864123 -0.07048129 0.029472522 0.05769998
000040 64 54 47 bc c0 00 02 bd ca 0a 3f bd 3f ae a9 bd
       -0.012166116 -0.031738997 -0.04664115 -0.08285188
000050 18 30 47 bd c1 40 82 bc 51 15 06 bd b3 78 8b ba
       -0.04862985 -0.015900018 -0.032735173 -0.001064083
000060 d6 2b 3e bd 1b ee 58 3d 06 5e 2f bd 0a e9 80 3d
       -0.046428524 0.05296145 -0.042814277 0.06294449
000070 25 26 0b bd 57 bd 4a bc 43 4c de bc 05 c2 07 bd
       -0.033971924 -0.012374244 -0.027135974 -0.033144016

fc3.weight f4 [2, 32]
000000 a3 d8 57 be 79 fb 4d 3e d2 a9 8c be e3 f1 84 3d
       -0.21078734 0.2011546 -0.27473313 0.06491449
000010 06 55 1a be bc 2f 82 be a3 32 51 3e d0 82 1c be
       -0.15071496 -0.25427043 0.20429473 -0.15284276
000020 f6 65 5e be 2b 87 85 3e ae 66 78 3d d0 23 91 bd
       -0.21718583 0.26079687 0.060644798 -0.07086909
000030 59 00 b9 3d 1c a2 e8 3d e9 88 98 3e f3 7b 85 be
       0.090332694 0.11359045 0.29791954 -0.26071128
000040 b2 1d 5c 3e 71 cc 20 be 4d 80 53 be 40 aa 55 3e
       0.21495703 -0.15702988 -0.20654412 0.20865726
000050 65 17 82 be 17 bd 2a be fe 54 d9 3d 4e 8e 8c be
       -0.25408474 -0.16673695 0.10611914 -0.2745232
000060 3b 2d b1 bd f9 61 85 3e 7d 31 8d 3d 53 08 48 3e
       -0.08651205 0.2605131 0.06894205 0.19534425
000070 46 ab 36 be 9d 53 ee 3d 09 fe 67 be 0a 10 98 3d
       -0.17838773 0.11637042 -0.226555 0.07424934
000080 c9 29 4a 3e 91 14 84 be ce e5 f6 3d cd 15 5d 3c
       0.19742502 -0.2579694 0.120555505 0.013493967
000090 c9 a4 1a 3e e8 53 fb 3d e1 30 4d be d0 1d 1a be
       0.15101923 0.12271863 -0.20038177 -0.15050435
0000a0 82 be 0d 3e 25 a3 75 be ec 5c 8c be b2 b6 1b 3e
       0.13842204 -0.23988016 -0.27414644 0.15206411
0000b0 02 f8 69 be 53 6e 0b 3e d7 74 2a 3d 5e ae e4 bc
       -0.22848514 0.13616304 0.041615333 -0.027915176
0000c0 aa 48 1b be c2 6e 94 3d fd b9 43 3e 7c 8d 4b be
       -0.15164438 0.07247688 0.19113918 -0.19878191
0000d0 e5 1b 20 3e 65 df de 3c 90 74 9e bc 83 e6 0b 3e
       0.15635641 0.027206132 -0.01934269 0.13662152
0000e0 62 f6 26 3d a7 0e fd bd e4 64 0b be 8e d6 98 3b
       0.040762313 -0.1235631 -0.13612705 0.004664249
0000f0 3c 8c 6e 3d d3 63 12 be 21 50 4d bd a6 f1 f6 bd
       0.058239207 -0.14295892 -0.050125245 -0.120578095

fc3.bias f4 [2]
000000 fa 86 d4 bc f5 90 00 3d
       -0.025943268 0.03138824
